autoencoder/checkpoints/small_classifier/frozen_encoder_classifier_5_epoch10.pth (torch, 971803 bytes, 68 tensors)

0.conv1.weight f4 [6, 3, 3, 3]
00000000: 88f0 f4bc 97ef 1fbe 5434 dcbc e407 8dbe
00000010: 746d 04be 4b47 2cbe 6818 de3c f073 283c
00000020: 92d6 6fbc 195a 613e 5308 053e d986 2b3e
00000030: 5052 a83d d650 4c3d 931e 113e 8be2 213e
00000040: 181f 853e 81f9 a43e e7fc 8cbe 3807 2dbe
00000050: 4064 4ebd bb48 8ebe f8ad b6be e1c0 04bd
00000060: 7e23 d9bd 4a15 9fbc 47c6 f9bd 942b a5bc
00000070: 7dbc f73c e687 3f3d 998e aa3d 8d5f 983d
00000080: 8458 2a3e f7c2 4d3d e2cf 2c3e 5946 883e
00000090: 9263 75bb 9e6e 163e 3873 113d ca96 58bd
000000a0: 3603 c53d b0eb 5bbd 6b6c 823d c8af 42bd
000000b0: 801e 093d 5bc8 97bd e44d 1cbe 05d5 6dbe
000000c0: 965d 9fbd f9ec 57bd 5fe4 67bc 48f5 34be
000000d0: 9f93 b03b 0701 87be 6c14 823d 57e3 7cbd
000000e0: f5d2 dd3d 6a2e 503d 08ef a83d df83 683c
000000f0: c4fe 46bd 750c dd3d 570a 0cbd a9b6 80bc
00000100: 1eb9 923d 7b43 1ebe e3d7 1fbd 77fc 963b
00000110: bd5c 523e 9f4a 18bc 903b f13d 2e0f c33c
00000120: ebb2 94bc 33f0 e43d 0bd1 053e c8db 8b3d
00000130: 4915 7c3e e061 b33c 9630 ca3d fa48 1c3d
00000140: 8f77 743e 9ff8 633d 11a8 8b3e 72ee 2b3e
00000150: 5e2e 4a3e 8da5 203e 5ea0 2c3e 4542 383e
00000160: 2f03 debc 6e23 d83d d9c3 d7bd 91c0 a2bd
00000170: d3fa 96be 1e89 10be c706 023e 51fe edbd
00000180: 15ed 5bbe a65f 02be 95df adbe 2c53 d8bc
00000190: f779 a33d edb7 13bd 938a 273e aea7 473d
000001a0: 202d 753d 287c 40bd 37a8 563d 4787 1f3d
000001b0: 656a d7bc b8eb 97bd f7cf bbbd 93c6 debd
000001c0: e973 0ebe 89a3 7bbd 2f78 3f3c 2ffe 90bd
000001d0: 4647 15bd 2834 93bd f9b7 cabb ac7b 463d
000001e0: b177 803d 6383 55be 4ce2 5fbe f63f d3bd
000001f0: 805f 25be 05e1 2fbe 288e 563d 7cf9 13be
00000200: ec79 1cbe 5c1a 02be 88d5 36be b606 26be
00000210: 6c67 3abd 7c4b 30be cd25 5bbe 55f8 f1bd
00000220: 13e2 87bd fa06 8cbd 8f3f b4bd d3de 9c3d
00000230: d3f5 47be b931 08be 5454 03be 9108 8abe
00000240: fef9 003d ac7f 7c3c e02a 4a3d d76a bd3d
00000250: 3c7d 6f3a 3efd e2bc 3d05 b23b 6a8b abbd
00000260: b3af 08bd 249e 4f3e ae8e 9b3e 04b6 423e
00000270: a233 923d dcdf 61be 526d 983d 79a4 163e
00000280: cee5 323e 4862 293e
-0.02989985 -0.1561874 -0.02688042 -0.27545083 -0.12932378 -0.16824071 0.027111247 0.010281548
-0.01463856 0.22007026 0.12991457 0.16750659 0.08218825 0.04988178 0.1417182 0.15809076
0.26000285 0.32221606 -0.275367 -0.16897285 -0.050388575 -0.27789864 -0.35679603 -0.032410506
-0.10602473 -0.019419331 -0.121960215 -0.020162381 0.030241245 0.046760462 0.083279796 0.074401
0.16635329 0.05023476 0.16876176 0.2661617 -0.0037443382 0.14690635 0.03551027 -0.05287818
0.09619753 -0.053691566 0.06368335 -0.04753092 0.033476353 -0.07411262 -0.15264088 -0.23225792
-0.07781522 -0.05271623 -0.014153569 -0.17671692 0.0053886916 -0.2636797 0.063515514 -0.061740246
0.108312525 0.050825514 0.082487166 0.014191597 -0.048582807 0.107933916 -0.03418955 -0.0157121
0.071642146 -0.1545543 -0.039024245 0.004607733 0.2054319 -0.009295135 0.11778939 0.02381095
-0.018151721 0.11178627 0.13068025 0.06829029 0.24617495 0.021897256 0.09872548 0.038155533
0.23873733 0.055657025 0.27276662 0.16790178 0.1974425 0.15688153 0.1685805 0.1799403
-0.027101127 0.10553633 -0.10535402 -0.079468854 -0.2948824 -0.14114806 0.12697898 -0.11620773
-0.21477158 -0.127318 -0.33959642 -0.026406847 0.07982247 -0.036064077 0.16361456 0.048743896
0.059857488 -0.046993405 0.052406516 0.03894737 -0.02629585 -0.07418007 -0.091705255 -0.10877719
-0.13911404 -0.061435256 0.011686369 -0.07079732 -0.036444925 -0.071876824 -0.006186482 0.048457786
0.06272829 -0.20850901 -0.21863669 -0.10314934 -0.16149712 -0.17175682 0.052381665 -0.1445064
-0.15280885 -0.12705368 -0.17854893 -0.16213498 -0.045508787 -0.17216295 -0.21401139 -0.11814944
-0.06634917 -0.06837268 -0.08801185 0.07659688 -0.19527368 -0.13300218 -0.12825137 -0.2695966
0.03148841 0.015411299 0.049357295 0.09248894 0.0009135788 -0.027708646 0.0054327534 -0.083762005
-0.033370685 0.2027517 0.30382293 0.19014746 0.071387544 -0.22058052 0.07442726 0.14711179
0.17470476 0.16541398

0.conv1.bias f4 [6]
00000000: fdb9 fcbd 2736 173f 7c84 d33e 46b2 8c3e
00000010: 731f 27bf 557c 9b3e
-0.12340162 0.59067005 0.41312015 0.27479762 -0.6528236 0.30368295

0.conv2.weight f4 [12, 6, 3, 3]
00000000: efe4 949e 23bc 6792 6374 a795 9f34 1297
00000010: 95da c21e e73e 8c17 33a0 42a7 311e 9629
00000020: 87ed a1b0 4b33 b995 f098 6db8 862e 9aba
00000030: e31b 251d fde0 97b4 81ab 78b9 7d98 10a7
00000040: 4e92 cdb1 c7e7 c0b7 9bdd e399 047b 0e98
00000050: 8be7 8918 06d1 76a3 9574 98b2 647c eb97
00000060: 69a3 f197 2ac0 b324 c467 6417 1b33 6b18
00000070: 2c60 4218 8bd8 1b18 34b6 6c17 0dad 4c96
00000080: 2eb2 4017 fe46 131e 93e6 2e23 09a2 bb15
00000090: 5516 bb1f 6de0 b21f ea15 2bb1 9fd7 149b
000000a0: 2adb 1916 1d69 022a 840e 22a3 5eea adb5
000000b0: 2d52 ccb4 39dc 0b9c 8787 5a1b cdd7 9f97
000000c0: 4e7a 031d c216 8b96 a545 e796 a9c6 f4ac
000000d0: cc1d 64ad 06e6 4719 be2a 2bbe 805c 10be
000000e0: e0fe 35be a53e 57be 4081 43be b5c2 62be
000000f0: f523 5bbe 3ceb 44be 62d2 37be aadd 3a3d
00000100: b1c3 91bd ea83 6c3c baf2 78bd 6031 a3bd
00000110: 9d30 8abc 7c50 37bd d707 26bd 0edd e83c
00000120: 4991 ab3d 4adc 62bc 61e9 363e 4e3b 15be
00000130: 4204 b7bd 41f0 0e3e 8871 7f3a 1306 8ebc
00000140: e65e 7e3e 430c afbc 980d 9cbd fe5f 92bd
00000150: 3968 30bd 3833 9cbd 3d91 adbd 4efe c8bd
00000160: f476 95bd 11e2 e9bd e2a7 f23b eec0 b13d
00000170: d199 3ebd 95a8 1e3e 161a 803d d023 11be
00000180: b930 133d 5eee 563d 17ce 0bbe 7496 583d
00000190: 3bc7 6bbb 6f52 793d 495d a7ba 99b5 c93c
000001a0: bdfb 88bd 34b3 a63d 21c2 17bd 3e6c ea3c
000001b0: a6fd afbc a0da 953b 7bc0 61bc 80ff 9a3c
000001c0: 770f 8b3d f960 793d e574 093d c393 c13d
000001d0: fb29 593d 3205 083d 1498 a83d e6e3 933d
000001e0: e226 e13d b73c 743e f715 383e 70b8 bb3d
000001f0: 3d41 793e 3648 113e 932d 423d 7453 e33d
00000200: 5b70 6f3d d5a5 d13d cfcb 4a3d b7d9 4ebd
00000210: 3b51 913d 2476 07be 56a4 19be cc15 a93d
00000220: 92b1 913d b1ae 953d 08f9 953d 64c6 783d
00000230: 097d d83c 6c61 30bc 29ae af3c f742 6c3d
00000240: f9c7 a4bd 32f1 88bd d921 cfbc 99af a1bd
00000250: e5a4 3d3c ef88 6e3d 3c8f 21bd d01c d13d
00000260: d17f 7f3d 26b1 9cbd 4300 a6bd 9a82 fabd
00000270: 7044 ccbd 3e01 0cbe 3e31 57be 93df e4bd
00000280: 608d 64be 8d15 28be c793 d3bc f67a dabc
00000290: 27d8 e0bc 8ec7 f2bc c1b0 3dbc f3b4 5c3b
000002a0: 6eb6 f7bc badf afbc bce1 f3bb 9b3f 07bd
000002b0: 30ff e2bc dd23 75bd 2638 88bd ecfd 4ebd
000002c0: c7c2 86bd 20e6 4fbd 4a10 69bd 35b3 1ebd
000002d0: 7118 e63c 73d3 823d b2e2 363d 79c5 bf3d
000002e0: 8ca9 4b3e 80ac 143e 0387 313d f405 403e
000002f0: 0f97 1a3e 8eec 983a a7d5 01bc 57a4 173c
00000300: 6d39 e0bc 34c4 b1bc 3a20 1ebb a148 3f3b
00000310: d9e8 dfbc 71ca 79bc e990 c0bb 32e1 62bd
00000320: 1ac0 71bd 7999 64bd a9b9 13be f44d ccbd
00000330: af75 d0bc 3948 0fbe 4c7e d7bd 1b66 ed3c
00000340: 63ff 803d 97aa 9c3d 9964 2a3d 063c 173d
00000350: 595e c03d fd8b a23c daf6 003d bbb7 4a3d
00000360: 7897 833c fcf0 2b3c 7124 d2ba 8aba 2a3d
00000370: e05f ac3c 4d2f 3b3d e6cf b93c a4a5 7f3d
00000380: a20e 763c 5742 7ebd 0c03 8abd 269f 31be
00000390: 8ba5 8dbd b1ef 18be 3ae1 14be 9fd5 d7bd
000003a0: 764c d0bd 7e35 3abe 8505 893c 6cea 53bd
000003b0: 9d3a a83d ef49 03bd bf40 49bd fa44 cb3d
000003c0: 62a2 96bc 7140 0fbe 322d 403d 3632 af3d
000003d0: 6259 fa3d 4243 c53d 0c9b c33d d3d9 1d3e
000003e0: ca16 043e 8161 dc3c 5f3e 283d 3dff 923d
000003f0: d45d 123b abe7 043e c159 10bd 8a75 d23c
-1.5764794e-20 -7.3122644e-28 -6.763439e-26 -4.724156e-25 2.0630952e-20 9.063167e-25 -2.7009753e-15 6.6665755e-14
-1.1781801e-09 -7.480183e-26 -5.6647637e-05 -0.0011763133 2.1851985e-21 -2.8289642e-07 -0.00023715013 -2.0066679e-15
-5.982918e-09 -2.2996113e-05 -2.3560756e-23 -1.8415177e-24 3.564747e-24 -1.3379949e-17 -1.7748144e-08 -1.521792e-24
-1.56155105e-24 7.7954414e-17 7.3801744e-25 3.039884e-24 2.5122467e-24 2.0142607e-24 7.6485685e-25 -1.6533594e-25
6.226344e-25 7.796796e-21 9.481385e-18 7.5784345e-26 7.9234526e-20 7.5757214e-20 -2.4896232e-09 -1.2311944e-22
1.2428398e-25 1.1582788e-13 -8.785111e-18 -1.2957714e-06 -3.8057752e-07 -4.6275873e-22 1.8076329e-22 -1.032961e-24
1.7400936e-21 -2.2471023e-25 -3.7364015e-25 -6.956953e-12 -1.2966916e-11 1.0334512e-23 -0.16715524 -0.14097786
-0.17773008 -0.2101999 -0.19092274 -0.22144587 -0.21400435 -0.1923036 -0.17951348 0.04562155
-0.07117403 0.014435748 -0.060778357 -0.07968402 -0.016868884 -0.04475449 -0.04053482 0.02842572
0.0837732 -0.013846466 0.17862464 -0.14573404 -0.08936359 0.13958837 0.00097443955 -0.01733688
0.24840888 -0.021368152 -0.0761978 -0.07147215 -0.043068144 -0.07626957 -0.08474968 -0.0981413
-0.07298079 -0.11420072 0.007405267 0.086793765 -0.04653341 0.15493996 0.062549755 -0.14173818
0.035935137 0.05247342 -0.13652836 0.05287786 -0.0035976905 0.06086963 -0.001276889 0.024622725
-0.0668864 0.08139649 -0.03705037 0.028616067 -0.021483254 0.0045731813 -0.013778801 0.01892066
0.06790059 0.060883496 0.033558745 0.094520114 0.05301855 0.03320808 0.082321316 0.072212026
0.109937444 0.23851286 0.17977129 0.09166038 0.24341293 0.14187703 0.047406744 0.11099902
0.05845676 0.10236708 0.049510773 -0.050500598 0.070955716 -0.13228661 -0.15004095 0.082561105
0.07113947 0.0730871 0.073228896 0.060736075 0.026426809 -0.010765415 0.02144535 0.05768105
-0.08045954 -0.06686629 -0.025284695 -0.07894821 0.011574958 0.05823606 -0.03944324 0.10210574
0.062377755 -0.07650976 -0.08105519 -0.122319415 -0.09973991 -0.13672349 -0.21014878 -0.11175456
-0.22319555 -0.16414471 -0.025827302 -0.02666996 -0.02744682 -0.02963617 -0.011577786 0.003367719
-0.030238356 -0.021468986 -0.007442681 -0.033019643 -0.027709574 -0.059848655 -0.066513345 -0.050535128
-0.065801196 -0.050756574 -0.0569003 -0.038745124 0.028087826 0.06387987 0.044649787 0.09363837
0.19888896 0.14518929 0.043341648 0.18752271 0.15096687 0.0011667178 -0.007924474 0.00925549
-0.027371133 -0.021700002 -0.0024128095 0.0029187577 -0.02733271 -0.01524602 -0.0058766496 -0.055390544
-0.059021093 -0.055810425 -0.14426292 -0.09975806 -0.02544674 -0.13992395 -0.10522136 0.028979352
0.06298711 0.07649725 0.041599844 0.036922477 0.093929954 0.019842142 0.031485416 0.049491625
0.016063437 0.010494467 -0.0016032589 0.041681804 0.02104181 0.045699406 0.022682142 0.062413827
0.015018137 -0.062074985 -0.067388624 -0.17345867 -0.069163404 -0.14935185 -0.14539042 -0.10538792
-0.10170834 -0.18184468 0.016726265 -0.051737234 0.082143046 -0.03205293 -0.049134012 0.099252656
-0.018387977 -0.13989426 0.0469181 0.08554499 0.1222408 0.09631969 0.09551057 0.15415125
0.12899318 0.026901962 0.041075107 0.07177589 0.0022333758 0.12979 -0.035241846 0.025690813

0.conv2.bias f4 [12]
00000000: 44b1 beb7 fdd6 1f3f 7872 433f c7e8 333f
00000010: 812c 063f 1ba0 0fbd fe36 243f 63b3 4097
00000020: 49db 39bb 79c4 4dbe 85e3 74bd 9033 11be
-2.273231e-05 0.6243742 0.7634654 0.70277065 0.5241166 -0.035064798 0.6414641 -6.2264964e-25
-0.0028359464 -0.2009448 -0.059787292 -0.14179826

0.conv3.weight f4 [24, 12, 3, 3]
00000000: 1117 e69c d067 c599 49d5 31a0 e148 9e98
00000010: c3ad a316 61ca 8594 6f17 5996 3ef4 ed24
00000020: 73fe 7515 febe 0b17 55a7 a394 30c7 ada0
00000030: 5201 06a3 e279 5c18 f1f0 64a4 fd8e bb15
00000040: cea1 de97 ff39 df9b 5e56 0822 a9bc 3b96
00000050: 9b68 0b16 4be6 a516 0a3d 43ae 278a 2cb4
00000060: da49 f017 8275 94b7 6c8b 0e1d e58e 7d99
00000070: 2e60 0f9a cb86 4e96 23ae 7a29 df6b 3fa7
00000080: 2f0c 4594 71ce f429 840b d893 8a01 a117
00000090: d3c5 389d 6f3a 1e19 e6f5 0816 7bea 571c
000000a0: 08a3 1e9b 2e10 131c 69a5 8514 a6a7 c998
000000b0: d70e 2c9b 65b8 9e17 7961 c093 e80d 3ba4
000000c0: 190c 1098 b590 1f97 ef44 b21a a604 e59d
000000d0: 83d6 5117 14b0 7a93 e49a 2c25 6927 2796
000000e0: 1f94 049f 250e 6117 1766 c399 78fb 1d28
000000f0: bc9a 9c9b d515 6694 a1f4 539b c856 5697
00000100: 1e25 cb15 ee4f 9917 b0b4 1519 00ac 0b18
00000110: 3346 97b0 f99f af9b a887 8118 c314 1a1b
00000120: a106 0497 1deb 6797 6996 3f18 0404 6818
00000130: 4375 5d1a 2663 8795 d14a 9696 111b e3a3
00000140: f594 0018 c15c af9d 9493 dba9 6e65 8317
00000150: 01cd 9e14 1a6e bf9e b05e 6f96 a64b 8c19
00000160: 8bc8 8416 36e3 351a 441d 93a6 6c87 0d9a
00000170: 5557 e221 7c27 5f96 5212 f69b 180e e496
00000180: 6ca5 6d1f b6a9 109c d83b bc17 fe20 fea0
00000190: f44d 791a 640f 55b2 ecc9 ba99 972d bc1f
000001a0: e65f b1a6 062f 12b6 e8fa dbb6 290e f61e
000001b0: 5464 d0bb dcbc 1cbb e502 90bb 3e57 42bc
000001c0: ca50 d5bb efe5 f9bb dd8e 39bc 4a68 2cbb
000001d0: 626d 0fbc 8b27 82bc 238f faba 8067 10bc
000001e0: a8d0 cabc b8ca f8bb 4620 59bc 54ef e8bc
000001f0: 2256 6dbc f507 99bc fc7c e4bc bf25 07bd
00000200: cc89 f0bc ffc1 d7bc 98ac efbc d309 dabc
00000210: 3fbe e2bc 878b e1bc 3291 cebc e8f2 aabc
00000220: c118 22bc 7df8 38bc 8a4c b7bc 5767 a9bb
00000230: fa94 2cbc e85b aebc 4665 6bbc 3995 36bc
00000240: 6ab3 84bc 47d3 5cbc 6e93 97bc 828b 95bc
00000250: 7f15 82bc 1efb 97bc 0e99 aebc c9d5 4abc
00000260: 78aa 7cbc 88fc f7b2 4850 64b3 c8eb 96b2
00000270: 34ef 0a34 7ba6 f6b2 f543 4936 e82d 02b3
00000280: ffdc 2cb4 37da 9cb3 b11c babc 6ba9 a3bc
00000290: 0c37 d5bc 9865 d5bc 6a18 c6bc 4da6 b3bc
000002a0: c2cd a3bc b9ac 9dbc 27ae a7bc ce83 c4b9
000002b0: 01f0 48bb 82a1 faba 470d 65bb 3ac3 bfbb
000002c0: b072 69bb dc34 4aba cf21 1cbc a7c9 38bb
000002d0: d42e 9cbb fc6a 0ebb 069f 20ba 4bd8 86bb
000002e0: 999d a6ba 16ad 00b7 dbac 92bb cf53 11bb
000002f0: ea39 a9ba e32c 89bc a7c9 76bb f958 91ba
00000300: 0a63 42bc abb2 49ba 2c76 e636 6fc1 62bc
00000310: 5c22 faba e0cc 853b 2f43 c1bc 4b73 9cbc
00000320: 7d82 32bc ba12 bebc df45 98bc 8772 7dbc
00000330: 6064 aabc 555c 87bc e496 81bc b769 a4bc
00000340: 541c 79bc 000c 08bd a951 afbc 7a61 9abc
00000350: 9b53 efbc 2300 04bd ac7b a1bc f659 f2bc
00000360: 554a 933e 722f 783e 496e cd3e 4b6a 7f3a
00000370: c76d 9fbc e125 ca3b 030d 353d 8810 0b3d
00000380: 6406 cb3e 4d10 1abd 25b4 8f3c e0ce 2b3d
00000390: aaad 353c b81a af3e 472f 20bc c0c1 43bb
000003a0: 3628 653d bad9 4bbd ab37 2b3d c629 d43d
000003b0: 5d3f e8bd 231d 693d 751a 8c3e c0a0 1d3e
000003c0: ba8a 743d b42d afbc aeda 2cbe 343a 863d
000003d0: fbbd 72bd 84aa 5a3d c2ed b93d e5a0 32be
000003e0: e5a7 96be dfc7 503e 529c 86be 9692 113c
000003f0: ff7e 203d aec4 b73d 5f93 103c de59 ca3d
-1.5226086e-21 -2.0411252e-23 -1.5063053e-19 -4.091563e-24 2.644373e-25 -1.3509392e-26 -1.7536515e-25 1.0319613e-16
4.967808e-26 4.515439e-25 -1.6524795e-26 -2.943915e-19 -7.264434e-18 2.8495869e-24 -4.9643704e-17 7.5754294e-26
-1.4387259e-24 -3.6929734e-22 1.847716e-18 -1.516527e-25 1.1261338e-25 2.6802523e-25 -4.439208e-11 -1.6069008e-07
1.5528279e-24 -1.7697694e-05 1.8865623e-21 -1.3108651e-23 -2.96494e-23 -1.6683081e-25 5.566219e-14 -2.6565052e-15
-9.948361e-27 1.08715886e-13 -5.453742e-27 1.040477e-24 -2.445447e-21 8.180209e-24 1.1063584e-25 7.144059e-22
-1.3122132e-22 4.865913e-22 1.3494811e-26 -5.2126564e-24 -1.4232302e-22 1.0257058e-24 -4.856373e-27 -4.056094e-17
-1.8617672e-24 -5.1558317e-25 7.373044e-23 -6.06206e-21 6.7802294e-25 -3.164125e-27 1.4971101e-16 -1.3502588e-25
-2.807461e-20 7.2719274e-25 -2.0203761e-23 8.769779e-15 -2.590803e-22 -1.1616338e-26 -1.7532555e-22 -6.9256663e-25
8.204961e-26 9.90757e-25 7.739609e-24 1.8052167e-24 -1.1006648e-09 -2.9054701e-22 3.3482696e-24 1.274529e-22
-4.2659867e-25 -7.493688e-25 2.476211e-24 2.9987325e-24 4.5796452e-23 -5.4682494e-26 -2.4281023e-25 -2.4622852e-17
1.6618816e-24 -4.641802e-21 -9.7511544e-14 8.491281e-25 1.6034783e-26 -2.0268449e-20 -1.9336144e-25 1.4506215e-23
2.145231e-25 3.7613462e-23 -1.0208107e-15 -2.926751e-23 1.5337472e-18 -1.8026256e-25 -4.0709125e-22 -3.684428e-25
5.0323536e-20 -4.786495e-22 1.2164322e-24 -4.3051106e-19 5.1554963e-23 -1.2401731e-08 -1.9313505e-23 7.969652e-20
-1.2307836e-15 -2.1783067e-06 -6.555918e-06 2.605212e-20 -0.0063596163 -0.002391628 -0.0043948763 -0.0118616205
-0.006509875 -0.007626287 -0.011325565 -0.0026307278 -0.008754106 -0.015887996 -0.0019116144 -0.008813739
-0.024757698 -0.0075925253 -0.0132523235 -0.028434433 -0.014485868 -0.018680552 -0.027891628 -0.03299498
-0.029362582 -0.026337622 -0.029257104 -0.026616013 -0.027678607 -0.027532352 -0.025215719 -0.02086778
-0.009893597 -0.011289713 -0.022375364 -0.00516979 -0.010533566 -0.021284059 -0.014367407 -0.011143976
-0.016198833 -0.013478107 -0.018502917 -0.018255 -0.01587939 -0.01855236 -0.021313217 -0.012380072
-0.015421502 -2.8869422e-08 -5.3158402e-08 -1.756952e-08 1.2939273e-07 -2.8713876e-08 2.999089e-06 -3.0309735e-08
-1.6099146e-07 -7.304009e-08 -0.02271876 -0.019978246 -0.026027225 -0.02604942 -0.024181563 -0.021929884
-0.019995574 -0.0192474 -0.020468784 -0.00037482235 -0.0030660632 -0.0019121619 -0.003495054 -0.0058521302
-0.0035621338 -0.0007713565 -0.009529545 -0.0028196366 -0.0047663245 -0.0021731248 -0.0006127212 -0.0041151396
-0.0012711763 -7.669694e-06 -0.0044761724 -0.0022175198 -0.0012910936 -0.016745036 -0.0037656815 -0.0011089138
-0.011864433 -0.0007694165 6.868291e-06 -0.0138400635 -0.0019083726 0.004083261 -0.023591606 -0.019097945
-0.010895369 -0.023202289 -0.018588005 -0.0154692 -0.020799816 -0.01652352 -0.01581902 -0.02006994
-0.015204508 -0.03321457 -0.021401243 -0.018845309 -0.02921467 -0.032226693 -0.019712292 -0.029583912
0.28767648 0.24236849 0.40123203 0.0009743317 -0.019461526 0.0061690663 0.044201862 0.033951312
0.39653313 -0.037613202 0.017541954 0.04194534 0.011088768 0.34200072 -0.009776897 -0.0029870123
0.05594655 -0.049768187 0.041801136 0.1035953 -0.113402106 0.056912553 0.27363935 0.15393353
0.059702612 -0.021384098 -0.16880295 0.0655407 -0.05926321 0.053385273 0.09078552 -0.17444189
-0.29424968 0.20388745 -0.26291138 0.0088850465 0.039183613 0.089730605 0.0088241985 0.09880422

0.conv3.bias f4 [24]
00000000: 4fe6 51ae b795 71bc 0a5a fdbe 4f08 a4ba
00000010: 6da5 743f a60a 333f 9557 ccbc 8f92 0ab6
00000020: 33bd 7717 8efb 033f edba 033f e0fe b4bc
00000030: beb0 2ab4 703f 253f 01b2 9b3f 84c9 a3bb
00000040: 52ab 683e 1611 94be c04f 19bd 53cd 9bbe
00000050: b2f1 ec3e 54eb 713f 2133 4129 89e3 463f
-4.7725653e-11 -0.014745167 -0.49482757 -0.0012514683 0.9556492 0.69938123 -0.024944106 -2.064891e-06
8.0048807e-25 0.51555717 0.514571 -0.02209419 -1.5896782e-07 0.6454992 1.2163697 -0.004998388
0.22721604 -0.28919286 -0.03742957 -0.30430087 0.4627815 0.9449971 4.2898956e-14 0.7769094

0.conv4.weight f4 [48, 24, 3, 3]
00000000: bf1a 6f17 4813 661d 3eaf f31a 2bdc 1099
00000010: 646b a617 0a3f 7d18 d243 8d1b 610a c997
00000020: 0226 ec1c 9bd8 179c 38ef 069a d88a 1f1a
00000030: 978e 4698 9c24 de21 0849 629f 01ee 2097
00000040: 5d89 1e9f 8490 a018 78d0 bcb9 522e 33bb
00000050: 2f64 9cba 644d dcba 502d 8dbb abcd 04bb
00000060: 5706 08bb cb70 85bb 0fc8 17bb 0391 41a8
00000070: de3a bc1a fa58 c027 1824 711b 3abf 4c18
00000080: 3cd1 9297 1d12 b328 5a3f 3a1c 0722 c929
00000090: 1db4 cf2a e307 2b28 2021 dc2a addd 0eab
000000a0: 66ee 04aa be80 dd28 04c3 66ab c40c efaa
000000b0: 4146 09a8 3167 d4a7 acfd 35aa 42a9 fcac
000000c0: acf6 53a9 9391 582b 9e69 c1ab 69e1 43ab
000000d0: 3460 f2aa 1ceb ce2b c54a 49aa 9276 572b
000000e0: b2cf 50a6 7db0 672b 9b66 122a ed45 4e2a
000000f0: e506 5aab 1d9d 34ab b17d 01aa 66e8 0ea9
00000100: 06f6 48ab b125 4e27 eba5 052a 90c1 b92a
00000110: 2f44 7c29 8f3c b5a9 1d40 9f2a 5297 61aa
00000120: e1c0 6aab 235b 84ab 2f29 84ab 006f 282b
00000130: 3cfd 582b 3286 b0aa da13 132b f0d7 67ab
00000140: d62d b02b 5619 51ac 253a a4aa bbb0 4aad
00000150: 0c37 26ab ac53 8129 f6a8 6fab 43ec c22a
00000160: 366f d6ab c6b6 4029 7c25 3cad 0122 63ab
00000170: 3294 24aa 6a96 a92b 13db 122a 120f 2fa7
00000180: 151f 482b 3966 3faa 0ffa f0a8 d363 1829
00000190: 21d7 94a8 4f7e b629 9dcb f7a8 f289 baa7
000001a0: 4cd4 e0a8 6161 0aaa 52c4 92a9 6804 0529
000001b0: 294e f427 5d14 9fa9 f95c f527 219b 1529
000001c0: ce4c 19ab 74a8 aa25 faf2 7c9c bc2f c92a
000001d0: 065b 84a7 767a 842a 9e9e e128 d3bb fc1c
000001e0: bc5b 8528 caff 1fa6 36de a3a8 95b9 94aa
000001f0: ac5f 8f2a 2b35 e6a9 03c6 422b 3fd3 f3a8
00000200: 08b2 aeaa 0f6d f528 9e46 c0aa 298b a9aa
00000210: 3420 a1a9 70d4 912b 3774 1aab 5425 5b27
00000220: 5346 5c2b f77f 32a9 3479 9829 e0e8 292a
00000230: 22e9 5428 db68 2e28 e545 10ab 08fd 532a
00000240: 1879 11ad 92a3 a9ab a5e2 3cac 75fb 682b
00000250: a875 432a be99 232c 6e74 0fab fd76 b9a6
00000260: 1ba5 6aaa dafc 5bab 144f 14ab 4de2 022b
00000270: 7baa 74ab 5f67 f82b 4131 d62b 8e87 e22b
00000280: 8719 08ac e94f 40ab 22b2 5f2b fefa 31aa
00000290: dc52 25ac b4c5 d62a 6c1b 0d2b 178c 88ab
000002a0: c87e ccb3 9749 272b 57e1 872b b950 81ab
000002b0: 362e 16ab 4ca8 202c 8e6c a5ab 8a06 a3ac
000002c0: 7603 82b3 b2c9 7c2b 7585 c8ab bf47 1cac
000002d0: 459d c5b3 3a19 51b2 ae20 c6b7 abfc a4b5
000002e0: 3182 29b6 4674 3ab7 1f55 98b5 92be 23b3
000002f0: be3d 90b4 e18f d929 a629 3bab 135c 83a7
00000300: e566 2cab f991 30ac 58e7 a3ac 64ef 49ab
00000310: 6f1c ce2a eb3d 712a a3e1 13a9 b69c e0a7
00000320: 40e8 8aa7 6109 7ea0 dae6 11a7 94a0 bba8
00000330: 0ca3 b826 bb5e 8ba6 5a68 7428 4b78 83ab
00000340: 4534 c0ab 71f6 22ac c9fe 452b a558 8fac
00000350: a6c1 13ac 53c8 412b 5585 47ac a671 1e2c
00000360: bffc 1bb3 9b0e afb3 7cc8 ecb4 d803 8b32
00000370: 1fd9 c6b3 fafa 0b34 28ac c734 fc1c 4d33
00000380: 76b7 0e33 69c3 8caf a96f 5b2e 51b5 16b0
00000390: 8ffe b7b1 abde 4c31 24cd 0831 7429 51b0
000003a0: 5eaa 8230 439b a7b0 7ae2 52bb 1411 e8bb
000003b0: 9555 3dbc f08c a1bb 6114 06bc 998b 98bc
000003c0: 9aa2 6cbb 5d82 81bb ff86 98bc edaa a132
000003d0: 206f 3bb1 d7a5 1134 dd8d 28b3 f9ee 4832
000003e0: 4ba4 6b33 f5c5 33b2 0db8 2ab3 dd6a 93b3
000003f0: 2657 9234 9aa1 8833 efce 2634 2010 b134
7.7258823e-25 3.0450215e-21 1.00785563e-22 -7.489088e-24 1.0754608e-24 3.273131e-24 2.337032e-22 -1.2991941e-24
1.5626995e-21 -5.0241665e-22 -2.790379e-23 3.2992586e-23 -2.566289e-24 1.5052996e-18 -4.791777e-20 -5.199919e-25
-3.3571426e-20 4.1504954e-24 -0.00036013476 -0.0027340841 -0.0011931713 -0.0016807732 -0.00430838 -0.002026419
-0.0020755732 -0.004072284 -0.0023160016 -1.0745097e-14 7.785008e-23 5.3387174e-15 1.9946715e-22 2.6462927e-24
-9.487847e-25 1.9880848e-14 6.162412e-22 8.932096e-14 3.6895565e-13 9.494117e-15 3.9102836e-13 -5.075617e-13
-1.1806666e-13 2.4591762e-14 -8.1983053e-13 -4.2463786e-13 -7.620262e-15 -5.89537e-15 -1.616404e-13 -7.181062e-12
-4.7065365e-14 7.694064e-13 -1.374279e-12 -6.9590736e-13 -4.305459e-13 1.4702436e-12 -1.7878327e-13 7.6547893e-13
-7.2445976e-16 8.231261e-13 1.3003003e-13 1.8320736e-13 -7.7458726e-13 -6.4166885e-13 -1.150111e-13 -3.1731907e-14
-7.13957e-13 2.8608675e-15 1.1870337e-13 3.2996912e-13 5.601438e-14 -8.04852e-14 2.828856e-13 -2.0036514e-13
-8.3401173e-13 -9.40446e-13 -9.390595e-13 5.9839633e-13 7.709005e-13 -3.1356997e-13 5.225244e-13 -8.236736e-13
1.2518274e-12 -2.971475e-12 -2.9172598e-13 -1.1521613e-11 -5.905144e-13 5.7432656e-14 -8.514434e-13 3.4625262e-13
-1.5236482e-12 4.2791095e-14 -1.0694886e-11 -8.069379e-13 -1.4617542e-13 1.204992e-12 1.3043412e-13 -2.4294298e-15
7.109741e-13 -1.6999673e-13 -2.6753798e-14 3.3837364e-14 -1.6524598e-14 8.104335e-14 -2.7510812e-14 -5.177493e-15
-2.4961065e-14 -1.2290647e-13 -6.5177586e-14 2.9535754e-14 6.7808346e-15 -7.064551e-14 6.810196e-15 3.32192e-14
-5.4463107e-13 2.9604447e-16 -8.3693846e-22 3.5737895e-13 -3.6736048e-15 2.3532885e-13 2.5048807e-14 1.6724513e-21
1.480575e-14 -5.5510865e-16 -1.8193004e-14 -2.6418855e-13 2.5468289e-13 -1.0223275e-13 6.919744e-13 -2.7070033e-14
-3.1032143e-13 2.724776e-14 -3.4155052e-13 -3.0116992e-13 -7.1554226e-14 1.0361833e-12 -5.487307e-13 3.041259e-15
7.8257295e-13 -3.963493e-14 6.7711814e-14 1.509101e-13 1.1818917e-14 9.681677e-15 -5.1256075e-13 1.8828353e-13
-8.269184e-12 -1.2053572e-12 -2.684222e-12 8.2771924e-13 1.73603e-13 2.3249037e-12 -5.0965384e-13 -1.2869206e-15
-2.0840657e-13 -7.815533e-13 -5.2689905e-13 4.6499333e-13 -8.6922803e-13 1.7650151e-12 1.5219285e-12 1.609589e-12
-1.9340933e-12 -6.8323e-13 7.9472724e-13 -1.5807838e-13 -2.3493906e-12 3.815122e-13 5.013132e-13 -9.702264e-13
-9.5225516e-08 5.9432445e-13 9.654871e-13 -9.188406e-13 -5.3354836e-13 2.283079e-12 -1.1754085e-12 -4.6334646e-12
-6.054226e-08 8.9808293e-13 -1.4247896e-12 -2.220876e-12 -9.2021345e-08 -1.2171137e-08 -2.3618657e-05 -1.2292488e-06
-2.5258744e-06 -1.1113536e-05 -1.1349656e-06 -3.8124718e-08 -2.6867014e-07 9.661695e-14 -6.6493545e-13 -3.645963e-15
-6.124947e-13 -2.5092135e-12 -4.658423e-12 -7.1741766e-13 3.661268e-13 2.1426582e-13 -3.2836266e-14 -6.2342396e-15
-3.85545e-15 -2.151774e-19 -2.0247937e-15 -2.083081e-14 1.2811759e-15 -9.670739e-16 1.35673485e-14 -9.341498e-13
-1.3656928e-12 -2.3158387e-12 7.0342045e-13 -4.074146e-12 -2.0997453e-12 6.884538e-13 -2.8353615e-12 2.2516238e-12
-3.631862e-08 -8.151729e-08 -4.4104297e-07 1.6183478e-08 -9.2595876e-08 1.3036689e-07 3.71919e-07 4.7756643e-08
3.3228808e-08 -2.56047e-10 4.989401e-11 -5.482735e-10 -5.354941e-09 2.981248e-09 1.9907214e-09 -7.6092666e-10
9.507166e-10 -1.2194977e-09 -0.0032178448 -0.007082114 -0.011556049 -0.004930131 -0.00818357 -0.018621253
-0.003610766 -0.003952308 -0.018619059 1.8820595e-08 -2.7275249e-09 1.356451e-07 -3.9244572e-08 1.1695868e-08
5.4864625e-08 -1.04641815e-08 -3.9748603e-08 -6.864659e-08 2.7258028e-07 6.362389e-08 1.5535237e-07 3.2980552e-07

0.conv4.bias f4 [48]
00000000: 5da6 58b8 4dee 8abb c32b 17bb 0add 18bc
00000010: 6e60 3cbc 36e8 563c 2091 1a3f 8e77 d3bb
00000020: 5bc0 a93e 486f f0bc 1249 023f f717 903e
00000030: f5bb a6b6 8894 98ba e678 8bb1 2378 e3bb
00000040: 3fb1 d4ba ca59 d43e ba1c b2b9 0091 c13e
00000050: 242e bdbc 04bf d03e 317f 08bc 8e15 2ab4
00000060: 2fe9 a6bc d16e 213f 070a b8bc c9f3 35bc
00000070: 9953 9abc d004 2fbc 63a7 11b8 efce 453a
00000080: f72c a339 8384 93bc c5ee 763e 2ae3 d6bc
00000090: 333e 2abc 0b19 dfbc 200c b9bc 86b8 cfbc
000000a0: 4aa3 133e 0475 883e 9bad 0eba 70c7 0ebd
000000b0: b3de 3bbb 705f 93bb 17f0 be3e a0ac aebc
-5.165335e-05 -0.0042398334 -0.0023066856 -0.009330044 -0.0114976 0.013116887 0.60377693 -0.006453461
0.33154568 -0.029349938 0.50892746 0.28143284 -4.9690666e-06 -0.0011640945 -4.059177e-09 -0.0069418116
-0.001622714 0.41474754 -0.0003397221 0.3780594 -0.02309329 0.40770733 -0.008331106 -1.5840325e-07
-0.020374862 0.6305972 -0.022465719 -0.011105486 -0.01883869 -0.0106823 -3.4726585e-05 0.0007545789
0.00031123284 -0.018007522 0.24114521 -0.026231367 -0.010390806 -0.027233621 -0.02258879 -0.025356542
0.14417759 0.26651776 -0.00054427393 -0.034858167 -0.0028666675 -0.004497461 0.3729255 -0.021322548

0.conv5.weight f4 [96, 48, 3, 3]
00000000: ddea 303c 03a2 9b3b f76e 453c 25bf 803b
00000010: e088 45bb 9901 123c 66b1 7e3b 6731 f73b
00000020: cb0d 2f3c 2fc4 2b3b 6158 f03b fedd bdbd
00000030: b526 c939 6994 083d c0b6 9abc 3ab4 adbb
00000040: ce6f 583b 9c32 e9bb e339 d43b 121a 8eba
00000050: e895 b03a 61b1 41bd 0d8b 963b ffce bbba
00000060: 8278 ff39 562b 3ebc de58 82b7 df60 2d3c
00000070: 8c52 2e3c 1826 193c 2324 493c 29a8 abba
00000080: a490 993b 5cb1 fabc d787 cd3a 703b d43a
00000090: a6dd 383b d7b7 233d c540 9736 b4e8 db3c
000000a0: 5f44 3dbe cb19 4b3e 0803 113c b74e 84bc
000000b0: 67d6 e339 8c13 623d b403 0c3d a868 9b3c
000000c0: 4e9d 303d c069 483d 074a 14bd 3fb0 033d
000000d0: de48 183d ac6c 003d 936f fcbb d113 f93d
000000e0: 4c96 81ba cdba 83bc 2fec 82be 965d 353e
000000f0: d8c5 af3d 58b5 893c 1df6 63be 372d 273d
00000100: d2d9 43bc 16dc 883b b69c 59be f138 a4bc
00000110: 6f94 e3bb cfcb d83b e5c9 97bd d776 70bd
00000120: cd2c 70bd 339d 20bb eebd 12be 3266 3e3b
00000130: 83f0 203e 848b 333b 9be2 49bd 2ef4 24be
00000140: deb9 f63c ab4b 2f3d d101 553b 8500 623c
00000150: c9ce 683c b4e0 b1bd 9163 83b9 fa45 0ebe
00000160: d2f8 f1bc a3bc 67bd c2e2 9c3c 22e9 2abe
00000170: 55b5 483d 4bb7 28bc 9e1f c4bd 530a 843e
00000180: 1a0e 8c3c e86e 97be d5f9 d5bc 629b 63bc
00000190: fa88 a3bd 7ea2 d63b 556c 3ebd 77f7 623e
000001a0: 9114 88bb 83f4 84bd 4c4a 993d c8cd 49be
000001b0: c2a5 a8bb da8e f53c 88fd 00bc fe8d 74bb
000001c0: 8cd2 9cbb 50fa 91be 1610 183b 69a9 883d
000001d0: 07d7 0d38 b4f6 b0bb 5633 f43b 3935 f23c
000001e0: 59af 8e3c ba55 a0ba e3cd 163e b3ad 763c
000001f0: 3de4 c63c 5417 893d 40d8 8b39 4327 253a
00000200: 4647 623c 9116 293b ffc1 c23e 9735 f93a
00000210: 407c 01bc efde 1abc 21a2 efbc 7e88 473c
00000220: d42a 60bc 81b3 da3b 921e 68bc 1a5e 71bc
00000230: 96e0 d93a ec64 27bc e03b c6bc 2e07 1dbd
00000240: 5f7f 063a 7764 d7be c0cf 8f3e 5367 9638
00000250: 52c9 73bc ca48 c13d 56b5 4cbb dfe0 633c
00000260: af60 ff3b 32bb 903d a04f 23bd 9d37 cfba
00000270: 3199 e63d 052a 3dbe 4606 a73d 778a 87bd
00000280: 5823 9abd 19f8 7c3e d5e4 26bc a377 06bc
00000290: f390 6bbb f94f 13bd 1a88 24bd f9ef c1bb
000002a0: e47e 5bbe ba44 64bd e57b c1bc 6c29 aebc
000002b0: bc5b 13bd 9b63 fcbd b3c5 a73d 27d6 e23d
000002c0: 7bd8 c63e 1433 ac3d d14a f4bd 128c 863c
000002d0: 138b 843a 2186 3ebd 10f5 86bb 438a a53a
000002e0: 7a01 36bd 2d81 a33d 2fe7 0cbb 15f3 9bbb
000002f0: b580 37bb a4c3 1b3b 12da 653a 4d39 31ba
00000300: 1096 edbb 45b9 373e 999d 49bc 2538 dfbb
00000310: 400a e7bc 0f0a d93c f42e 603c af54 bebc
00000320: 0694 d8bb 383d b53c 69f9 12bc 2358 003c
00000330: a17f debb f684 0bbc 5236 1a3c 6c8e 22ba
00000340: fe77 173b c93d 293b 8d43 68ba 932b 8739
00000350: f394 49ba 84ad edbb 677f 7c39 1703 343b
00000360: 7c99 47bc 3529 a3bc 2a4f a23c b22a 31bb
00000370: ad41 fe3d 7470 833c d5a6 11bf 5c47 96bd
00000380: 4dd8 0bbd 604e a43b 2af0 ce3d 6315 863d
00000390: f06c 413e 478d 9fbe d875 f5bd 9433 afbd
000003a0: 94b9 11be 300c b33d fea6 34bd a788 d13d
000003b0: 86e7 d6bd 99fd 5e3c 6cc9 473e 621a a03c
000003c0: e2aa 133d 78a8 35be 9b84 a13e 9c43 46bb
000003d0: 3c4f 913c 79f2 5cbe b476 293b 36fb 9ebc
000003e0: 6ed8 30bc d649 b73c 756f 263a 6384 7d3b
000003f0: 4bcd 70bb 4ed5 cdbb 3219 debb 96c5 58bb
0.010798183 0.004749538 0.012050382 0.003929036 -0.0030141398 0.008911514 0.0038863062 0.007543731
0.010684441 0.0026209464 0.0073347543 -0.09270857 0.00038366547 0.03334466 -0.01888597 -0.0053010257
0.0033025625 -0.007116629 0.006476627 -0.001084151 0.001347241 -0.047288302 0.004594213 -0.0014328657
0.00048727175 -0.011607012 -1.553859e-05 0.010582178 0.010639798 0.009347461 0.012276682 -0.001309638
0.004686432 -0.03060215 0.0015680742 0.001619203 0.0028208285 0.039970245 4.507691e-06 0.02684436
-0.18483113 0.19834058 0.00885082 -0.016150815 0.00043456556 0.055194423 0.03418322 0.018970802
0.043118767 0.048928976 -0.03620341 0.032150503 0.037178867 0.031353638 -0.0077037304 0.12161983
-0.0009886711 -0.016080284 -0.2557082 0.17711481 0.085826576 0.016810104 -0.22261854 0.040814605
-0.011953788 0.004176627 -0.21251187 -0.020046683 -0.006945185 0.0066160928 -0.07411555 -0.058707085
-0.058636475 -0.002450776 -0.14330265 0.0029052612 0.15716748 0.002739639 -0.049288373 -0.16108772
0.030117925 0.042796772 0.0032502303 0.013794069 0.014209458 -0.08685437 -0.0002506045 -0.13893881
-0.029537592 -0.056576382 0.019151095 -0.16690496 0.049001057 -0.010297607 -0.09576343 0.25789127
0.017096568 -0.29576802 -0.026120106 -0.013892027 -0.079851106 0.0065501323 -0.046490032 0.22164713
-0.0041528423 -0.064919494 0.07484874 -0.19707406 -0.005146713 0.029975343 -0.007872947 -0.003731608
-0.0047858413 -0.28511286 0.0023202947 0.066729374 3.381728e-05 -0.005400503 0.007452409 0.029566394
0.017417597 -0.001223258 0.14726977 0.015056062 0.024278754 0.066939026 0.00026673265 0.0006300101
0.013810938 0.0025800804 0.38038632 0.0019013163 -0.007903159 -0.009452566 -0.029252114 0.012178538
-0.013682086 0.0066742306 -0.014167445 -0.014731908 0.0016622718 -0.010216933 -0.024198472 -0.038336925
0.0005130674 -0.42068836 0.28088188 7.171803e-05 -0.0148795415 0.094377115 -0.0031236014 0.013908594
0.007793508 0.07066955 -0.03987086 -0.0015809421 0.11259688 -0.1847306 0.081554934 -0.06618207
-0.075262725 0.24704017 -0.010186394 -0.008207235 -0.003594455 -0.03596494 -0.04016886 -0.0059184995
-0.21435124 -0.055729605 -0.023618648 -0.021259986 -0.035976157 -0.12323686 0.08192005 0.110760026
0.38837036 0.0840818 -0.119283326 0.016424213 0.0010112248 -0.046514634 -0.004118569 0.0012629706
-0.044435002 0.07983623 -0.00215001 -0.0047592022 -0.00280003 0.0023767734 0.0008768152 -0.00067605526
-0.007250555 0.17941768 -0.012305641 -0.006812113 -0.02820313 0.026494054 0.0136830695 -0.02323374
-0.0066094426 0.022123918 -0.008970597 0.007833513 -0.006790117 -0.008515587 0.009412365 -0.0006201032
0.0023112292 0.002582418 -0.00088601635 0.00025781672 -0.00076897367 -0.0072533507 0.00024080054 0.0027467662
-0.01218259 -0.01991711 0.019813139 -0.0027033505 0.124148704 0.016044833 -0.5689519 -0.073378295
-0.034141827 0.005014226 0.101044014 0.06547048 0.18889213 -0.31162474 -0.119853675 -0.085547596
-0.14230949 0.08742559 -0.04410457 0.102311425 -0.10493378 0.013610267 0.1951043 0.01954383
0.03605164 -0.17740047 0.31546482 -0.00302527 0.017737977 -0.21576871 0.0025858106 -0.019406896
-0.010793788 0.022374075 0.0006349006 0.0038683645 -0.0036743458 -0.0062815314 -0.006777906 -0.0033076755

0.conv5.bias f4 [96]
00000000: 5664 e7bc 7732 e53e 66fb 7c3d b39e 13be
00000010: b698 85bd 10d9 16be 8abb a43d 6b37 063e
00000020: 236c 163d a8ee 96bd 473c 00bc db76 d73d
00000030: bd78 23be 9f2b e8bc a4f1 cbbd 6bc2 553e
00000040: 9224 65bc 6016 a73f a1e9 723e 1cb8 fb3c
00000050: f971 2c3e c1f9 883d 51c2 0c3e abe0 a23e
00000060: 7875 b8bd 07a2 d3bc 863c 863d a141 143e
00000070: 9870 523e e872 763e 8b40 8a3e d726 923d
00000080: ab56 593e 9ee9 93bd 9d5a 72be fd27 0dbc
00000090: 77c6 57bc 2846 c0bd c66b 57be a177 1e3d
000000a0: dcc8 7e3e 0d34 063e 1f32 e5bd cb84 903d
000000b0: f446 5f3e 7030 f93d df10 c23c d7cc 4fbe
000000c0: cb6f f43d 2c16 23be a014 983d b272 8abe
000000d0: 6f6b 66be 5888 eebd 8294 223d 9bac 5ebe
000000e0: f259 c33c f596 98bc b215 29bf 15f5 8ebb
000000f0: 5164 a83c 18e6 8a3d 693a b93b 0d63 9a3d
00000100: e2fc 91be 2aee dabe 2793 f03d a0bd 933d
00000110: 0f60 043b 0238 553e e973 d0bd 65eb 2c3e
00000120: 0a58 fc3d f85f 23bd 7839 21be da0f 723e
00000130: 1535 123e 1495 f13a 78e6 8bbc 197b f63e
00000140: 616e b1bd d5d3 9e3e 2075 123e 518e dfbd
00000150: 1afa c7bc 95a5 7e3d d692 083c 6410 92be
00000160: 9c7b ebbd 2bd6 333e 4d9e ad3c b4d7 d13e
00000170: edd5 423e 037b c6bc c6cd ce3d 3b1c 9bbd
-0.028246086 0.44765064 0.06176319 -0.14416008 -0.06523268 -0.1473124 0.08043583 0.13107078
0.03672422 -0.07369739 -0.007826871 0.10520717 -0.15964027 -0.028341113 -0.09958199 0.20874946
-0.01398577 1.3053703 0.23721935 0.030727439 0.16840352 0.06688262 0.13746001 0.31812033
-0.090067804 -0.025834097 0.06554513 0.1447816 0.20550764 0.24067271 0.27002367 0.07136314
0.21224467 -0.07222293 -0.23667379 -0.008615491 -0.013169876 -0.09388381 -0.21037206 0.038688306
0.2488131 0.13105793 -0.111912005 0.07056578 0.2180441 0.12167442 0.023689685 -0.20292984
0.11935385 -0.15926427 0.07425809 -0.2704063 -0.2250192 -0.11647099 0.03969241 -0.21745531
0.0238466 -0.01862667 -0.6604873 -0.004362712 0.020555647 0.06782168 0.005652715 0.07538424
-0.28513247 -0.4275983 0.11746817 0.072139025 0.0020198857 0.20822147 -0.10178358 0.16886671
0.123214796 -0.039886445 -0.15744579 0.2363886 0.14278062 0.001843127 -0.01707767 0.4814079
-0.08663631 0.3102099 0.14302492 -0.109158166 -0.02441125 0.06216963 0.00833579 -0.2852813
-0.11498186 0.17562167 0.021193648 0.4098488 0.19026919 -0.024228578 0.10097842 -0.07573744

0.res1.conv1.weight f4 [6, 6, 3, 3]
00000000: e811 a8bd 7ee0 90bd cdce 92bd a2eb 1abe
00000010: e7c7 b5be dfc0 93be 55d0 b5be 9414 8bbe
00000020: 5be8 8ebd e323 1dbe df0f 0d3e e09b 30bd
00000030: 157b 883d c361 9f3e 65eb dbbc 2d70 1b3d
00000040: 943c 273d fd3e 2f3e dc10 22bd c9e9 63bc
00000050: e7de eb3b d996 53bd 088a ad3c 3da1 e63c
00000060: 116d 74be e9dc cabd f8a0 453d 5f6f 163e
00000070: 090f 143d 1301 5d3e 9c8d 54bc f79d 40be
00000080: b38e bc3d 85ff 0cbe 1bb1 9bbe c6b8 793d
00000090: 0d48 e3bd de14 b73d a0a0 cfbd 3f98 bd3e
000000a0: f9e4 4a3f 07f8 e13d d44e b43c bd50 353f
000000b0: 4da7 9ebe 01c5 74be 3e14 16be 1ac1 b6bd
000000c0: ca24 79bd d947 99bd 6a94 743c 0cf1 f0bd
000000d0: 7ae0 59bd afe6 d0bd dee8 a4be dcfe 71be
000000e0: 498b 103d 6311 163d 07c9 983f 44df bb3f
000000f0: e1ff eebd 13bf 973d efc2 febd c6c8 123e
00000100: 40c0 8a3d e0b4 97be d9ae ebbd 07c8 69be
00000110: 4f45 97be b448 37be 5b41 38be 3dbe e2bd
00000120: 609b 1ebf bfb8 b5be 64d6 913b 444a 83be
00000130: 2b80 9dbd ed47 a43d a531 99bc db57 143d
00000140: e32e 353e 4d43 05be 6d0c 21be af26 89bd
00000150: 459a 15be 1e9d 29be 5aa6 e93d 75b1 d6bd
00000160: a777 b8bd 2186 b13e 33d3 cfbd 5c26 2f3f
00000170: 0b3b babb 48a4 7b3e feda aa3f 8800 a33e
00000180: 4733 47be d901 093d 468f f3be 994a a7bd
00000190: b902 ef3d 5085 9b3d 2966 433e c794 ad3e
000001a0: b311 ab3d ab63 b83d 5ac7 f93d 35f9 69bd
000001b0: 4a3f ae3e 5dff 563d f99f 153e a477 d9bd
000001c0: fd33 49bf 442f 21bf 57ab d43d 8f2a 5dbe
000001d0: a3dd c4bc 0e80 9dbc 3859 c4bc 1263 dabc
000001e0: 4203 a8bd 99af 80bc 8b96 72bc 07a6 bcbc
000001f0: d422 6abd cb73 963d 9818 613e d9ba 6f3e
00000200: 8754 d93d f505 ad3e 136c da3e 2444 fa3d
00000210: 1ca3 c33c 5617 b93c dcf9 e7bc 3590 a6be
00000220: 9d63 78be dac1 b7be 7e99 dcbe 1c5e eabe
00000230: a643 05bf 806a c4be ab7a c6be eff6 c0be
00000240: e5d0 c2be 70e1 e3be de46 bebc 879e c6be
00000250: 79c2 8fbe ec2b 40be 09bb 90bd 8104 4cbe
00000260: e6e2 f0bc 4219 debd e37d d1bc f5e3 813b
00000270: 7875 7ebc 58ef 073d 12e6 d63c 73b8 cabc
00000280: 356e 06bd 3fde 27bc e11a fa3e b017 953d
00000290: ba3b 393e 2d13 8e3e 115a 183e adab ae3e
000002a0: 55c6 8e3e 1991 5e3e 59ca b33e 29ff 3d3d
000002b0: 8b58 2d3c 0778 033d f4ca e93c fdd5 013c
000002c0: 3846 863a 38d9 d03c 55c4 e33c 3e18 8e3b
000002d0: 6681 bf3d 4589 8a3e 2870 f23d cde9 9a3e
000002e0: b05d c83e 0a3f 793e 8480 733e 4422 cb3e
000002f0: fd74 b93e 146e 6d3d 4925 6a3d 1b4d 1f3d
00000300: 5573 963e d796 533e 00ab 9e3b 817e 933e
00000310: 1f2c a93e d608 8b3e 4a64 9ebe d611 d3be
00000320: ffcd 25be 0caa 36be ee96 25be fd60 87bd
00000330: f65f debe 547c ccbe 975c 84be 236d fabc
00000340: 1f30 563d a4ba 403c 9eb8 f6ba bbd1 c83d
00000350: 4e91 053e faaf 9ebd 5e1c 2fbd 4f1f 103d
00000360: 329d 35be c27c dcbd add6 9ebd 2d4e 96bd
00000370: 0c56 ddbd 08ab 32be 8da7 76bd ece7 ee3c
00000380: b8f1 1a3e 42a5 a9bb 6f62 fb3d 3fd1 65bc
00000390: b7fb 023d faeb a33e 1b0a 483d c7df 08bd
000003a0: f664 143b 3ff8 8e3b 17e5 373d b4a9 7b3e
000003b0: 0aeb ccbe 0a57 183d 8c1a 3d3e c591 dabe
000003c0: 888d 2b3e 143d df3e dde5 da3d 1a05 3a3d
000003d0: 6859 dd3d 49e3 abbc cf15 7fbd dc0d 093b
000003e0: cffc f6be 3d15 03bc 92b4 233e 3a44 bfbb
000003f0: 887e b0bd c311 16bc 6fcc 3d3d c54a 763e
-0.0820654 -0.070740685 -0.0716835 -0.1512895 -0.35504076 -0.28858086 -0.35510507 -0.27164137
-0.06977912 -0.15345721 0.13775586 -0.043117404 0.06664101 0.31129274 -0.026845643 0.037948776
0.040829256 0.17113872 -0.03956686 -0.013910719 0.007198203 -0.05165753 0.021183982 0.028153056
-0.2386973 -0.099054165 0.048249215 0.14690922 0.03614715 0.21582441 -0.012973215 -0.18810259
0.09206905 -0.13769348 -0.30408558 0.06096723 -0.11097727 0.08939527 -0.10138059 0.37030217
0.79255635 0.110336356 0.022010244 0.7082632 -0.30987015 -0.23903276 -0.1465616 -0.0892355
-0.0608261 -0.07484407 0.014927963 -0.11764726 -0.053192593 -0.102002494 -0.32208914 -0.23632377
0.035289083 0.036637675 1.1936349 1.467751 -0.11669899 0.074094914 -0.124395244 0.14334401
0.0677495 -0.29630184 -0.11507959 -0.2283021 -0.29545066 -0.17898828 -0.17993681 -0.11071441
-0.61955833 -0.35492513 0.004450606 -0.25642598 -0.07690462 0.08021531 -0.01870043 0.036216598
0.17693667 -0.13013954 -0.15727396 -0.066968314 -0.1460963 -0.16563842 0.11408682 -0.10483066
-0.09007197 0.34672645 -0.10147705 0.68417907 -0.005683308 0.24574387 1.3348081 0.31836343
-0.19453155 0.033449028 -0.47570246 -0.08168525 0.11670441 0.07593787 0.1908194 0.3390257
0.08352985 0.09003385 0.121962264 -0.057122428 0.3403266 0.052489627 0.14611806 -0.10618523
-0.7859495 -0.62962747 0.10384243 -0.21598266 -0.024031466 -0.0192261 -0.023968324 -0.026658569
-0.082037464 -0.015708731 -0.0148064 -0.023028387 -0.05716212 0.073463045 0.21982038 0.2341112
0.106118254 0.33793607 0.4266058 0.12220028 0.023881488 0.022594135 -0.028317384 -0.32531896
-0.2425675 -0.35890085 -0.43085855 -0.45774925 -0.5205635 -0.38362503 -0.38765463 -0.37688395
-0.3805 -0.44507933 -0.023227151 -0.38792822 -0.28078058 -0.18766755 -0.07066924 -0.19923593
-0.029405069 -0.10844661 -0.025572723 0.003963942 -0.015530936 0.03318724 0.026232753 -0.024746155
-0.032819945 -0.010245859 0.48848632 0.07279909 0.1808919 0.27749005 0.14878108 0.34115353
0.2788569 0.21735038 0.35115317 0.046385918 0.010580192 0.03209689 0.028539158 0.007924554
0.0010244315 0.025494203 0.02780358 0.004336386 0.09350853 0.27057853 0.11837798 0.302565
0.39133978 0.24340454 0.23779494 0.3967458 0.36222067 0.057966307 0.057164464 0.038891893
0.29384866 0.2066301 0.004842162 0.28807452 0.33041474 0.2715518 -0.3093589 -0.41224545
-0.16191863 -0.17838305 -0.16170856 -0.06610296 -0.43432587 -0.39938605 -0.2585189 -0.030569619
0.052291986 0.011763249 -0.0018823331 0.09805628 0.1304371 -0.077484086 -0.042751662 0.03518611
-0.17735747 -0.10765983 -0.0775579 -0.073391296 -0.10807428 -0.17448056 -0.060218383 0.029163323
0.15131271 -0.005177171 0.12274634 -0.014026939 0.031978335 0.32015973 0.048837762 -0.033416536
0.0022643185 0.0043630893 0.04489621 0.24576455 -0.4002307 0.037192382 0.18467158 -0.42689338
0.16753209 0.43601286 0.10688374 0.04541502 0.108080685 -0.020982401 -0.062276658 0.0020912802
-0.48239753 -0.008000669 0.15986851 -0.0058369907 -0.08617884 -0.009159508 0.04633754 0.2405196

0.res1.conv1.bias f4 [6]
00000000: c670 a6b4 e493 17b7 b102 db34 8d5c 89b5
00000010: 370d 8bb6 15dc 7d35
-3.1001963e-07 -9.034735e-06 4.0793887e-07 -1.0234231e-06 -4.144061e-06 9.4570106e-07

0.res1.conv2.weight f4 [6, 6, 3, 3]
00000000: 7620 2abe 8a7f 1abe 9072 053e f9e0 5abe
00000010: d132 94be 9bcd 0cbe 3455 e6bd 1ec0 0ebe
00000020: 3864 d83d 1e3c 85bd ed37 203c 25cf 773d
00000030: 013f 33bf 99fe 97be 6cb5 9c3c 5868 a2bd
00000040: 88c2 993d 7894 cb3d b492 dd3e 36f0 a33e
00000050: 7c5e 153e 5b1f c63e 2162 c73e 0226 223e
00000060: 5404 8e3e 859c 483d 5946 423c abc1 3cbe
00000070: a437 4cbd 47a9 b5bd bcf1 aabd 17f0 02bc
00000080: 926e 68bd d1ce 5dbd 9f45 70bc 1f49 95bd
00000090: fb9e e4bd 7ddc eebd cf38 45bd f97d a3bd
000000a0: 7c9c d9bd 527e a2bd 0887 cabd d1f9 febc
000000b0: 27cc 353e 567f e2be 1fdc 05bd 3fd6 bdbe
000000c0: a262 3ebc e62d 7f3f 0386 b43d 66da 03bf
000000d0: b58b aa3b c6c6 87be 08e2 783e deaa 0e3e
000000e0: 1986 963e b8b8 bebc 0b13 a5be 2f44 35be
000000f0: 663f 99bb 0f8e 70be dc1b a53b 2e86 913e
00000100: ea64 4e3e a052 893e 8e3e 133e fd70 54bd
00000110: 3094 afbd fd04 c43d 8a75 5ebe fb76 6bbe
00000120: 60ef 74bc a0b4 973d e91a c0bc ee23 77bc
00000130: ce3b 89b9 7709 b83c ba60 20bc f3ed 183b
00000140: 51ff 3dbc 7d78 efb9 20c4 59bb 8b40 31bd
00000150: 6ada bcbc a9fd 5f3c 051a f2bd 4b18 083e
00000160: ecd9 303e dffd 3c3d 3ebd a23e 3dbb cd3c
00000170: a5de 993e c3bd 17be 2ed8 24bf 69c3 51be
00000180: 78b4 fabd 7d94 21bf 39f4 95be b92d acbe
00000190: e1f8 2dbd c63b fabd 79e2 1ebd 7d89 e83e
000001a0: 3229 093f 717e 80bd 89f3 8b3e 1a6e 2a3e
000001b0: 2233 5b3d 6814 b2be 6dc2 55bd 8a5e 4c3d
000001c0: a4ab 7ebf cc27 c4bd 8119 4d3e 2d62 c8bb
000001d0: 41c5 783d 35a6 213e 2ff3 043e 0c46 a73d
000001e0: 867f 5abd 6d90 0bbf efff b1bc a609 fb3d
000001f0: 666f 77be f721 0b3e 87b0 b0bd 6bb7 433c
00000200: f6b5 c2bd df18 72bc 7637 b13d e101 88bc
00000210: 9b9b 68be ed24 1dbc 49ec 45be afa5 6b3c
00000220: 159b f93d c09b 7c3d 633e f23c 9828 223e
00000230: 203d 143d 704a f3bc fc61 563b 2107 47bd
00000240: dfc9 613e 22bb 1e3e 7c89 f53e 6270 afbe
00000250: 8a03 60be 8ae1 c73e 12d5 963e 8eef 9cbc
00000260: f0aa e43e f41f a4bc f843 1f3e 319c a8bd
00000270: 5e3b 133d 8af1 f63e 41ad 20bd b0bf 29bd
00000280: 679f 3e3e bae1 b7bb 0b42 093e b1c8 af3e
00000290: 94db b63e 0b71 333e 4bc8 eb3e 089a a13e
000002a0: edf3 9ebe fc89 903e 6a48 2cbe 0b85 d0bd
000002b0: f495 10be 8e86 15be 5977 05be 743f 02bf
000002c0: 559d 2bbd c78c 33be 96dc 24be 321c 54bd
000002d0: 3f60 6fbe b6fc 63be 73cf ddbd 82ac 9ebe
000002e0: 26e8 76be ec50 e0bd 0778 f0bd 944e 10be
000002f0: c03a a8bc 6ba3 3fbf 9b1b 45bf 52cf c7be
00000300: a2a9 1fbf 07ab 10bf 65e7 b5be 66f5 d03c
00000310: 97d9 83bd b40f b13c 3577 abbd bfa1 32be
00000320: d4ca f9bd 6278 c43e e575 3d3e a324 003e
00000330: 0c01 af3c 6853 08be 33d5 b2be 9919 7dbd
00000340: 0f71 cabb 59a1 a3bc fabe 6cbc 35ac 123e
00000350: 2bc6 193d 40c2 2d3c 44ad 253e b8da 043d
00000360: 549a 2dbe 2e9d 59bf c26c c5be 4703 4abe
00000370: 2e43 27bf 3f98 b5be e7a1 aa3d a6c7 aebd
00000380: 0f92 dd3d 4d61 203e 321c 083d e18e 353e
00000390: f509 a7be 3d1a 49bf a187 fabd 0e5d 28be
000003a0: c872 e2be 9ef0 8a3d c1f9 963d e1b1 bbbc
000003b0: c410 293d b60a 05bd 734a 24be 0ccd ffbb
000003c0: 8314 81bc b1f0 1abd 8208 ae3b df4f 333c
000003d0: 3d23 3e3d 6f18 9a3e c5a2 45be c647 2ebe
000003e0: 062c 08be 1538 6b3c 5710 f53c a57d b23b
000003f0: 614b 5f3d 5c69 73be 5d98 873d 8b3b 523d
-0.16613945 -0.15087715 0.13031983 -0.21374883 -0.2894502 -0.13750307 -0.1124672 -0.13940474
0.1056599 -0.06505607 0.009778959 0.060500283 -0.7001801 -0.2968643 0.019129477 -0.07930058
0.07507807 0.099404275 0.43275988 0.32019204 0.14586824 0.38695797 0.38942054 0.15834811
0.27737677 0.048977394 0.0118575925 -0.18433253 -0.04985775 -0.08870178 -0.083468884 -0.007991812
-0.056746073 -0.054152314 -0.014665036 -0.07289337 -0.111631356 -0.116631486 -0.04814988 -0.07983012
-0.1062555 -0.0793425 -0.098890364 -0.031124981 0.17753659 -0.44237775 -0.032680627 -0.3707752
-0.011620196 0.9967941 0.08814623 -0.51505125 0.0052046427 -0.2651884 0.24304974 0.13932368
0.29399183 -0.02328144 -0.3224109 -0.17701791 -0.004676747 -0.23491691 0.0050387215 0.28422683
0.20155683 0.2682085 0.14379331 -0.051865567 -0.085731864 0.09571264 -0.21724525 -0.22994606
-0.01494965 0.07407498 -0.023450332 -0.01508425 -0.00026175234 0.02246545 -0.009788686 0.0023335188
-0.011596517 -0.00045675403 -0.0033228472 -0.043274444 -0.023053367 0.013671317 -0.11821369 0.13290517
0.1727063 0.046140548 0.31785005 0.025113696 0.30052677 -0.14818482 -0.64392364 -0.204847
-0.12241453 -0.631172 -0.2928789 -0.33628634 -0.042473678 -0.12218432 -0.0387902 0.45417395
0.53578484 -0.06274117 0.2733424 0.16643563 0.05351556 -0.34781194 -0.052187372 0.049894847
-0.9948065 -0.09577903 0.2002926 -0.006115219 0.06073499 0.15786059 0.12983392 0.08167657
-0.053344272 -0.5451725 -0.021728484 0.122577 -0.24163589 0.13587175 -0.0862742 0.011945586
-0.095073625 -0.014776438 0.086531565 -0.016602458 -0.22715609 -0.009591323 -0.19328417 0.014382764
0.12187783 0.061671972 0.029570764 0.15835798 0.036191106 -0.02969858 0.0032712212 -0.048590783
0.22049664 0.15501073 0.47956455 -0.3426543 -0.2187635 0.3903926 0.29459435 -0.019157197
0.44661665 -0.020034768 0.15553272 -0.08232916 0.03594529 0.48231155 -0.039227728 -0.041442573
0.18615495 -0.0056116255 0.134041 0.34332803 0.357144 0.17523591 0.4605125 0.3156283
-0.31045476 0.28230274 -0.16824499 -0.10181626 -0.14119703 -0.1460211 -0.13033809 -0.5087807
-0.04189809 -0.17534171 -0.16099772 -0.0517847 -0.23376559 -0.2226437 -0.108305834 -0.30990988
-0.24111995 -0.109529346 -0.117416434 -0.14092475 -0.020535827 -0.7485873 -0.7699525 -0.3902536
-0.62368214 -0.56510967 -0.35528103 0.02550764 -0.06437986 0.021613933 -0.08372346 -0.17444514
-0.121968895 0.38373095 0.18502004 0.12513976 0.021362804 -0.13313067 -0.34928283 -0.06179199
-0.0061780284 -0.019974397 -0.014449829 0.14323504 0.037542503 0.010605395 0.16179377 0.03243515
-0.16953403 -0.8500546 -0.38559538 -0.19727813 -0.65336883 -0.35467717 0.08331662 -0.08534174
0.10818874 0.15662117 0.033230014 0.17730285 -0.32624784 -0.7855566 -0.122329004 -0.16441748
-0.44228196 0.06784175 0.073718555 -0.022911968 0.041275755 -0.032480918 -0.16044025 -0.007806426
-0.015756851 -0.037827197 0.005311073 0.010944336 0.046420325 0.30096766 -0.19300373 -0.17019567
-0.13298044 0.014356633 0.029915018 0.005447107 0.054515246 -0.2377066 0.06620858 0.051326316

0.res1.conv2.bias f4 [6]
00000000: f0e3 9336 afe7 d3b6 0a2c 8936 fe1c 14b5
00000010: 4925 7c36 87b4 d7b6
4.407477e-06 -6.3152615e-06 4.088045e-06 -5.5176486e-07 3.757263e-06 -6.4285155e-06

0.res1.batch_norm1.weight f4 [6]
00000000: f851 983f b956 8f3f 7e9f 2d3f 138f e53e
00000010: 06cc 893f a3a3 0d3f
1.1900015 1.1198341 0.6782149 0.4483572 1.0765388 0.55327815

0.res1.batch_norm1.bias f4 [6]
00000000: 5b27 01be 8b3c b03c 99cf a5be 4ffd 7f3b
00000010: e44b 73bf 7bf8 083f
-0.12612669 0.021513244 -0.32384947 0.0039060896 -0.95037675 0.5350415

0.res1.batch_norm1.running_mean f4 [6]
00000000: a05e 2e3f 78c3 c53f 1be9 46c0 cd73 883f
00000010: 35c8 863f 14ee 00c0
0.68113136 1.5450277 -3.1079776 1.066034 1.0529848 -2.0145311

0.res1.batch_norm1.running_var f4 [6]
00000000: ea31 ba40 3ee6 8c41 6d44 6541 2b2a c041
00000010: 5976 853f 8582 2a40
5.818593 17.612423 14.3292055 24.02059 1.0426742 2.6642163

0.res1.batch_norm2.weight f4 [6]
00000000: 02e4 bf3e 488d 743d 8ebc 7c3e 8de0 df3e
00000010: 2313 093f 60f6 953e
0.37478644 0.05970505 0.24681303 0.43726006 0.53544825 0.29289532

0.res1.batch_norm2.bias f4 [6]
00000000: c35d 89be 8f1c 41bd c61f c93e ce80 83be
00000010: e01e 5abd 161a 31bf
-0.26829347 -0.047146376 0.39282054 -0.25684208 -0.0532521 -0.6918043

0.res1.batch_norm2.running_mean f4 [6]
00000000: 6ad6 81bf 98b8 f73e 196c d3bd 66b0 2cbf
00000010: 3a55 afbf 076e 9e3f
-1.0143559 0.4838302 -0.10323352 -0.6745666 -1.3697884 1.2377328

0.res1.batch_norm2.running_var f4 [6]
00000000: 053f f83f 822a 6f3f 3ade c83f 7e84 cb3f
00000010: 55ca ff40 895d 5e40
1.9394232 0.93424237 1.5692818 1.5899808 7.9934487 3.474459
