autoencoder/checkpoints/small_classifier/frozen_encoder_classifier14_epoch30.pth (torch, 971803 bytes, 68 tensors)

0.conv1.weight f4 [6, 3, 3, 3]
0	0x3e8e252a	0.2776273
1	0x3d054963	0.03254069
2	0x3e64cc6e	0.22343609
3	0x3de84749	0.113417216
4	0xbe1a849e	-0.15089652
5	0x3e395c87	0.18101703
6	0x3e1cfa0c	0.1532976
7	0xbda9e7ad	-0.08296142
8	0xbd840947	-0.06447082
9	0xbe9f379e	-0.3109712
10	0xbe84114c	-0.25794446
11	0xbde4feaa	-0.11181386
12	0x3c5e85ba	0.013581688
13	0x3dbc93b7	0.09207862
14	0xbd9df613	-0.077129506
15	0xbee218db	-0.44159588
16	0xbe5e5c98	-0.21715009
17	0xbefd1074	-0.49426615
18	0x3e15a9c4	0.14615542
19	0x3c88ddc4	0.016707309
20	0x3e0ddb3b	0.13853161
21	0x3d78b9a4	0.060723916
22	0xba3c2e6c	-0.0007178548
23	0x3c91fafb	0.017819872
24	0x3df9f88e	0.12205611
25	0xbe484b07	-0.1955987
26	0x3c8c32fb	0.017114153
27	0xbd9f751c	-0.07786009
28	0xbe528a50	-0.20560575
29	0xbea1498b	-0.3150142
30	0xbe275d47	-0.16344176
31	0xbeb75341	-0.35805705
32	0xbeb6a884	-0.35675442
33	0xbe22c491	-0.15895297
34	0xbe8b8d20	-0.27256107
35	0xbea027d9	-0.312804
36	0xbe590b6a	-0.2119576
37	0xbce793bb	-0.028268686
38	0xbd62a1c7	-0.055330064
39	0xbd036fad	-0.032088924
40	0xbe194ebe	-0.14971444
41	0xbe2f0e23	-0.17095236
42	0xbda5e4b7	-0.081002645
43	0xbe084af9	-0.1330985
44	0xbda6ed68	-0.081507504
45	0x3e7782c2	0.24170974
46	0xbcbcf16c	-0.023064338
47	0x3e23726a	0.15961614
48	0x3ca243f3	0.019807791
49	0xbed3ec41	-0.41391185
50	0xbdf8147f	-0.12113284
51	0x3dcdde07	0.10052114
52	0xbcbf7cf1	-0.023375006
53	0x3c9e9805	0.019359598
54	0x3d99f104	0.07516673
55	0xbd082e9c	-0.033247575
56	0x3d8ae1ec	0.067813724
57	0x3d8ee9c4	0.06978181
58	0xbeb6cee5	-0.35704723
59	0xbb51bb23	-0.0032002411
60	0x3d33213a	0.04373286
61	0x3c8bd97d	0.01707148
62	0x3dc0079c	0.093764514
63	0xbad1bef7	-0.0016002347
64	0xbc19eee7	-0.009395338
65	0x3dab954c	0.083780855
66	0xbdff951b	-0.124796115
67	0xbea56422	-0.32302958
68	0x3d511f34	0.05105515
69	0x3d2923e0	0.04129398
70	0x3d41d47c	0.04732178
71	0x3d8d65aa	0.069041565
72	0xbd88537a	-0.06656547
73	0x3d08e38d	0.033420134
74	0xbda0dc8f	-0.07854568
75	0xbe0e198c	-0.13876933
76	0xbea878a3	-0.3290454
77	0xbcfa62e7	-0.030564738
78	0x3b446fef	0.0029973944
79	0x3d9cf4a1	0.07663847
80	0x3d2f5b6a	0.04281179
81	0x3d201685	0.039083976
82	0x3dade5b9	0.08491082
83	0x3d4c0c87	0.049816635
84	0x3ce70c07	0.028203977
85	0x3dd09b2a	0.10185845
86	0x3e3484a8	0.1762873
87	0x3da3c118	0.07995814
88	0x3d88c524	0.066782266
89	0x3deb6b56	0.11495082
90	0x3d34c406	0.044132255
91	0xbbdb34bd	-0.0066896365
92	0x3d6727db	0.056434494
93	0x3d3c964a	0.046041764
94	0x3d830170	0.063967586
95	0x3ca63933	0.020290947
96	0x3b431a2e	0.0029770243
97	0x3d8e21cf	0.06940042
98	0xbab0b553	-0.0013481773
99	0xbdb0c062	-0.08630444
100	0x3a047767	0.0005053193
101	0xbd1d2637	-0.038366523
102	0xbce063c8	-0.02739133
103	0x3e17eb9d	0.14835973
104	0x3c9891ec	0.018624268
105	0xbc2546ea	-0.010087708
106	0xbc5e16e2	-0.01355526
107	0x3c364d54	0.011126835
108	0xbd383f37	-0.04498216
109	0x3cbd2ea2	0.023093525
110	0xbca3f533	-0.020014381
111	0xbd7f5338	-0.062335223
112	0x3cf4e689	0.029895084
113	0x3d15f871	0.036613885
114	0xbb4a6705	-0.0030884158
115	0xbcf27a64	-0.029599376
116	0x3a451953	0.0007518727
117	0xbd19fe09	-0.037595782
118	0x3b48704f	0.003058452
119	0xbc7c0b15	-0.015383502
120	0x3d4f6320	0.050631642
121	0x3dbac6a2	0.091199175
122	0x3aaf99bd	0.0013397258
123	0xbd0604f3	-0.032719564
124	0x3d4cfc00	0.050045013
125	0xbc40b0e5	-0.011760925
126	0x3de98ab3	0.11403408
127	0x3cb5ebf2	0.022207234
128	0x3ddc0330	0.107427955
129	0x3d93e59b	0.07221528
130	0xbc852891	-0.016254695
131	0x3dafd33c	0.08585212
132	0x3db807ed	0.08985887
133	0x3d967344	0.07346204
134	0x3ddb7e8d	0.10717497
135	0xbdfdeb90	-0.123984456
136	0xbd9017ec	-0.07035813
137	0xbd834676	-0.06409924
138	0xbc200d79	-0.009768837
139	0x3da48313	0.08032813
140	0xbd83e8ae	-0.064408645
141	0xbe081d5c	-0.1329245
142	0x3dd1ec6e	0.102501735
143	0xbd2b01a3	-0.041749608
144	0x3df91f6b	0.121641956
145	0x3d53b27b	0.051683884
146	0x3da42811	0.080154546
147	0xbcc3593a	-0.023846257
148	0x3c0cbdc2	0.008590164
149	0x3d1803f4	0.037113145
150	0x3e4c6a33	0.19962387
151	0x3e4c860e	0.19973013
152	0x3e4ec6cf	0.20193027
153	0xbdef82eb	-0.116948925
154	0x3d909c3c	0.07061049
155	0xbdfc67aa	-0.1232446
156	0xbcb5a22b	-0.022172054
157	0x3d968891	0.07350267
158	0x3bda4c2e	0.0066619134
159	0xbd4b7760	-0.04967439
160	0x3d530759	0.05152068
161	0xbc6ca0ce	-0.014442636

0.conv1.bias f4 [6]
0	0xbf9402a0	-1.1563301
1	0xbec0c83f	-0.37652776
2	0xbfd18bf4	-1.6370835
3	0x3e016c44	0.12638956
4	0x3fb4aeae	1.4115808
5	0x3f0a07bc	0.5391805

0.conv2.weight f4 [12, 6, 3, 3]
0	0xbbb6bbe2	-0.0055765966
1	0x3d3e78dd	0.046501983
2	0xbdb18663	-0.0866821
3	0xbeaef5ed	-0.34172
4	0xbdc5af1d	-0.09652541
5	0xbe27e60b	-0.16396348
6	0xbe9bad40	-0.30405617
7	0xbecbaaa5	-0.3977863
8	0xbe6f29a9	-0.23355736
9	0xbe6da6bd	-0.23208137
10	0xbe805b82	-0.25069815
11	0xbf013a22	-0.5047933
12	0xbdffd55d	-0.12491868
13	0xbe93bd43	-0.28855333
14	0xbee07524	-0.4383937
15	0xbe7dd0d1	-0.24786688
16	0xbdb75d4c	-0.08953342
17	0xbe50bd65	-0.20384748
18	0xbc0b9d24	-0.008521352
19	0xbdee4e30	-0.11636007
20	0xbd13d5dd	-0.036092628
21	0xbc4fe449	-0.012688705
22	0xbe89e4ae	-0.2693228
23	0xbe7549e8	-0.23953974
24	0xbe7b6980	-0.24551964
25	0xbe71eb4e	-0.23624918
26	0xbeca68e6	-0.39533156
27	0xbcd428ab	-0.025898298
28	0x3bd3ca04	0.006463291
29	0x3b16c445	0.002300517
30	0xbe084c56	-0.1331037
31	0xbda046e5	-0.07826022
32	0x3e1c58b7	0.15268217
33	0xbd15ddba	-0.036588408
34	0x3c44282c	0.011972468
35	0xbe180abb	-0.14847843
36	0xbdb45fcd	-0.08807335
37	0xbe33970d	-0.1753809
38	0x3dda1650	0.10648787
39	0xbd701822	-0.058616765
40	0xbe4c3671	-0.19942643
41	0xbe371f78	-0.17883098
42	0xbc8c3504	-0.017115124
43	0xbd76f848	-0.060295373
44	0x3e0b7da0	0.13622141
45	0xbd23f249	-0.040025983
46	0xbb5ece50	-0.0033997484
47	0xbe06b249	-0.13153948
48	0xba87944e	-0.0010343881
49	0xbe29e222	-0.16590169
50	0xbe04b617	-0.12960087
51	0xbe279ff9	-0.16369618
52	0xbe098f52	-0.13433579
53	0xbe549bae	-0.20762512
54	0xbd69e973	-0.0571074
55	0xbe3413b9	-0.17585649
56	0x3dfe3bed	0.12413774
57	0x3b7696dd	0.0037626543
58	0x3db50fa3	0.08840873
59	0x3deddc46	0.116142794
60	0x3e80abd0	0.25131083
61	0x3e5871b5	0.21137126
62	0x3e4929de	0.19644877
63	0x3e8d7c82	0.27634054
64	0x3d772e64	0.060346976
65	0x3e2c08b6	0.16800198
66	0xbe80657a	-0.2507742
67	0x3e2526eb	0.16128127
68	0x3e57d7f1	0.21078469
69	0x3dcd1336	0.1001343
70	0xbcacb085	-0.021080265
71	0x3daabc22	0.08336665
72	0x3f4ca1ea	0.7993456
73	0x3e868710	0.2627492
74	0x3f30f771	0.69127566
75	0xbec675f6	-0.38761872
76	0xbf254638	-0.6456027
77	0x3f0b3fb2	0.54394066
78	0x3f3bf93d	0.7342718
79	0x3dc1bd63	0.09459951
80	0x3f224916	0.6339277
81	0xbe9013e4	-0.28140175
82	0xbe6bf074	-0.23040944
83	0xbe915981	-0.283886
84	0xbea2dca5	-0.31808963
85	0x3e859b42	0.26095015
86	0xbf3fa272	-0.74857247
87	0xbe5fd6d2	-0.21859291
88	0xbea85ac1	-0.3288174
89	0xb982e290	-0.00024964334
90	0x3df9abff	0.12191009
91	0xbf148e72	-0.58029854
92	0xbe37bc91	-0.17943026
93	0xbe7360f6	-0.23767456
94	0x3f599565	0.8499358
95	0xbe7b73b6	-0.24555859
96	0xbe373831	-0.17892529
97	0xbea1529e	-0.31508344
98	0xbed9b98e	-0.4252438
99	0xbeea1b73	-0.45724067
100	0x3dbb1859	0.09135503
101	0xbf34a7c9	-0.7056852
102	0xbcd7a1c7	-0.026322259
103	0x3eeb1246	0.4591238
104	0xbd5865e1	-0.052831534
105	0xbea156fa	-0.3151167
106	0xbd109fde	-0.03530871
107	0xbd4ada8a	-0.04952482
108	0xbd96568d	-0.07340727
109	0xbdaf0204	-0.08545306
110	0xbe09f8a8	-0.13473761
111	0x3e02dd76	0.12779793
112	0xbe2412e7	-0.16022836
113	0xbd19f057	-0.03758272
114	0x3d90996e	0.070605144
115	0xbcd75d22	-0.026289526
116	0xbd586d53	-0.052838635
117	0xbe1bba7b	-0.15207855
118	0x3c9f6405	0.019456873
119	0xbdb5ed19	-0.088831134
120	0xbe10487b	-0.14090149
121	0x3c95dd49	0.018293994
122	0x3b33a3ec	0.0027410937
123	0x3ce646f7	0.02811001
124	0xbe5fdd1c	-0.2186169
125	0xbb48754c	-0.0030587493
126	0xbe30a7e0	-0.17251539
127	0x3ce123a6	0.027482819
128	0xbe279bc8	-0.1636802
129	0x3d1b7235	0.037950713
130	0xbdc0a79b	-0.09406968
131	0x3dc5c5f3	0.096568964
132	0xbde9d3c6	-0.11417346
133	0x3da57dde	0.08080648
134	0x3e302e33	0.17205124
135	0xbe03a76d	-0.12856837
136	0xbe3f7ef4	-0.18700773
137	0xbe3be6d1	-0.18349768
138	0xbdeab51a	-0.11460324
139	0x3cb512de	0.022103723
140	0xbe15ddab	-0.14635341
141	0x3c1fcfa0	0.0097540915
142	0xbe57303f	-0.21014498
143	0xbe45c392	-0.19312885
144	0xbdae9292	-0.0852405
145	0x3d126cd6	0.035748325
146	0xbd89e3e3	-0.06732919
147	0xbdd90c20	-0.10598016
148	0xbd0d19eb	-0.034448545
149	0x3d438313	0.047732424
150	0xbe3b358a	-0.18282142
151	0x3af8cbd1	0.001898164
152	0xbe515334	-0.20441896
153	0x3db4e240	0.08832216
154	0xbe03f21e	-0.12885329
155	0x3d81cd8c	0.06338033
156	0x3a338f61	0.0006849673
157	0xbcf7b754	-0.030238785
158	0xbda042a8	-0.07825214
159	0xbdcd5ede	-0.1002786
160	0xbdab7742	-0.08372356
161	0xbd268266	-0.0406517
162	0x3d58b577	0.052907433
163	0x3d32d562	0.04366053
164	0x3d4fe77a	0.050757863
165	0x3ce957f8	0.02848433
166	0x3b75563e	0.0037435438
167	0x3aa0c9a4	0.0012267125
168	0x3c4bd22a	0.012440244
169	0xbbdfb728	-0.006827254
170	0x3d5a47e2	0.05329121
171	0x3cc0a85c	0.02351778
172	0x3c44a7ef	0.012002929
173	0x3c041466	0.008061504
174	0x3cff628d	0.031174922
175	0x39d15caf	0.0003993264
176	0xbd28b0ae	-0.04118412
177	0x3d16d5e1	0.036825065
178	0xbc75e934	-0.015009213
179	0xbd2d076e	-0.042243414
180	0xbde4dc2b	-0.11174806
181	0xbd821581	-0.06351758
182	0x3e66e1a6	0.22547016
183	0x3d5ef99f	0.054437276
184	0xbe5367f3	-0.20645122
185	0x3e1eaf1c	0.15496486
186	0xbdaa51e0	-0.08316398
187	0xbd205e0d	-0.039152194
188	0x3e06a524	0.13148934
189	0xbd0fbf9d	-0.035094846
190	0x3d7d4bf9	0.06184003
191	0xbcca774c	-0.024715088
192	0x3d78f427	0.060779717
193	0x3df4ceca	0.119535044
194	0x3dd68fcc	0.10476646
195	0xbc0d07f5	-0.008607854
196	0x3cca09bb	0.024662843
197	0xbcfea112	-0.031082664
198	0x3cd34415	0.0257893
199	0x3d4f9e2c	0.050687954
200	0x3cacbbda	0.021085668
201	0x3d244cc9	0.04011229
202	0x3ce288c7	0.027653111
203	0x3d7449fc	0.05964087
204	0x3cb2e899	0.021839427
205	0xbd2b8578	-0.041875333
206	0x3cc31db5	0.023817876
207	0xbd1d6f4e	-0.038436227
208	0xbd2dbe83	-0.042418014
209	0xbd485ed0	-0.048918545
210	0xbcf7d623	-0.030253476
211	0xbc2354d0	-0.009968951
212	0xbd82afe0	-0.06381202
213	0xbdd9414d	-0.10608158
214	0xbda4b1c7	-0.08041721
215	0xbdcfd303	-0.10147669
216	0x3d47c73c	0.04877399
217	0xbe27c736	-0.16384587
218	0xbdb219fa	-0.08696361
219	0xbe96e7bc	-0.29473674
220	0x3ec0dba0	0.3766756
221	0xbdee6c47	-0.11641746
222	0xbeff07ce	-0.49810642
223	0xbe9dc4c4	-0.30814183
224	0x3d11a11b	0.035554033
225	0x3e4452cc	0.1917221
226	0x3e9f1db6	0.31077355
227	0xbefb2614	-0.4905249
228	0x3bfd245b	0.007725281
229	0x3f08ed8e	0.5348748
230	0xbedd02d8	-0.43166232
231	0xbe45c9da	-0.19315282
232	0x3e037693	0.12838201
233	0xbe7b5230	-0.24543071
234	0xbcefa6bf	-0.029254315
235	0xbdda1bd6	-0.106498405
236	0xbe291083	-0.16510205
237	0xbe12294c	-0.14273566
238	0x3e2da3ab	0.16956966
239	0xbef492f7	-0.47768375
240	0xbf122614	-0.5708935
241	0x3f31f65b	0.69516534
242	0xbf4d361f	-0.8016071
243	0xbd040854	-0.032234505
244	0xbe473c67	-0.19456635
245	0xbd86d328	-0.065832436
246	0xbe1269f7	-0.14298235
247	0xbf35c50c	-0.71003795
248	0x3e19e72a	0.15029588
249	0xbe9d2818	-0.30694652
250	0xbf899604	-1.0748906
251	0x3d124bd3	0.035716843
252	0x3e61d4ad	0.22053786
253	0xbe8d7351	-0.27627042
254	0x3e9406a6	0.28911322
255	0xbe9c3ced	-0.30515233

0.conv2.bias f4 [12]
0	0xbea7e0bb	-0.32788643
1	0x3ec4e942	0.38459212
2	0xbe405385	-0.1878186
3	0x3f17d796	0.59313333
4	0x3e073a8e	0.1320593
5	0xbce38581	-0.02777362
6	0x3ef2527e	0.47328562
7	0x3f226b78	0.63445234
8	0xbeccce77	-0.4000127
9	0x3de1c7bf	0.11024427
10	0x3fac43c6	1.3458183
11	0x3ecd4339	0.4009035

0.conv3.weight f4 [24, 12, 3, 3]
0	0x3ecc2a23	0.39875898
1	0xbf1bc4d5	-0.60847217
2	0x3e23de9f	0.16002892
3	0x3e80ff54	0.251948
4	0xbd47a962	-0.04874552
5	0x3f3b57ca	0.7318083
6	0x3e2c4c5a	0.16826001
7	0x3d71c4a2	0.059025414
8	0xbec629d6	-0.38703793
9	0xbe25c1e0	-0.16187239
10	0xbe690751	-0.22756697
11	0x3cc54241	0.024079444
12	0x3f6c8601	0.92391974
13	0xbe11ba78	-0.14231288
14	0x3eb8009b	0.35937962
15	0xbe199fc8	-0.15002358
16	0xbc8546d2	-0.016269121
17	0x3ecddcc3	0.4020749
18	0x3ecaf411	0.39639333
19	0xbf0623ce	-0.52398384
20	0x3eb82509	0.35965756
21	0x3e050794	0.12991172
22	0xbf827fd8	-1.0195265
23	0xbe898f73	-0.26867256
24	0xbd1519f6	-0.03640171
25	0xbeb2db12	-0.34932762
26	0x3f31e7e6	0.69494474
27	0x3d316136	0.0433056
28	0xbddb6dc5	-0.10714296
29	0xbedc79b8	-0.43061614
30	0x3e21ca72	0.15799883
31	0xbf52108e	-0.8205651
32	0x3e156f1d	0.14593168
33	0x3e472591	0.19447924
34	0x3a668459	0.0008793525
35	0xbd4d1caa	-0.050076164
36	0xbe3c6354	-0.18397266
37	0xbd9f2e6f	-0.077725284
38	0xbe43d6bd	-0.19124885
39	0x3f082d46	0.5319408
40	0x3dd805a6	0.10547952
41	0x3ee2005b	0.44140896
42	0x3cd5c910	0.02609685
43	0x3ebeb7b4	0.3724953
44	0xbe488524	-0.19582039
45	0x3e6e7672	0.23287371
46	0x3fb5e828	1.4211473
47	0xbd853e58	-0.06506032
48	0x3eb5b688	0.35490823
49	0x3fc1cbab	1.514028
50	0x3eecc82d	0.46246472
51	0xbfbca4c5	-1.4737784
52	0x3eec0a61	0.46101668
53	0xbfde7074	-1.7378068
54	0xbb999c09	-0.0046877903
55	0xbd3efa33	-0.046625327
56	0xbc8224ca	-0.015886683
57	0xbcfce3a8	-0.030870274
58	0xbdad50c5	-0.08462671
59	0x3e0436b5	0.12911494
60	0x3d9d0547	0.07667022
61	0x3e1784d7	0.14796768
62	0x3d466906	0.048440002
63	0xbd0d7184	-0.034532085
64	0xbeb34280	-0.35011673
65	0x3d989f92	0.074523106
66	0x3e441638	0.19149101
67	0xbeb7fee9	-0.3593667
68	0x3f211edf	0.6293773
69	0xbdfaed1e	-0.12252258
70	0x3e95907b	0.29211792
71	0xbe7a12be	-0.24421212
72	0x3e97f289	0.29677227
73	0xbf280730	-0.6563597
74	0xbdb8dfcb	-0.0902706
75	0xbd3b76aa	-0.045767464
76	0xbfbdeab3	-1.483725
77	0x3e04bf6f	0.12963651
78	0x3ee416cb	0.4454864
79	0x3c43c935	0.011949827
80	0x3e9ccc4e	0.30624622
81	0xbec78c58	-0.3897426
82	0x3eed41b1	0.4633918
83	0xbe27ca27	-0.16385709
84	0xbd03935b	-0.03212295
85	0x3f0e6a4e	0.5563096
86	0xbf1ccee9	-0.6125322
87	0xbd85b8f8	-0.065294206
88	0xbf0863cb	-0.5327727
89	0x3ed29408	0.41128564
90	0xbdb47a24	-0.08812359
91	0xbe5d5dee	-0.21617863
92	0x3df4d2a2	0.119542375
93	0xbdb95c6d	-0.09050832
94	0x3de90f65	0.113798894
95	0x3e6fa891	0.23404147
96	0x3de4bc95	0.11168782
97	0x3de59369	0.11209757
98	0xbbf1e78b	-0.0073823384
99	0xbd965485	-0.073403396
100	0x3ee6bbad	0.4506506
101	0xbf233ead	-0.6376751
102	0xbc7a93dd	-0.015294042
103	0x3e8a900d	0.27063027
104	0x3e37664c	0.17910117
105	0xbe92e16e	-0.28687614
106	0x3f032028	0.5122094
107	0xbeba92f1	-0.36440232
108	0x3c7b50a2	0.015339049
109	0xbd3a53ac	-0.045489952
110	0xbe0935ca	-0.13399425
111	0x3d547da0	0.051877618
112	0x3c2126f7	0.00983595
113	0xbe00600c	-0.12536639
114	0x3c95e5ca	0.018298049
115	0x3dfa0d00	0.12209511
116	0xbdf33db2	-0.11877002
117	0x3db01b1e	0.08598922
118	0xbc2fe1af	-0.0107349595
119	0xbe83bbf7	-0.25729343
120	0xbc27156c	-0.0101979785
121	0xbdc590df	-0.096467726
122	0xbd89cb4d	-0.0672823
123	0xbdc4e7f7	-0.09614556
124	0xbd24517b	-0.04011677
125	0x3c316274	0.010826696
126	0xbd89cfed	-0.06729112
127	0x3d01f0fa	0.031723954
128	0xbdc9b996	-0.09849851
129	0xbde3e367	-0.11127358
130	0xbd922e3f	-0.07137727
131	0xbca9578a	-0.020671625
132	0xbdd56131	-0.104189284
133	0xbe019ae7	-0.12656747
134	0xbd8259a1	-0.063647516
135	0xbdfd82c0	-0.12378454
136	0xbde3b584	-0.11118606
137	0xbdcf71a4	-0.10129097
138	0xbd652a9e	-0.055948846
139	0xbdceac3f	-0.10091447
140	0xbe0c0c38	-0.13676536
141	0xbd4955bc	-0.04915403
142	0xbdac1e37	-0.084042005
143	0xbd02d1ab	-0.031938236
144	0x3c8d30ba	0.017235149
145	0xbe3c4ee4	-0.1838947
146	0xbd042b48	-0.03226784
147	0xbd725685	-0.059164543
148	0xbe288eca	-0.1646072
149	0xbde30bfb	-0.110862695
150	0xbdc6a1f5	-0.096988596
151	0xbe9adf8d	-0.3024868
152	0xbdd5c76e	-0.10438429
153	0x3d065f96	0.032806
154	0x3cd48baf	0.025945513
155	0xbd0d53f5	-0.034503896
156	0xbd6465dd	-0.055761207
157	0xbdfcc832	-0.12342872
158	0xbd678a6a	-0.056528486
159	0x3ab19133	0.0013547301
160	0xbdcaf353	-0.09909692
161	0xbe24eb13	-0.16105299
162	0xbc670b72	-0.01410185
163	0xbdeb5de8	-0.114925206
164	0xbe8b7850	-0.2724023
165	0x3ced8274	0.028992869
166	0xbdcba7e8	-0.09944135
167	0xbe004c7c	-0.12529176
168	0x3cc8c99e	0.024510201
169	0xbd90a83a	-0.07063337
170	0xbe90c3c2	-0.2827435
171	0xbdecba4e	-0.11558972
172	0xbdb41810	-0.08793652
173	0xbe381112	-0.17975262
174	0xbdaca123	-0.08429172
175	0xbe7d939c	-0.2476334
176	0xbe9364cf	-0.28787848
177	0xbdf170e1	-0.11789108
178	0xbe7798c0	-0.24179363
179	0xbdc5c0f5	-0.09655944
180	0x3c982de2	0.018576566
181	0xbe05811f	-0.13037537
182	0xbcbdda5a	-0.023175407
183	0x3da2a3fa	0.07941432
184	0xbce965b0	-0.028490871
185	0xbde23160	-0.11044574
186	0xbca7717d	-0.020439858
187	0x3ce3177e	0.027721163
188	0xbd927cc6	-0.07152705
189	0xbdf4a2e8	-0.119451344
190	0x3cdf819b	0.02728348
191	0xbbc749e6	-0.0060818074
192	0xbdc512cb	-0.09622725
193	0xbdf056c6	-0.11735301
194	0x3bc17ec8	0.005905006
195	0x3dff029a	0.12451668
196	0xbd1bb7d8	-0.038017124
197	0xbd57423c	-0.0525534
198	0xbdc98559	-0.09839887
199	0xbdf69551	-0.120401986
200	0xbddc162c	-0.107464164
201	0xbc79040e	-0.015198721
202	0xbd0a4c8f	-0.03376442
203	0xbd5bbcb0	-0.053646743
204	0xbbacb7e0	-0.005270943
205	0xbc321721	-0.010869772
206	0xbe1bd619	-0.1521839
207	0xbdbc97f2	-0.09208669
208	0xbe8df11a	-0.27723008
209	0xbe188e0a	-0.14897934
210	0x3d07eac2	0.033182867
211	0xbe3c23f4	-0.1837309
212	0xbd55fb04	-0.05224134
213	0xbcadbb32	-0.021207426
214	0xbe1d88d8	-0.15384233
215	0xbe498863	-0.19680934
216	0xbd0cf43a	-0.0344126
217	0x3cc5f263	0.02416343
218	0x3d8eaab4	0.06966153
219	0xbdd250e5	-0.10269336
220	0xbd696eef	-0.05699056
221	0xbcb4ba92	-0.02206162
222	0xbd89fbdf	-0.06737494
223	0xbd60d9c8	-0.054895192
224	0xbd775217	-0.06038102
225	0xbd1d8f47	-0.038466718
226	0xbdc60ff7	-0.09671014
227	0xbddbdb1d	-0.10735152
228	0xbd1627de	-0.036659114
229	0xbc5838df	-0.013197153
230	0xbbd09d41	-0.0063664024
231	0xbc84de78	-0.016219363
232	0xbdba3127	-0.09091406
233	0xbdddaae9	-0.10823614
234	0x3c99335f	0.018701253
235	0x3d84b3ad	0.06479583
236	0x3c6e78e9	0.014555194
237	0xbd16db13	-0.03683002
238	0xbda7aa19	-0.081867404
239	0xbdbd6f48	-0.09249741
240	0xbd30124a	-0.04298619
241	0xbde57b3b	-0.11205145
242	0xbd4237d8	-0.047416538
243	0xbe0d7376	-0.13813576
244	0xbda0d8ca	-0.07853849
245	0xbdd0f922	-0.10203768
246	0x3d3cbbef	0.046077665
247	0xbd1e2218	-0.038606733
248	0xbe2ba26a	-0.16761175
249	0xbc39fa5c	-0.011351194
250	0xbd94a3a9	-0.07257778
251	0xbdc77318	-0.09738749
252	0xbd7cb143	-0.061692487
253	0xbcd942f9	-0.026521193
254	0xbe1212b8	-0.14264953
255	0x3a26b2ba	0.000635903

0.conv3.bias f4 [24]
0	0x3f851d1f	1.0399512
1	0xbc43db29	-0.011954107
2	0xbec15588	-0.37760568
3	0xbdde7301	-0.10861779
4	0x3e142b75	0.14469703
5	0x3f1206ac	0.5704143
6	0xbd86ad40	-0.065760136
7	0x3f3994b7	0.72492546
8	0xbd7c88c9	-0.061653886
9	0xbec968d4	-0.3933779
10	0xbf21c220	-0.63186836
11	0x3fb32c03	1.3997806
12	0x3c9bed0c	0.019033931
13	0x3eac1594	0.33610213
14	0xbdf36409	-0.118843146
15	0x3ebe5753	0.37175998
16	0xbe243926	-0.16037425
17	0x3d454f61	0.048171405
18	0xbd6e09fe	-0.058114998
19	0xbd20f6cb	-0.03929786
20	0xbd337480	-0.043812275
21	0x3e219fee	0.15783665
22	0x3edd5323	0.4322749
23	0xbdbe3984	-0.09288314

0.conv4.weight f4 [48, 24, 3, 3]
0	0xbc4f5060	-0.01265344
1	0xbddcff78	-0.10790914
2	0xbe0eb2a5	-0.13935335
3	0xbdb82bdc	-0.089927405
4	0xbec5dd2d	-0.38645306
5	0xbd047cfc	-0.032345757
6	0xbe4b2c4c	-0.19841117
7	0xbec7564b	-0.38933024
8	0xbe77b395	-0.24189599
9	0xbacba0e9	-0.0015535626
10	0xbd981ccd	-0.07427368
11	0xbd986517	-0.07441156
12	0xbe5e7c33	-0.21727066
13	0x3f251a87	0.644936
14	0xbda1bcff	-0.07897376
15	0xbec65c37	-0.3874223
16	0x3e402ef5	0.18767913
17	0xbdd1da16	-0.10246675
18	0x3e439536	0.19099888
19	0xbf2db2c7	-0.6785092
20	0xbf12455b	-0.5713708
21	0xbfafaf23	-1.3725322
22	0x3e562f23	0.20916419
23	0xbf4a8e1c	-0.7912309
24	0x3f67c47a	0.90534174
25	0xbf82657e	-1.0187223
26	0x3f7ce4b5	0.9878648
27	0x3d8ada24	0.06779888
28	0xbdd0e71e	-0.10200332
29	0xbe25c24f	-0.16187404
30	0xbee59ad2	-0.4484468
31	0x408d41b6	4.4142714
32	0x3fa00884	1.2502599
33	0xbdb82b31	-0.08992613
34	0x40092d5b	2.1433933
35	0xbf5de08d	-0.8667076
36	0xbd3143c3	-0.043277513
37	0xbd6b686f	-0.057472643
38	0xbde9147c	-0.1138086
39	0x3eec40eb	0.46143278
40	0xbf2d9658	-0.6780753
41	0xbcff9164	-0.031197257
42	0xbda004e4	-0.07813433
43	0x3f0b0a83	0.54312915
44	0x3e8f72f5	0.28017393
45	0xbdf70f22	-0.12063433
46	0xbef91b03	-0.4865342
47	0xbf360ba8	-0.71111536
48	0xbda770e2	-0.081758276
49	0xbf06e722	-0.5269643
50	0xbf07dae7	-0.53068393
51	0xbe522e8d	-0.2052557
52	0xbde827d9	-0.11335725
53	0x3ee64d90	0.4498105
54	0x3bbe3098	0.0058041327
55	0xbe8e8ffc	-0.27844226
56	0xbd852694	-0.06501499
57	0xbf4cb4b7	-0.7996325
58	0xbe7304e4	-0.23732334
59	0xbffee47d	-1.9913479
60	0xbe2452d5	-0.16047223
61	0xbc58ab0d	-0.013224375
62	0xbe09b110	-0.1344645
63	0xbe0adf22	-0.13561681
64	0xbf26a5da	-0.6509682
65	0xbed16465	-0.40896907
66	0xbe3fce61	-0.18731071
67	0x3fb14554	1.3849282
68	0x3ed5d460	0.41763592
69	0xbe8d34f4	-0.27579463
70	0xbf133d1e	-0.5751513
71	0xbeb87f4b	-0.36034617
72	0x3bd36185	0.006450834
73	0xbd8a832d	-0.06763301
74	0xbdbe6ebe	-0.09298466
75	0xbd474921	-0.048653726
76	0xbe254a12	-0.16141537
77	0xbd9aba5d	-0.07555077
78	0xbe0ebbc6	-0.13938817
79	0xbdfc9ceb	-0.12334617
80	0x3ddabcd1	0.10680545
81	0xbdbfedaf	-0.093715064
82	0xbdca174b	-0.09867724
83	0xbd27ffab	-0.04101531
84	0xbde84705	-0.11341671
85	0x3e09d3e2	0.13459733
86	0x3da61b9f	0.08110737
87	0xbe565dbb	-0.20934193
88	0xbe1fd7bb	-0.15609638
89	0x3cf581c8	0.029969111
90	0x3b4af2e5	0.003096753
91	0xbe589d9a	-0.2115387
92	0xbd832061	-0.0640266
93	0xbedaff97	-0.42773125
94	0xbf914faa	-1.1352437
95	0xbf2111bf	-0.62917703
96	0x3dc9b0a0	0.09848142
97	0x3f062d4a	0.52412856
98	0xbcd60464	-0.02612514
99	0xbe0f69bb	-0.14005177
100	0xbcc7e109	-0.024399297
101	0xbdd07260	-0.10178065
102	0xbe3d02c1	-0.18458082
103	0x3cbc41d3	0.022980606
104	0x3e16d61c	0.14730114
105	0xbdf7d9b7	-0.12102073
106	0x3f50a442	0.8150064
107	0x3eb0a5cd	0.34501496
108	0xbc6115aa	-0.013738075
109	0xba861dda	-0.0010232285
110	0xbdc7ec59	-0.097618766
111	0xbd8d16a5	-0.06889085
112	0x3e89e6d6	0.26933926
113	0x3ec3fc7e	0.38278574
114	0x3e248697	0.16066967
115	0xbf6d0642	-0.92587674
116	0x3f05004f	0.51953596
117	0xbd0d505c	-0.034500465
118	0xbf960fea	-1.1723607
119	0xbf848a0f	-1.0354632
120	0xbf0ebd0d	-0.5575722
121	0x3f69629a	0.9116608
122	0x3e051105	0.12994774
123	0xbe4345b1	-0.19069554
124	0xbe3537a6	-0.1769701
125	0xbe940f38	-0.2891786
126	0xbdf9748d	-0.121804334
127	0xbeb44dfd	-0.3521575
128	0xbe1ca5f3	-0.1529768
129	0xbf212dcd	-0.6296051
130	0xbec64214	-0.3872229
131	0xbe90f600	-0.28312683
132	0xbf57dfe8	-0.8432603
133	0xbe8f6843	-0.28009233
134	0x3e724791	0.23660113
135	0xbdc38eb5	-0.095487036
136	0xbe3136e8	-0.17306101
137	0x39b7fc42	0.00035092427
138	0xbe17dc8c	-0.14830226
139	0xbf72b82b	-0.9481227
140	0xbe7898ed	-0.24277087
141	0x3cea3f03	0.0285945
142	0xbdc0d053	-0.09414735
143	0x3d745e5e	0.059660308
144	0x3ce7db70	0.028302878
145	0xbd24ddd7	-0.040250625
146	0x3d2cff07	0.0422354
147	0xbc8b8543	-0.017031318
148	0xbf8e2752	-1.110575
149	0xbfe96b8e	-1.8235948
150	0xbe4daa65	-0.20084532
151	0xbee6ecba	-0.45102483
152	0x3f73c30b	0.95219487
153	0xbecf9f4d	-0.40551224
154	0xbf8d4c22	-1.1038859
155	0xbf08646e	-0.53278244
156	0xbf89c80b	-1.0764173
157	0x3cea4a04	0.028599747
158	0xbe9b8ca3	-0.30380735
159	0xbf0f4fe1	-0.5598126
160	0xbe1048ba	-0.14090243
161	0xbe4935df	-0.19649456
162	0xbddb3eb7	-0.10705321
163	0xbdd959ba	-0.10612817
164	0x3bc6f28a	0.0060713934
165	0xbe1cf072	-0.15326098
166	0x3fb6ddfa	1.4286492
167	0xbe6fcc28	-0.23417723
168	0xbdb9bc4c	-0.09069118
169	0xbf16734c	-0.5876968
170	0xbd9d119b	-0.076693736
171	0xbd136457	-0.035984363
172	0xbd0649bc	-0.032785162
173	0xbdccefe9	-0.10006697
174	0xbdb1224b	-0.08649119
175	0x3ce41b42	0.027845029
176	0x3c62650e	0.013818039
177	0xbc2382d1	-0.0099799195
178	0x3db98782	0.09059049
179	0xbba27b4b	-0.0049585453
180	0xbd058806	-0.032600425
181	0xbdd0705b	-0.1017768
182	0xbe165ba0	-0.1468339
183	0xbfa22270	-1.266676
184	0x3c6401bc	0.013916429
185	0xbf2e3dd5	-0.680631
186	0x3d94f06b	0.072724186
187	0x3f5d610b	0.864762
188	0x3f721c21	0.9457417
189	0xbd326ad0	-0.043558896
190	0xbe8490ec	-0.25891817
191	0xbe4936df	-0.19649838
192	0xbf995dfe	-1.1981809
193	0xbe87f2c6	-0.2655241
194	0x3f58106d	0.84400064
195	0xbe6e9f87	-0.23303042
196	0xbf8e2e6d	-1.1107918
197	0xbcb68b4b	-0.022283217
198	0xbea05e4b	-0.3132194
199	0xbf346e48	-0.70480776
200	0xbf6ecb51	-0.93278986
201	0xbec1b4b1	-0.3783317
202	0xbda34e2c	-0.079738945
203	0xbe2556e8	-0.16146433
204	0xbec0ca20	-0.3765421
205	0x3e316c45	0.17326458
206	0x3e4d0162	0.20020059
207	0xbc6adb29	-0.014334478
208	0xbc9b4364	-0.018953033
209	0xbc3b9154	-0.011448223
210	0xbd4b27de	-0.049598567
211	0xbe2a1cdb	-0.1661257
212	0xbee93db6	-0.45554894
213	0xbee5dca7	-0.44894907
214	0xc05156b1	-3.2709162
215	0xc08b1e91	-4.3474813
216	0xbd1f90b2	-0.03895635
217	0xbc3be18a	-0.011467347
218	0x3a7bde90	0.00096080545
219	0xbcda478c	-0.026645444
220	0x3da914dc	0.08255932
221	0x3c6ac686	0.014329558
222	0x3dc4a4a0	0.09601712
223	0xbd30e18f	-0.04318386
224	0xbdc37ea8	-0.09545642
225	0xbd3ec94e	-0.046578698
226	0xbe044135	-0.129155
227	0xbd100f4f	-0.03517085
228	0xbd95e040	-0.07318163
229	0xbd614e41	-0.05500627
230	0xbdd1a6be	-0.10236882
231	0xbd0716a4	-0.032980576
232	0xbdf6307d	-0.12020967
233	0xbccf1781	-0.025279762
234	0xbdaa70f5	-0.08322326
235	0xbc0dd1b2	-0.008655952
236	0xbca92c38	-0.020650968
237	0x3d7ca084	0.061676517
238	0x3a1cb523	0.0005977919
239	0xbd21ec24	-0.039531842
240	0xbddad3bb	-0.10684916
241	0xbd98c466	-0.07459335
242	0xbcf23b27	-0.029569222
243	0xbd9401d1	-0.07226909
244	0xbd94254b	-0.072336756
245	0xbdbf6dd5	-0.09347121
246	0xbdcf0655	-0.101086296
247	0xbdb934f3	-0.090433024
248	0xbdd16e62	-0.10226132
249	0xbcf5f789	-0.03002526
250	0xbbc7e1c1	-0.00609991
251	0x3cdbdfcf	0.026840119
252	0xbd39e533	-0.045384597
253	0xbd8610b5	-0.06546155
254	0x3cc06a49	0.02348818
255	0xbd94f2dc	-0.07272884

0.conv4.bias f4 [48]
0	0x3df6f8c0	0.12059164
1	0xbc2e90d4	-0.010654647
2	0xbe55a164	-0.20862347
3	0xbf0b4734	-0.5440552
4	0x3eef3041	0.46716502
5	0xbdd1bff2	-0.10241689
6	0xbdf2c973	-0.1185483
7	0xbe9af0ea	-0.30261928
8	0xbee00344	-0.4375249
9	0xbdce2ae3	-0.10066774
10	0xbd97665d	-0.07392571
11	0x3f3cdc53	0.7377369
12	0xbe175918	-0.1478008
13	0xbe98ba50	-0.29829645
14	0x3cddfeef	0.0270991
15	0x3d859e11	0.065242894
16	0x3fbf6373	1.4952224
17	0x3f0f03c0	0.558651
18	0x3f015af8	0.5052943
19	0x3d9a1a9f	0.07524609
20	0x3f314c9e	0.69257534
21	0x3e85c8ab	0.2612966
22	0xbdc11fb2	-0.094298735
23	0xbe0c7002	-0.13714603
24	0xbc60fb68	-0.013731815
25	0xbe01f9aa	-0.12692896
26	0xbe99e4e8	-0.30057454
27	0xbb2dc6e9	-0.0026516265
28	0xbd89080a	-0.066909865
29	0xbe77621f	-0.24158524
30	0xbe16ed5a	-0.1473898
31	0x3e75bd71	0.23998047
32	0x3f3f23ca	0.74663985
33	0xbedd34ca	-0.43204337
34	0xbde713e0	-0.11283088
35	0xbdf97a91	-0.12181581
36	0xbd6518f7	-0.05593201
37	0xbe224910	-0.15848184
38	0x3e1bffdc	0.15234321
39	0x3f042968	0.5162568
40	0xbe0827a2	-0.13296369
41	0xbe1a4423	-0.15065055
42	0xbdfeb309	-0.12436492
43	0xbdd9413c	-0.106081456
44	0xbe50be2d	-0.20385046
45	0x3d69bc00	0.057064056
46	0xbdb20057	-0.08691471
47	0xbe0ed634	-0.139489

0.conv5.weight f4 [96, 48, 3, 3]
0	0xbe81816c	-0.25294054
1	0xbf9aa7a0	-1.2082405
2	0x3f02ef33	0.5114624
3	0xbf8fc2af	-1.1231288
4	0x3e83a925	0.25714985
5	0x3f380efa	0.7189785
6	0xbe65e596	-0.22450861
7	0xbf4d95f6	-0.8030695
8	0xbdc121aa	-0.09430249
9	0x3dc3fa4c	0.09569225
10	0x3db910c7	0.09036403
11	0xbd1efed9	-0.03881726
12	0x3d441e1b	0.047880273
13	0x3dc85362	0.09781529
14	0xbe08723e	-0.1332483
15	0x3e3096ca	0.17245021
16	0x3e973035	0.29528967
17	0x3f0ddf62	0.5541898
18	0x3bb8f8be	0.0056448868
19	0xbf0e4cc0	-0.5558586
20	0x3dff2439	0.12458081
21	0x3e94b7a0	0.29046345
22	0xbf04c61f	-0.5186481
23	0x3e6a6e95	0.22893746
24	0xbe4d9cfa	-0.20079413
25	0xbdf5d882	-0.12004186
26	0x3ddeb542	0.10874416
27	0x3decf9a1	0.115710504
28	0x3e951655	0.291186
29	0xbe47ec60	-0.19523764
30	0x3ef15d8a	0.47141677
31	0xbeb1f3ee	-0.34756416
32	0x3b68195e	0.003541551
33	0x3e2d5e3c	0.16930479
34	0xbe2a8a5a	-0.1665434
35	0xbe8aeaaf	-0.27132174
36	0xbe0a4209	-0.13501753
37	0x3cb7c21d	0.022431428
38	0x3ca3bdb8	0.019987926
39	0x3e9d3133	0.307016
40	0xbcfb2971	-0.03065941
41	0x3d1b1ae3	0.037867438
42	0x3d616218	0.05502519
43	0x3da5182d	0.08061252
44	0xbf231313	-0.6370098
45	0xbc773ccf	-0.0150901815
46	0xbd1de997	-0.038552847
47	0xbcca2da1	-0.02467996
48	0x3d33c422	0.04388822
49	0xbdc69a54	-0.096974045
50	0xbda6cfb8	-0.08145088
51	0xbd4f13fa	-0.05055616
52	0x3dc1ab1b	0.09456464
53	0x3c8bae95	0.01705102
54	0xbe0b15e4	-0.1358257
55	0xbdafb80a	-0.085800245
56	0xbe4ae91b	-0.19815485
57	0xbcefb305	-0.029260168
58	0xbe00a6c8	-0.12563622
59	0xbdc1b751	-0.09458793
60	0xbe12dbb7	-0.14341627
61	0x3dff40e9	0.124635525
62	0x3e3c090e	0.18362829
63	0x3dc084f7	0.09400361
64	0x3e627ffd	0.22119136
65	0xbe1e0cda	-0.1543459
66	0x3e2d52eb	0.16926162
67	0x3facb81a	1.3493683
68	0x3e3160da	0.17322102
69	0xbea13c4f	-0.31491324
70	0x3e687fc0	0.22704983
71	0xbef5667e	-0.47929758
72	0xbc81dd77	-0.015852673
73	0x3c9ae906	0.018909942
74	0x3d2dba4b	0.04241399
75	0xbd58d91e	-0.052941434
76	0xbe1e44df	-0.1545596
77	0x3c4d06fe	0.012513874
78	0x3d9d33f0	0.07675922
79	0x3d677690	0.056509554
80	0x3dee1baa	0.1162637
81	0xbfcebad2	-1.6150763
82	0xc03794c7	-2.8684556
83	0x3e905932	0.2819305
84	0xbfb058cf	-1.3777102
85	0xbf6f3d49	-0.9345289
86	0xc002a757	-2.0414636
87	0x3fbd0118	1.4765959
88	0x3f81a2b7	1.0127782
89	0xbeb50f0e	-0.35363048
90	0xbf21d1b4	-0.63210607
91	0xc03a885a	-2.9145722
92	0xbf6568eb	-0.8961322
93	0x3f5ad7b9	0.85485417
94	0xbfd66c63	-1.6751827
95	0xbddeb6b5	-0.10874692
96	0xbdd0f4c2	-0.10202934
97	0x3f8ecc23	1.1156048
98	0x3e9d5bc8	0.30734086
99	0x3dca1ad4	0.09868398
100	0x3e1b7045	0.15179546
101	0x3ce91d26	0.028456282
102	0xbd429991	-0.047509734
103	0x3eeb5e0f	0.459702
104	0x3e02c292	0.12769535
105	0xbd0832e0	-0.033251643
106	0x3d9cf807	0.07664495
107	0x3e917963	0.28412923
108	0x3bb8fafa	0.005645153
109	0x3e6ca3b0	0.23109317
110	0xbe9b2fe7	-0.30309984
111	0xbe17575e	-0.14779422
112	0xbebe4b3a	-0.37166768
113	0xbe98e4ac	-0.29861963
114	0xbfaa020f	-1.3281878
115	0x3d16320e	0.03666883
116	0xbf8cd7f2	-1.1003401
117	0xbea268b4	-0.31720507
118	0xbe84e94d	-0.25959244
119	0xbe87cdba	-0.26524144
120	0xbea1c0b4	-0.31592333
121	0xbeb86d04	-0.36020672
122	0xbe8461a3	-0.2585574
123	0xbe4dc75e	-0.20095584
124	0xbe7a3634	-0.2443474
125	0xbe5e0b79	-0.21684064
126	0xbd8e1985	-0.06938461
127	0x3e4d18c8	0.20028985
128	0xbe64cc8e	-0.22343656
129	0xbe30c65f	-0.17263173
130	0x3d22f6d8	0.03978619
131	0x3cbc865d	0.023013288
132	0x3caf7444	0.021417744
133	0xbeafa2b2	-0.34303814
134	0x3e69e0d1	0.22839667
135	0xbd7d440f	-0.061832484
136	0x3de8f298	0.11374396
137	0xbdf30e91	-0.11868013
138	0xbe36c88b	-0.17849939
139	0x3e6149d9	0.22000827
140	0x3e4b90dc	0.19879478
141	0x3df2ff16	0.1186506
142	0xbdc76a4b	-0.09737071
143	0xbde89159	-0.11355848
144	0xbd4f948f	-0.050678786
145	0x3dce0bd0	0.10060847
146	0xbe8fac44	-0.28061116
147	0xbded8354	-0.115973145
148	0x3d0fc07a	0.03509567
149	0xbd837d40	-0.06420374
150	0xbc3147e6	-0.010820365
151	0xbe8d673d	-0.27617827
152	0x3d04071c	0.032233343
153	0xbda9a1a2	-0.08282782
154	0x3d9a8f64	0.07546881
155	0x3ca7e910	0.020496875
156	0xbd7ca5d5	-0.061681587
157	0xbe11de12	-0.1424487
158	0xbe89560e	-0.26823467
159	0xbdb4bc05	-0.088249244
160	0xbe9cc2f9	-0.30617502
161	0xbc775eca	-0.015098283
162	0x3d0f5938	0.034997195
163	0x3e5b993d	0.21445175
164	0x3ec41071	0.38293794
165	0x3e7cf6fd	0.24703594
166	0x3ead2150	0.33814478
167	0xbe53b809	-0.20675673
168	0x3bd3a495	0.0064588287
169	0x3da6a93a	0.08137746
170	0x3e11068c	0.14162654
171	0x3d19a69a	0.0375124
172	0xbe0cf72e	-0.13766167
173	0xbba98867	-0.005173731
174	0xbe1ad262	-0.15119317
175	0xbd678ce5	-0.056530852
176	0xbdfc9fc5	-0.12335161
177	0x3c471d86	0.012153035
178	0x3cf30fc9	0.029670613
179	0x3e0746a0	0.13210535
180	0x3e47ff65	0.19531019
181	0xbdb9907f	-0.090607636
182	0x3e9474a9	0.28995255
183	0x3e8dfbfc	0.2773131
184	0xbbf6e2df	-0.0075343694
185	0xbee37694	-0.44426405
186	0xbc86d2a8	-0.01645787
187	0x3d17be3f	0.037046667
188	0xbda1338c	-0.0787116
189	0x3fff7223	1.9956707
190	0x3ebb07a3	0.36529264
191	0xbfed6679	-1.8546897
192	0x3fc4d4ce	1.5377443
193	0x3e83cbc0	0.25741386
194	0x3e7c22b9	0.2462262
195	0xbe2980de	-0.16553065
196	0xbe444308	-0.19166195
197	0x3f158b31	0.58415514
198	0xbfbbbb6e	-1.4666574
199	0xbf44e178	-0.7690654
200	0xbfd7ccab	-1.6859335
201	0xbf3671c2	-0.7126733
202	0xbe266704	-0.16250235
203	0x3edf292d	0.43586102
204	0xc00b99d9	-2.181265
205	0x3ec70804	0.38873303
206	0xbf71cc00	-0.94451904
207	0x3d8a792d	0.06761394
208	0x3bfcbb36	0.007712747
209	0x3ca27ce4	0.019834943
210	0x3d93c76e	0.072157726
211	0x3d1974df	0.037464973
212	0x3da75cab	0.08171972
213	0x3d2c20e9	0.042023573
214	0x3d0a7edb	0.033812385
215	0xbc9ce57e	-0.0191524
216	0xbfa9262c	-1.3214774
217	0x3e4f3021	0.20233203
218	0x3e9be683	0.30449304
219	0x3fb77fb4	1.4335847
220	0x3fda3641	1.7047807
221	0xbf50e3d4	-0.8159764
222	0x3d931762	0.07182194
223	0xbeebfd7d	-0.46091834
224	0x3dc40646	0.09571509
225	0xbdcc4efb	-0.09976002
226	0x40086a41	2.1314852
227	0x3e86f4da	0.26358682
228	0x3f8838af	1.0642298
229	0x3e360eb6	0.1777905
230	0x3f89c7d4	1.0764108
231	0x3dab1e5a	0.083553985
232	0x3f68f47d	0.9099806
233	0x3e6f9e22	0.23400167
234	0x3dae0272	0.0849656
235	0xbfa48e45	-1.2855917
236	0xbf99b30b	-1.2007765
237	0x3e635cfa	0.22203436
238	0x3f47e750	0.7808733
239	0x3f00f64b	0.50375813
240	0xbef29789	-0.47381237
241	0xbff85f24	-1.9404035
242	0xbf8fef57	-1.1244916
243	0xbd0c8d0b	-0.034314197
244	0x3dcc6f39	0.099821515
245	0x3c96fa3f	0.018429874
246	0x3e3b2e9f	0.18279503
247	0xbe61db48	-0.22056305
248	0x3e54083f	0.2070627
249	0x3ce6da96	0.028180402
250	0x3eebc415	0.46048036
251	0xbf20a219	-0.6274734
252	0x3d869626	0.06571607
253	0x3d2db1d2	0.04240591
254	0xbd71210f	-0.058869418
255	0x3d3e63af	0.046481784

0.conv5.bias f4 [96]
0	0x3dc09beb	0.09404739
1	0xbeced9e9	-0.40400627
2	0xbe130d50	-0.14360547
3	0xbe6429d0	-0.22281575
4	0x3dfed391	0.12442697
5	0x3e8595f9	0.26090983
6	0xbd6b34b2	-0.0574233
7	0xbedcacaa	-0.43100482
8	0xbd045fe4	-0.03231801
9	0x3e809276	0.2511174
10	0xbe893bc0	-0.26803398
11	0x3e51e231	0.20496441
12	0xbda00c8a	-0.07814892
13	0xbe14a448	-0.14515793
14	0x3ddbe9a2	0.10737921
15	0x3e0d588e	0.13803312
16	0xbcc099be	-0.02351081
17	0x3f645bca	0.8920256
18	0x3d05e61a	0.032690145
19	0x3d0c4385	0.03424408
20	0x3d80c6e7	0.062879376
21	0x3e3e0fbe	0.18560693
22	0xbde57600	-0.11204147
23	0x3eb195c9	0.3468459
24	0x3d29151b	0.041279893
25	0x3d571d5f	0.052518245
26	0x3d54e2b9	0.051974032
27	0x3e513df7	0.20433794
28	0xbeb3a428	-0.3508618
29	0xbe6df1c7	-0.23236762
30	0xbedee991	-0.43537572
31	0x3e27f490	0.16401887
32	0xbe21d177	-0.15802561
33	0x3e708537	0.23488317
34	0x3cfb850a	0.030703086
35	0xbe593d18	-0.21214712
36	0x3e99db0c	0.30049932
37	0x3e32145e	0.17390582
38	0xbe8d5f79	-0.27611902
39	0xbe8e8b63	-0.2784072
40	0x3ec555e6	0.38542098
41	0xbdbb4851	-0.09144653
42	0x3e875c81	0.26437762
43	0x3c7b5554	0.015340168
44	0xbed273fe	-0.4110412
45	0xbf3bf81e	-0.7342547
46	0xbd9cae13	-0.076503895
47	0xbdd53640	-0.10410738
48	0xbe89eb90	-0.26937532
49	0xbcbb641f	-0.02287489
50	0xbc759135	-0.014988233
51	0x3e61382c	0.21994084
52	0x3ec7ab35	0.38997808
53	0xbeadf0e7	-0.33972856
54	0x3eae5aa2	0.34053522
55	0xbe29f405	-0.16596992
56	0x3cfe195d	0.031017954
57	0x3d76df8d	0.06027179
58	0xbd9abf8e	-0.075560674
59	0x3d1622fe	0.036654465
60	0xbe2c0f4b	-0.16802709
61	0xbe8a9fc7	-0.27075025
62	0x3d8c8471	0.06861199
63	0x3e28aa80	0.1647129
64	0x3ebceaf5	0.36898008
65	0x3e559b1e	0.20859954
66	0x3d10792d	0.035271812
67	0xbe5c0dd9	-0.21489657
68	0x3da2cf17	0.079496555
69	0xbcbd707c	-0.023124926
70	0xbdc9a6c1	-0.09846259
71	0x3dbc1027	0.09182768
72	0x3ed4381d	0.4144906
73	0x3e8eba9b	0.27876744
74	0x3c137d09	0.009001979
75	0xbcbd016d	-0.023071969
76	0x3dd2d5ac	0.10294661
77	0x3a9ccbb6	0.0011962566
78	0x3ed0748b	0.40713915
79	0xbe5be874	-0.21475393
80	0xbc76d978	-0.015066497
81	0xbf03ad47	-0.51436275
82	0xbd99ae37	-0.07503932
83	0xbc8b8dba	-0.017035354
84	0x3e8ac1df	0.27101037
85	0x3d7cc0cb	0.0617073
86	0x3ece5976	0.40302628
87	0xbf173039	-0.59057957
88	0x3ca1bd2a	0.01974352
89	0x3de45853	0.11149659
90	0xbf25ad90	-0.6471796
91	0x3e245762	0.16048959
92	0x3d674da4	0.05647053
93	0x3e4b42ca	0.19849697
94	0x3ed37dac	0.41306818
95	0xbe089eff	-0.13341902

0.res1.conv1.weight f4 [6, 6, 3, 3]
0	0xbf5dfa24	-0.8670981
1	0xbedb3ff7	-0.4282224
2	0xbf4a9038	-0.7912631
3	0x3fb194e8	1.3873568
4	0x4015a02b	2.3379009
5	0x3ef06e76	0.46959275
6	0xbf82333e	-1.0171888
7	0xbeecb272	-0.46229893
8	0xbf4fbd5c	-0.81148314
9	0xbd94cf72	-0.072661296
10	0xbebba6e0	-0.36650753
11	0x3f6afa3e	0.9178809
12	0xbee1c70e	-0.4409718
13	0xbd7ba802	-0.06143952
14	0xbf19e205	-0.60110503
15	0xbefa50e2	-0.48889834
16	0x3ee38039	0.44433764
17	0xbebdb910	-0.37055254
18	0xbfd2d1ba	-1.6470253
19	0xbeb355a1	-0.35026267
20	0x3f7e1e8c	0.9926536
21	0x3e60cd71	0.2195337
22	0xbe9e7ea3	-0.3095599
23	0xbf393c7a	-0.72357905
24	0xbf5a77ea	-0.85339224
25	0xbeb4033f	-0.35158727
26	0x3ecf0854	0.4043604
27	0xbd4626c8	-0.04837683
28	0xbf74f0b3	-0.9567978
29	0x3e5f1dfa	0.21788779
30	0x3d8a875d	0.067641
31	0xbfbbca1d	-1.4671055
32	0x3dc0f9d7	0.09422653
33	0x3f4f3a1d	0.8094805
34	0xbf19aae8	-0.6002641
35	0x3da91e48	0.08257729
36	0xbd574b53	-0.05256207
37	0xbe307c53	-0.17234926
38	0x3eb2c67d	0.3491706
39	0xbea2f22d	-0.3182539
40	0xbf2df4b7	-0.6795153
41	0x3e6c5c30	0.23082042
42	0x3ed4117a	0.41419584
43	0x3d952176	0.07281773
44	0x3f07ff06	0.5312351
45	0x400236e5	2.0346005
46	0x3f0c84d8	0.54890203
47	0x3f93de6f	1.1552256
48	0x3f84aa21	1.0364419
49	0xbf0fcd71	-0.56172854
50	0x3f1334c4	0.5750239
51	0x3f3cee53	0.73801154
52	0xbe305540	-0.1722002
53	0x3eca6b28	0.3953488
54	0xbedd0725	-0.43169513
55	0xbe4efe78	-0.2021426
56	0x3e930153	0.28711948
57	0xbfec3479	-1.8453513
58	0x3e73e128	0.23816359
59	0xbf116c4c	-0.5680587
60	0xbf6a5113	-0.9152996
61	0xbf48cd50	-0.7843828
62	0xbed040ff	-0.40674588
63	0xbcb67b9b	-0.022275737
64	0xbcbd3341	-0.023095729
65	0xbe140754	-0.1445592
66	0x3c04187e	0.00806248
67	0xbe5a3a87	-0.21311389
68	0xbe846674	-0.25859416
69	0xbeef27d0	-0.46710062
70	0xbb2aa52f	-0.0026038399
71	0x3ec1ea83	0.3787423
72	0x40053578	2.0813885
73	0xbde383c2	-0.11109115
74	0x3f494140	0.7861519
75	0x3ed6510e	0.41858715
76	0xc00f2114	-2.236394
77	0xc038416f	-2.8789937
78	0x3ecea3e7	0.40359423
79	0xbf59461a	-0.8487259
80	0x3ee4b7bf	0.44671437
81	0x3eb5477e	0.35406107
82	0xbde4b072	-0.11166467
83	0xbed73f68	-0.42040563
84	0x3f3eb7f4	0.7449944
85	0xbfca43db	-1.5801958
86	0x3e8a0796	0.26958913
87	0x3f67adfa	0.9049984
88	0x3e909ea6	0.2824604
89	0x3d9afdab	0.075679146
90	0x3e9fe755	0.3123118
91	0xbeaa693a	-0.33283406
92	0x3ba1015b	0.0049134917
93	0x3ed39382	0.41323477
94	0xbf4d514a	-0.8020216
95	0x3eb8ddbb	0.36106667
96	0x3e79b020	0.24383593
97	0x3d9b7d76	0.07592289
98	0xbdfcd93e	-0.12346123
99	0x3ee099e7	0.43867418
100	0xbf77a950	-0.96742725
101	0x3f4cf0ae	0.8005475
102	0xbf0c14d9	-0.5471931
103	0xc053f473	-3.311795
104	0x3eba386a	0.36371166
105	0x3f3d30a7	0.7390236
106	0x3f5247af	0.8214063
107	0x3fd5437e	1.6661222
108	0x3e6c6173	0.23084049
109	0xbf537073	-0.8259346
110	0x3de52db7	0.1119036
111	0x3e21fa3f	0.15818118
112	0xbf75e8c3	-0.9605829
113	0xbeade551	-0.33964017
114	0xbdb2cb87	-0.08730226
115	0xbe577b11	-0.2104304
116	0xbdbcdea4	-0.09222153
117	0x3edeb34f	0.43496177
118	0xbf457bfc	-0.7714231
119	0x3e6104e4	0.21974522
120	0xbe6a9e9e	-0.2291207
121	0xc032ee7e	-2.7958064
122	0xbfe41bff	-1.7821044
123	0x3ea9b720	0.33147526
124	0x3de422b5	0.11139432
125	0x3f389680	0.72104645
126	0x3ffb29bc	1.9622111
127	0x400a58f6	2.1616797
128	0x4019af0e	2.4013095
129	0x3daaeba7	0.08345728
130	0xbf7db72f	-0.9910764
131	0xc04ed615	-3.2318165
132	0x3fea9838	1.8327703
133	0xbe355a89	-0.17710318
134	0x3f5fd75e	0.87438
135	0xbf40d9d8	-0.75332403
136	0xbf69d11e	-0.9133471
137	0xbf7ca861	-0.98694426
138	0xbf16e6f6	-0.5894617
139	0xbf232e69	-0.6374269
140	0xbebe3027	-0.37146112
141	0xbf34e81e	-0.7066668
142	0xbeeeef9d	-0.46667185
143	0xbe9f863f	-0.3115711
144	0xbd82c6b0	-0.06385553
145	0x3e89c138	0.26905227
146	0x3e334196	0.17505488
147	0xbcc6ed1d	-0.024282986
148	0x3eb190c5	0.34680763
149	0x3ef68e1a	0.4815529
150	0xbe9e450e	-0.3091206
151	0xbe181a7c	-0.14853853
152	0xbdb4e93d	-0.08833549
153	0xbeac1571	-0.33610108
154	0x3db4480d	0.08802805
155	0x3e6e88e4	0.23294407
156	0xbe947ffb	-0.2900389
157	0x3dca2854	0.09870973
158	0x3e140323	0.14454322
159	0xbecc621e	-0.39918607
160	0xbe1c3509	-0.15254606
161	0xbe455610	-0.19271111
162	0xbe8600bf	-0.26172444
163	0x3e412746	0.18862638
164	0xbeb62bfc	-0.35580432
165	0x3f09af20	0.53782845
166	0x3e2358a5	0.15951784
167	0x3f2b6848	0.66955996
168	0xbf4de86e	-0.80432785
169	0x3fbda455	1.4815775
170	0xbf4a54c4	-0.7903559
171	0x3e4c0b03	0.19926076
172	0xbe9653af	-0.2936072
173	0x3e969a8c	0.29414785
174	0x3e0d7c56	0.13816962
175	0xbe987349	-0.29775456
176	0x3d18b2cf	0.0372799
177	0xbdb64c94	-0.08901325
178	0x3eab69a3	0.33479032
179	0x3e325839	0.17416467
180	0xc00f731d	-2.241401
181	0x3f45af1f	0.7722034
182	0xc0991dac	-4.784872
183	0xc00f2bf8	-2.2370586
184	0x3ed0b142	0.40760237
185	0xbf279e3d	-0.6547583
186	0xc0023690	-2.0345802
187	0xc0041f5f	-2.0644147
188	0x3fee3c72	1.8612196
189	0xbf6aae24	-0.9167197
190	0x3fa9ec03	1.327515
191	0xbf8ff286	-1.1245887
192	0x3f8422f7	1.032317
193	0x3e4d1453	0.20027284
194	0x3f9ba294	1.215899
195	0x3ef78830	0.4834609
196	0xbe938c29	-0.2881787
197	0x3e823a76	0.25435227
198	0xbfd33081	-1.6499177
199	0x3fa37197	1.276904
200	0xbf94547f	-1.1588286
201	0x3fb812a6	1.4380691
202	0x3ece8cdd	0.40341845
203	0x3fa7875b	1.3088182
204	0xbde2f02a	-0.11080964
205	0xbea0d9ef	-0.3141627
206	0x3f326731	0.6968871
207	0x3fe8b5c7	1.8180474
208	0xbf3cd463	-0.73761576
209	0x3f9142d2	1.1348517
210	0x3ed2612b	0.41089758
211	0xc07d1057	-3.9541223
212	0xbe2b9d71	-0.16759278
213	0x3fa94ea4	1.3227124
214	0x3ef4a937	0.4778535
215	0x3fcb12d8	1.5865126
216	0x3dab71c7	0.08371311
217	0xbeeaa03d	-0.45825377
218	0xbed1fd40	-0.41013527
219	0x3f0ba11e	0.5454272
220	0x3f4a4fd4	0.7902806
221	0x3f64a4ee	0.8931416
222	0xbeb5bf23	-0.35497388
223	0x3ebb8581	0.36625293
224	0xbe67572d	-0.22591849
225	0xbe276158	-0.16345727
226	0x3f34c715	0.70616275
227	0xbe15fcf5	-0.14647277
228	0x3f2c1e7a	0.67234004
229	0x3fa417a2	1.2819712
230	0x3fa7423e	1.306709
231	0xbf167238	-0.58768034
232	0x3efce522	0.49393564
233	0xbef10058	-0.47070575
234	0xc020db79	-2.5133955
235	0xc03f661e	-2.9906077
236	0x3e938c87	0.2881815
237	0xbf460100	-0.77345276
238	0xbfb1e030	-1.3896542
239	0xbe7818c2	-0.24228194
240	0x3f8446d6	1.0334117
241	0x3f895f3a	1.0732186
242	0x40183322	2.378121
243	0x3fd7f42b	1.6871389
244	0x3f512fbd	0.8171347
245	0xbcae7bcf	-0.02129927
246	0xbea58072	-0.32324558
247	0x3d5e3489	0.05424932
248	0xbeb66727	-0.35625574
249	0x3f600a91	0.87516123
250	0x3f5a3024	0.85229707
251	0x3f1d7312	0.6150371
252	0xbf01dcf6	-0.50727785
253	0xbc928f18	-0.017890498
254	0xbf83ff52	-1.0312293
255	0xbdd636a5	-0.10459641

0.res1.conv1.bias f4 [6]
0	0xbdadc0c1	-0.084840305
1	0x3d438f2d	0.047743965
2	0xbd617579	-0.05504367
3	0xbd857f8d	-0.06518469
4	0x3cb70058	0.022339031
5	0x3d239ea5	0.039946217

0.res1.conv2.weight f4 [6, 6, 3, 3]
0	0x3ebc3205	0.36756912
1	0x3f920486	1.140763
2	0x3d0b6f25	0.034041543
3	0xbead2b60	-0.33822155
4	0xbee7c823	-0.4526988
5	0xbf29091a	-0.6602951
6	0x3887efa6	6.4819396e-05
7	0x3ee8125d	0.4532651
8	0x3d6ebb6a	0.0582842
9	0x3f849c8e	1.0360277
10	0x3fb7a61b	1.4347566
11	0x3f8c95c0	1.09832
12	0x3eb163a7	0.3464634
13	0xbefc0a44	-0.49226582
14	0x40129792	2.290501
15	0xbe915e79	-0.2839239
16	0x3f74c7c2	0.95617306
17	0x3e93ad00	0.28842926
18	0x3ea5d0b7	0.323858
19	0x3d3afe9b	0.045652967
20	0xbf57b0a1	-0.8425389
21	0x3eab3a97	0.33443138
22	0x3f58f5ef	0.84750265
23	0x3d77b697	0.060476866
24	0x3e3cb10d	0.18426915
25	0xbd0ed132	-0.034867473
26	0xbe59b90f	-0.21262
27	0xbff0e755	-1.8820597
28	0xbf8e9cfb	-1.1141657
29	0xbd2f0ef4	-0.04273887
30	0x3daad412	0.083412305
31	0x3f09c152	0.5381061
32	0x3fa4c6ec	1.2873206
33	0x3e359e2a	0.17736116
34	0x3f23fc55	0.64056903
35	0x3f3177c7	0.6932339
36	0xbfa72a12	-1.3059714
37	0xbf767878	-0.9627757
38	0x3f02bf13	0.51072806
39	0xbf643956	-0.8914999
40	0xbfacb119	-1.3491546
41	0xbca37516	-0.019953292
42	0x3dffb46d	0.12485585
43	0xbf3ad0cb	-0.7297484
44	0x3f50ceb3	0.815654
45	0x3f9e8e67	1.2387208
46	0x3f2974e2	0.66193974
47	0x3f3c1309	0.73466545
48	0x3f2481f2	0.6426078
49	0xbef68c0e	-0.48153728
50	0xbc3779b9	-0.011198455
51	0x3ee0b811	0.43890432
52	0xbe8e4c38	-0.27792525
53	0x3ef753cd	0.48306122
54	0x3e359a42	0.17734626
55	0xbebec116	-0.37256688
56	0x3f4546c3	0.770611
57	0xbed666d5	-0.4187533
58	0xbf58fbb0	-0.84759045
59	0x3e8216d2	0.25408036
60	0x3e47e950	0.19522595
61	0x3f112267	0.5669312
62	0x3f035a24	0.5130942
63	0xbf141117	-0.5783858
64	0x3dc462f6	0.09589188
65	0x3f97c3da	1.1856644
66	0x3ef101ff	0.47071835
67	0x3eaa982c	0.33319223
68	0xbed95312	-0.4244619
69	0xbe3e548d	-0.18586941
70	0x395cf1f8	0.00021070975
71	0xbe997215	-0.2996985
72	0x3d3f3ad5	0.046686966
73	0xbefa6a3e	-0.4890918
74	0x3df7065f	0.12061762
75	0x3f70ea0c	0.9410713
76	0x3fbf232c	1.4932609
77	0xbf3d7c9c	-0.74018264
78	0x3e367f80	0.17822075
79	0x3f52b1f5	0.8230279
80	0xbf0a11f2	-0.5393363
81	0x3f0bbd1f	0.5458545
82	0xbe08b3d8	-0.13349855
83	0xbfb864d3	-1.4405769
84	0x3f65c71f	0.8975696
85	0x3fc09376	1.5045002
86	0xbf692bd9	-0.9108253
87	0xbeb34ccf	-0.35019538
88	0xbe6a6ef9	-0.22893895
89	0x3eca85d0	0.39555216
90	0x3ebd10e1	0.3692694
91	0xbe820b08	-0.2539904
92	0xbb4e7d3e	-0.0031507756
93	0xbfc68abc	-1.5511088
94	0xbdef443f	-0.11682939
95	0xbe945d56	-0.2897746
96	0xbea6455b	-0.3247479
97	0xbe5fdfff	-0.21862791
98	0x3e917ee0	0.2841711
99	0xbe0a664f	-0.1351559
100	0xbf7d2f3e	-0.9890021
101	0xbedced78	-0.43149924
102	0xbe8dce97	-0.27696678
103	0xc098eb83	-4.778749
104	0xbeb744ec	-0.3579477
105	0xbe0bfeb4	-0.1367138
106	0x3ec574f4	0.3856579
107	0xbeb5c6a4	-0.35503113
108	0x3f24da66	0.6439575
109	0x3fa9dd67	1.3270692
110	0x3f338d7b	0.7013776
111	0x3e8e68c0	0.27814293
112	0x3e9aa988	0.30207467
113	0xbf151e36	-0.58249223
114	0xbf1e0f31	-0.6174193
115	0xbf5d80f2	-0.8652488
116	0x3e72ee14	0.23723632
117	0x3e2f5a66	0.17124328
118	0xbd38fb2f	-0.045161422
119	0xbf10ab64	-0.5651152
120	0x3eab4957	0.3345439
121	0x3f69cf1f	0.91331667
122	0x3e8ff55a	0.28116876
123	0xbed5345c	-0.4164151
124	0x3e1eed40	0.15520191
125	0xbe975cbf	-0.29562947
126	0x3ec982dd	0.39357653
127	0x3f0aecbb	0.5426747
128	0x3f349e8c	0.70554423
129	0x3f16581d	0.587282
130	0xbf96579f	-1.174549
131	0x3d1a885d	0.037727702
132	0xbdcb429b	-0.09924813
133	0xbf9ba6c4	-1.2160268
134	0x3d8c61e8	0.06854612
135	0x3f216980	0.63051605
136	0x4029aeba	2.6512895
137	0x3fc54a7c	1.5413356
138	0x3eb7336b	0.35781416
139	0x3edc2eb2	0.43004376
140	0x3f6a5c37	0.9154696
141	0x3fb58893	1.4182304
142	0xc00de65a	-2.2171845
143	0xc0498327	-3.14863
144	0xbf60417c	-0.8759992
145	0x3ee56ce1	0.4480963
146	0xbf46e474	-0.7769234
147	0x3f40c2d7	0.752973
148	0x3f9498c7	1.1609124
149	0xbddf36e7	-0.10899144
150	0x3edc469d	0.43022624
151	0x3fe3396f	1.7751902
152	0xbd9d26c8	-0.076734126
153	0x3ea7d85e	0.32782263
154	0x3f8cd5a7	1.1002702
155	0x3f93b6bb	1.154014
156	0x3e9ee0d7	0.31030914
157	0x3f11bc74	0.5692818
158	0x3fb86b75	1.4407793
159	0xbe841562	-0.25797564
160	0xbe545c6e	-0.20738384
161	0xbeaddec9	-0.33959034
162	0xbd6f03ca	-0.058353223
163	0xbdf34933	-0.11879196
164	0xbf67deba	-0.9057423
165	0xbd168e13	-0.036756586
166	0x3f032cae	0.5124005
167	0xbeb3f05e	-0.35144323
168	0x3e3f2ce3	0.18669467
169	0x3f39c749	0.7256971
170	0x3d98957c	0.07450387
171	0xbe8c8d18	-0.27451396
172	0xbdd8f914	-0.10594383
173	0xbf18c937	-0.5968203
174	0x3dd6ead1	0.104940064
175	0x3f6ec438	0.93268156
176	0xbeac5f8c	-0.33666646
177	0xbd106c2b	-0.035259407
178	0xbdccdcf3	-0.1000308
179	0xbedad9fe	-0.4274444
180	0xbdaa516b	-0.083163105
181	0x3f1ffe7c	0.6249769
182	0xbd0be422	-0.03415311
183	0x3f4c9928	0.799212
184	0x3ff18542	1.8868792
185	0x3f0c2fc6	0.54760396
186	0xbdd1e497	-0.10248678
187	0x3f4e22f3	0.8052208
188	0xbdad36e2	-0.08457734
189	0xbf04c5b8	-0.51864195
190	0x3f2eba5f	0.6825313
191	0xbf142109	-0.5786291
192	0x3eb05414	0.34439147
193	0x3faf6099	1.3701354
194	0x3e9d9d3d	0.30784026
195	0xbee17161	-0.44031814
196	0xbb36ae06	-0.0027874722
197	0xbf33da94	-0.702554
198	0x3ecdef5f	0.40221688
199	0x3d1aecbb	0.03782342
200	0xbdc45c63	-0.09587934
201	0xbe9b1c0f	-0.30294845
202	0xc0044a14	-2.0670214
203	0x3d06d23f	0.03291535
204	0x3dab90dd	0.0837724
205	0xbf86ff1d	-1.0546604
206	0x3eaa7ce1	0.332984
207	0x3eb3d654	0.35124457
208	0xbe6cafd5	-0.2311395
209	0x3edabd77	0.42722675
210	0xbeda8cec	-0.4268564
211	0xc006408e	-2.09769
212	0xbdabfad6	-0.083974525
213	0x3e94478b	0.28960833
214	0xbea57dd8	-0.32322574
215	0x3ea18927	0.3154995
216	0xbf61f07a	-0.88257563
217	0xbf668b66	-0.90056455
218	0xc01d38b2	-2.4565854
219	0xbf3af32d	-0.73027307
220	0xbdd11bcc	-0.1021038
221	0xbfb6fdaf	-1.4296168
222	0x3ebd48fb	0.36969742
223	0x3d60aa39	0.054849837
224	0xbf3bbeff	-0.7333831
225	0xbf18f9ad	-0.59755975
226	0xbe8db791	-0.27679113
227	0xbf6d1863	-0.92615336
228	0xbf1aed2a	-0.60518134
229	0x3f9a65f9	1.206237
230	0xbf142335	-0.5786622
231	0x3e42dabc	0.19028753
232	0x3db8d16d	0.0902432
233	0xbf68ebd8	-0.9098487
234	0x3f4c63e4	0.7983992
235	0x3e8e0610	0.27739
236	0xbe40d99e	-0.18833014
237	0x3e9e06cb	0.30864558
238	0x3e26f80f	0.16305564
239	0x3d90dfdd	0.070739485
240	0x3f1346ab	0.57529706
241	0x3e97cd61	0.2964888
242	0x3ed52b2f	0.4163451
243	0xbf419201	-0.7561341
244	0x3fdc6fe3	1.7221645
245	0xbdf5e98e	-0.12007438
246	0x3f358b2f	0.709155
247	0x401dda9e	2.4664683
248	0x3f4d2c8c	0.801461
249	0xbf83076c	-1.023664
250	0x3e825625	0.25456348
251	0xbf8e5aa3	-1.112141
252	0x3e0b6b66	0.13615188
253	0xbe28aa66	-0.16471252
254	0x3f004eda	0.5012032
255	0x3ea322d6	0.31862515

0.res1.conv2.bias f4 [6]
0	0x3df0d41d	0.117592074
1	0x3dc17659	0.09446401
2	0x3dd3ef0d	0.1034833
3	0x3dea2be4	0.11434153
4	0xbcc6ea4b	-0.024281641
5	0xbc706302	-0.014672043

0.res1.batch_norm1.weight f4 [6]
0	0x3f200241	0.6250344
1	0x3f55f610	0.83578587
2	0x3f522768	0.8209138
3	0x3f4d7376	0.80254304
4	0x3f95c655	1.1701151
5	0x3f90b5dc	1.1305499

0.res1.batch_norm1.bias f4 [6]
0	0x3f442e5c	0.7663324
1	0x401a8bd1	2.4147837
2	0x3f2f467e	0.6846694
3	0xbfcf7a70	-1.620924
4	0xbf8b8de8	-1.0902681
5	0x3f80a463	1.0050167

0.res1.batch_norm1.running_mean f4 [6]
0	0x3f6fb849	0.9364057
1	0xbfa6e036	-1.3037174
2	0xc10c7504	-8.778568
3	0x40a82746	5.254794
4	0x40bd44bd	5.914641
5	0x409919d9	4.784405

0.res1.batch_norm1.running_var f4 [6]
0	0x417c1685	15.755498
1	0x40e7f6b2	7.248864
2	0x42532c0d	52.79302
3	0x4114820a	9.281748
4	0x42182bcd	38.042774
5	0x4253e860	52.97693

0.res1.batch_norm2.weight f4 [6]
0	0x3f023470	0.50861263
1	0x4009f23e	2.1554103
2	0x3edd8a8a	0.4326976
3	0x3ee2973d	0.4425601
4	0x3db6f725	0.08933858
5	0x3e26eeb3	0.16301994
