autoencoder/checkpoints/small_classifier/frozen_encoder_classifier_5_epoch30.pth (torch, 971803 bytes, 68 tensors)

0.conv1.weight f4 [6, 3, 3, 3]
-0.011620355 -0.1411656 -0.019789185 -0.2520657 -0.10992455 -0.15781157 0.032758523 0.010027371
-0.028459996 0.24533275 0.16009945 0.18984099 0.12319879 0.09667313 0.17766422 0.18401921
0.2861519 0.33116284 -0.28393692 -0.18192856 -0.064587906 -0.28447527 -0.3660848 -0.046175245
-0.123708956 -0.046289165 -0.1554137 -0.009270959 0.041847415 0.060006004 0.092372105 0.07949711
0.17216407 0.055814605 0.16822079 0.26600605 0.00845357 0.15496607 0.040675182 -0.044723287
0.09468056 -0.0595465 0.068407655 -0.05331354 0.022917537 -0.07396537 -0.16209324 -0.24301355
-0.08882243 -0.07727376 -0.04076012 -0.18718784 -0.018914482 -0.28794524 0.053005517 -0.047149304
0.11905213 0.05949286 0.1206737 0.0454356 -0.025945043 0.15124395 -0.0062691416 -0.057983857
0.070255205 -0.1507448 -0.05769259 0.03485118 0.23051393 -0.020728882 0.14558408 0.039883606
-0.068640806 0.10476554 0.122199364 0.048951536 0.27149698 0.036432385 0.0894415 0.06258196
0.23666659 0.05542535 0.28040883 0.18031512 0.21947394 0.1862709 0.20127124 0.20528021
0.0031142682 0.14016065 -0.1087277 -0.082660496 -0.2910537 -0.13461663 0.12763903 -0.10886404
-0.20216537 -0.12180729 -0.32653064 -0.051488288 0.053115927 -0.05431444 0.1478852 0.029304143
0.04673464 -0.054041907 0.037582614 0.03205946 -0.014765613 -0.071812086 -0.09729474 -0.104433715
-0.13501176 -0.05834307 0.007076128 -0.066829264 -0.028466517 -0.03368544 0.021251297 0.06578571
0.08933307 -0.18343842 -0.1971541 -0.08341143 -0.13748595 -0.14831527 0.06423023 -0.13820353
-0.15516803 -0.12472073 -0.1747941 -0.161282 -0.049299005 -0.16869546 -0.21060286 -0.07613721
-0.035157964 -0.057571385 -0.06571635 0.08390378 -0.20163149 -0.13536583 -0.14067255 -0.29075608
0.050514758 0.027077109 0.041250665 0.09370663 -0.009398456 -0.05240648 -0.02042831 -0.116082214
-0.07507946 0.23365925 0.33053213 0.20008549 0.08971813 -0.20990957 0.069874585 0.14232646
0.16419213 0.14354625
00000000: 4d63 3ebc b78d 10be ee1c a2bc c10e 81be
00000010: 1f20 e1bd 5b99 21be cd2d 063d d849 243c
00000020: f024 e9bc 8238 7b3e 1cf1 233e ad65 423e
00000030: a64f fc3d 90fc c53d 9ced 353e 886f 3c3e
00000040: 8082 923e 2d8e a93e 2e60 91be 7b4b 3abe
00000050: aa46 84bd bea6 91be 786f bbbe 4122 3dbd
00000060: 1f5b fdbd b599 3dbd c524 1fbe 38e5 17bc
00000070: 3268 2b3d dbc8 753d 962d bd3d 61cf a23d
00000080: c74b 303e db9d 643d 1242 2c3e f231 883e
00000090: d880 0a3c 6daf 1e3e 059b 263d c42f 37bd
000000a0: e2e7 c13d 08e7 73bd 5019 8c3d 4c5f 5abd
000000b0: 8fbd bb3c 287b 97bd c5fb 25be 8bd8 78be
000000c0: 89e8 b5bd b541 9ebd 15f4 26bd 2bae 3fbe
000000d0: 8bf2 9abc 8f6d 93be 501c 593d a11f 41bd
000000e0: 9ad1 f33d c9ae 733d c623 f73d ae1a 3a3d
000000f0: b38a d4bc b2df 1a3e 5f6d cdbb 7b80 6dbd
00000100: f6e1 8f3d d85c 1abe 114f 6cbd 1cc0 0e3d
00000110: d80b 6c3e 9ecf a9bc fe13 153e fe5c 233d
00000120: 8d93 8cbd 518f d63d a943 fa3d 6881 483d
00000130: a701 8b3e 203a 153d 1b2d b73d f82a 803d
00000140: ba58 723e b105 633d bf91 8f3e 87a4 383e
00000150: c7bd 603e ccbd 3e3e 0c1a 4e3e fa34 523e
00000160: c018 4c3b 4686 0f3e a1ac debd e849 a9bd
00000170: fe04 95be f1d8 09be ceb3 023e 1cf4 debd
00000180: 7004 4fbe 1a76 f9bd 062f a7be 62e5 52bd
00000190: 1690 593d d178 5ebd 386f 173e 3e0f f03c
000001a0: d26c 3f3d 0c5b 5dbd 3af0 193d c850 033d
000001b0: 78eb 71bc 3712 93bd 7742 c7bd 58e1 d5bd
000001c0: 8640 0abe 25f9 6ebd ddde e73b c8dd 88bd
000001d0: 9d32 e9bc bef9 09bd 3317 ae3c a9ba 863d
000001e0: 42f4 b63d 48d7 3bbe c4e2 49be 9dd3 aabd
000001f0: 1ec9 0cbe f5df 17be 248b 833d 3a85 0dbe
00000200: 5ee4 1ebe 956d ffbd 39fd 32be 1c27 25be
00000210: c1ed 49bd 81be 2cbe 47a8 57be d3ed 9bbd
00000220: cc01 10bd f9cf 6bbd 4b96 86bd bfd5 ab3d
00000230: 7c78 4ebe 579d 0abe 770c 10be fbdd 94be
00000240: 90e8 4e3d d0d0 dd3c 75f6 283d 43e9 bf3d
00000250: fbfb 19bc 2da8 56bd 4559 a7bc 83bc edbd
00000260: 43c3 99bd 5f44 6f3e 823b a93e 36e3 4c3e
00000270: 24be b73d 89f2 56be 681a 8f3d 07be 113e
00000280: fb21 283e cafd 123e

0.conv1.bias f4 [6]
-0.04679526 0.569641 0.3843836 0.3404959 -0.62391526 0.2903183
00000000: 63ac 3fbd fed3 113f edcd c43e 7b55 ae3e
00000010: e9b8 1fbf 9aa4 943e

0.conv2.weight f4 [12, 6, 3, 3]
-7.199896e-12 -1.0526982e-06 -1.4208191e-05 -1.5193466e-07 -3.9181268e-07 -3.3922804e-06 -2.8745155e-05 -0.00032943825
-0.000101518875 1.2233706e-20 2.4301213e-37 -1.4838449e-24 5.078553e-16 2.1825047e-21 -2.533127e-33 -4.7677325e-21
-7.410039e-10 -8.113369e-10 -0.02615788 -0.02636239 -0.026488658 -0.025848446 -0.025924815 -0.026058985
-0.025000326 -0.025144404 -0.02521223 8.161101e-22 7.1240676e-09 2.1427363e-06 7.688698e-22 -5.175661e-21
1.2575752e-17 -2.6824625e-13 2.637489e-20 1.780971e-17 -0.0063758823 -0.003250321 -0.0028284502 -0.005243073
-0.004453966 -0.003127681 -0.00943132 -0.01104533 -0.009963862 -0.007814652 -0.01198492 -0.015037915
-0.011364096 -0.014167367 -0.015753342 -0.0103590125 -0.013356442 -0.014588137 -0.07586232 -0.024304038
-0.06196768 -0.16636816 -0.13916408 -0.17570658 -0.20334631 -0.19445072 -0.17455122 0.13180748
0.0056322077 0.092273556 0.018147856 -0.034982625 0.022489063 -0.004992497 -0.011600137 0.067065686
0.0316089 -0.070742674 0.18163426 -0.20540594 -0.09064402 0.19605385 -0.07093575 -0.01152632
0.29567614 0.01973521 -0.056587636 -0.039623067 -0.030384723 -0.09921215 -0.063080035 -0.096501224
-0.0703219 -0.058097728 0.019039838 0.109469324 -0.050815415 0.18383278 0.08946498 -0.1681043
0.08100818 0.05900911 -0.16163321 0.018687507 -0.04595722 0.017125556 -0.0152403135 0.024302887
-0.03584287 0.057266984 -0.05965757 0.03476313 -0.047726925 -0.012993862 -0.022538034 0.0023166481
0.053191457 0.053504646 0.0161551 0.07719958 0.029619966 -0.018464396 0.0532038 0.050919764
0.089123175 0.23963201 0.1851287 0.05679368 0.22495912 0.12303616 0.024029246 0.098595016
0.055398904 0.09722504 0.047281764 -0.045080785 0.06952102 -0.13426034 -0.14567754 0.043234967
0.05925207 0.06941559 0.07491784 0.09969812 0.07245408 -0.006221779 0.050136138 0.092238925
-0.07401046 -0.055312913 -0.024794046 -0.07908273 0.021004535 0.060074948 -0.031655163 0.12469546
0.07356855 -0.10975273 -0.10515019 -0.14176776 -0.08142873 -0.12150928 -0.18820193 -0.124131374
-0.2246184 -0.18079434 0.01672286 -0.026784072 -0.025630457 0.0012234958 -0.017605191 -0.0018805257
-0.06476544 -0.06774057 -0.02366387 0.004670833 -0.015634175 -0.07337601 -0.029277219 -0.05137771
-0.09309981 -0.013965941 -0.033890847 -0.021154303 -0.0015509914 0.052926317 0.025808237 0.046339504
0.1832752 0.11760225 0.019035982 0.18983218 0.12616421 -0.012067506 -0.033841264 0.008858762
-0.05277402 -0.050111976 -0.02545546 0.015247231 -0.014674546 0.0016197548 -0.04599957 -0.07421018
-0.08812657 -0.061392974 -0.17756723 -0.08271966 0.012844439 -0.12708992 -0.052560776 0.0115792565
0.039835338 0.043644946 0.07229225 0.041301977 0.067893684 0.020319005 0.023697559 0.04441278
-0.004070941 -0.009618597 -0.033844158 0.041474402 0.027978383 0.05355698 0.025968367 0.08631905
0.039089486 0.002738028 -0.023619993 -0.1597824 -0.070898704 -0.1882333 -0.1990409 -0.12682995
-0.15190998 -0.23533532 0.021529594 -0.063239284 0.07882002 -0.026365574 -0.05149573 0.108676895
-0.021244362 -0.14419247 0.05161184 0.12143331 0.14985774 0.10030408 0.10903147 0.15315364
0.11472903 0.004998442 0.0071891067 0.034201164 -0.005239139 0.11745322 -0.032273084 0.02096356
00000000: e652 fdac 6f4a 8db5 b75f 6eb7 7b23 23b4
00000010: 535a d2b4 efa6 63b6 c021 f1b7 74b8 acb9
00000020: 88e6 d4b8 9216 671e af62 a502 279d e597
00000030: 1b61 1226 c8e7 241d a771 5289 ae1e b49d
00000040: 84af 4bb0 c204 5fb0 0d49 d6bc f0f5 d7bc
00000050: befe d8bc 1fc0 d3bc 4760 d4bc a779 d5bc
00000060: 7ccd ccbc a3fb cdbc e189 cebc 76a7 761c
00000070: f6c7 f431 eecb 0f36 6b60 681c ec87 c39d
00000080: 4ffb 6723 5c02 97aa 921a f91e fd43 a423
00000090: c7ec d0bb 5603 55bb 855d 39bb 16ce abbb
000000a0: 93f2 91bb c8f9 4cbb d385 1abc 79f7 34bc
000000b0: 773f 23bc 0709 00bc 665c 44bc 9661 76bc
000000c0: 7930 3abc 3e1e 68bc 270d 81bc d9b8 29bc
000000d0: fad4 5abc 1503 6fbc b45d 9bbd 4319 c7bc
000000e0: d2d1 7dbd 6a5c 2abe 0781 0ebe 6dec 33be
000000f0: 043a 50be 171e 47be 8ebd 32be 8af8 063e
00000100: 628e b83b ebf9 bc3d d0aa 943c f149 0fbd
00000110: fc3a b83c 1a98 a3bb 800e 3ebc bc59 893d
00000120: 5578 013d 89e1 90bd 55fe 393e ef55 52be
00000130: 92a3 b9bd 57c2 483e c346 91bd e4d8 3cbc
00000140: dd62 973e bcab a13c 70c8 67bd cc4b 22bd
00000150: 62e9 f8bc bd2f cbbd 1b30 81bd 6fa2 c5bd
00000160: ee04 90bd e2f7 6dbd 6ff9 9b3c 7431 e03d
00000170: d323 50bd a93e 3c3e 6a39 b73d 8923 2cbe
00000180: 9ee7 a53d 89b3 713d 2d83 25be 8b16 993c
00000190: a33d 3cbd e54a 8c3c 82b2 79bc d916 c73c
000001a0: f9cf 12bd c990 6a3d 7f5b 74bd c963 0e3d
000001b0: 4f7d 43bd 35e4 54bc afa1 b8bc e8d2 173b
000001c0: 49df 593d b027 5b3d b357 843c d01a 9e3d
000001d0: 92a5 f23c a542 97bc 3aec 593d 3e91 503d
000001e0: 3686 b63d 1862 753e 6192 3d3e 7da0 683d
000001f0: af5b 663e 62fa fb3d fbd8 c43c 2fec c93d
00000200: f6e9 623d ec1d c73d 86aa 413d a1a6 38bd
00000210: 0961 8e3d 8b7b 09be 7e2c 15be 2617 313d
00000220: 4cb2 723d c329 8e3d 866e 993d 872e cc3d
00000230: ce62 943d 11e0 cbbb 8d5b 4d3d c3e7 bc3d
00000240: cc92 97bd cb8f 62bd e21c cbbc 20f6 a1bd
00000250: b411 ac3c 2611 763d d8a8 01bd 5560 ff3d
00000260: 1cab 963d 0ac6 e0bd fc58 d7bd 912b 11be
00000270: 1bc4 a6bd dbd9 f8bd 02b8 40be 9738 febd
00000280: 5e02 66be 2722 39be 61fe 883c 456a dbbc
00000290: f7f6 d1bc b55d a03a c338 90bc f97b f6ba
000002a0: bea3 84bd 91bb 8abd bbda c1bc c90d 993b
000002b0: 3e13 80bc 2946 96bd c7d6 efbc 6f71 52bd
000002c0: 1dab bebd 67d1 64bc 21d1 0abd ca4b adbc
000002d0: a34a cbba 44c9 583d cc6b d33c 7ece 3d3d
000002e0: 7eac 3b3e 73d9 f03d 59f1 9b3c 5e63 423e
000002f0: 3131 013e cab6 45bc 239d 0abd 5724 113c
00000300: 9229 58bd 3742 4dbd f887 d0bc 86cf 793c
00000310: 826d 70bc f44d d43a 0c6a 3cbd 82fb 97bd
00000320: b47b b4bd 3377 7bbd 2fd4 35be ed68 a9bd
00000330: 7b71 523c dc23 02be f849 57bd ecb6 3d3c
00000340: 612a 233d 0bc5 323d f60d 943d 432c 293d
00000350: d80b 8b3d 0b74 a63c 6221 c23c 2dea 353d
00000360: 8765 85bb 5297 1dbc 2ca0 0abd 10e1 293d
00000370: ec32 e53c 905e 5b3d 9dbb d43c 0bc8 b03d
00000380: 4c1c 203d 7d70 333b b77e c1bc ff9d 23be
00000390: 5733 91bd 3bc0 40be 61d1 4bbe b6df 01be
000003a0: 4a8e 1bbe befb 70be d55e b03c 9983 81bd
000003b0: 646c a13d 9efc d7bc 30ed 52bd fe91 de3d
000003c0: a808 aebc 31a7 13be f066 533d 07b2 f83d
000003d0: 4f74 193e 3a6c cd3d e44b df3d 4fd4 1c3e
000003e0: 0ef7 ea3d f8c9 a33b 9992 eb3b 8516 0c3d
000003f0: 15ad abbb 508b f03d c830 04bd c6bb ab3c

0.conv2.bias f4 [12]
-0.018182214 0.6544561 0.7619723 0.6544231 0.5107567 -0.017322527 0.5711939 -0.111812055
0.011972053 -0.17754395 -0.050397296 -0.123824365
00000000: def2 94bc 6f8a 273f 9e10 433f 4688 273f
00000010: f3c0 023f f9e7 8dbc c339 123f b8fd e4bd
00000020: 6e26 443c 15ce 35be 656d 4ebd a197 fdbd

0.conv3.weight f4 [24, 12, 3, 3]
8.9827e-41 7.416e-41 2.1265e-41 -3.3687e-41 1.92033e-40 -6.6693e-41 -1.76443e-40 4.5514e-41
2.464e-41 -2.3966e-41 -1.9259179e-09 -9.258499e-13 -1.0201622e-29 7.904896e-24 -2.7963716e-11 -1.7657208e-37
5.3992894e-24 -2.7123155e-09 -3.3147087e-37 -6.6025e-41 -1.38402e-40 6.1804e-41 3.718e-42 6.4499e-41
-5.2533e-41 2.005586e-39 -3.9737e-41 4.741583e-25 -5.4159018e-18 -2.6317008e-12 -9.065269e-30 -2.0418072e-13
-2.1809203e-10 -9.494e-42 -4.3709886e-11 -9.222921e-06 8.3505e-41 -2.4056644e-06 -4.7074927e-06 3.7705e-41
-4.679239e-07 -7.973916e-07 -5.9066e-41 -4.45677e-07 -2.7159393e-07 -1.08872e-40 -1.228e-40 2.9268e-41
-1.0857e-41 3.2133e-41 4.461e-41 -1.7413e-41 -2.27e-42 -2.30823e-40 -7.4054e-41 -2.4313208e-15
-9.557721e-09 9.0352e-41 2.79591e-40 9.507465e-24 -8.6956e-41 1.3724314e-36 -1.3030391e-09 -1.4577e-40
1.51346e-40 3.5632e-41 -1.01965e-40 6.1444e-41 -4.4166e-41 7.7963e-41 -1.01804e-40 8.4832e-41
-1.73128e-40 -9.5273e-41 9.0857e-41 7.685e-42 3.104e-42 -7.1372e-41 1.75343e-40 6.4324e-41
-5.7729e-41 1.478808e-28 5.9175e-41 7.9856e-41 6.3674e-41 7.2824e-41 -3.0864e-41 2.4995e-41
3.01618e-40 8.0887e-41 -1.1924e-41 2.9869e-41 -7.3432e-41 7.1273e-41 -6.6094e-41 5.4754e-41
-2.5705e-41 -7.9318e-41 -8.4238e-41 -1.816e-41 1.8693e-41 -5.877e-42 -8.0799e-41 -1.6671e-41
6.8711e-41 6.9268e-41 4.1246e-41 -7.6935e-41 -2.1709983e-28 5.73096e-27 6.201735e-26 -1.9267878e-24
-1.1917697e-23 -4.8707296e-22 -3.3315992e-18 -6.704514e-19 -2.3321152e-18 -1.2118932e-05 -4.6868136e-06 -6.606732e-06
-1.3152619e-05 -3.1093477e-05 -9.501288e-06 -2.6719756e-05 -3.1091862e-05 -1.4110753e-05 -0.0035789653 -0.003929505
-0.0036802776 -0.0032072987 -0.0028244474 -0.0031624748 -0.003277474 -0.0029873883 -0.0032365085 -0.010404115
-0.005195552 -0.0058641606 -0.0111781135 -0.0027547907 -0.0055672782 -0.010184651 -0.007368336 -0.005639063
-2.253775e-06 -1.7798139e-06 -4.1481726e-06 -2.0779232e-06 -2.006556e-06 -3.5562834e-06 -1.9566357e-06 -7.833485e-07
-1.7776451e-06 1.85235e-40 1.71848e-40 7.9658e-41 8.283e-41 8.6763e-41 -2.58237e-40 8.9392e-41
7.367e-41 -1.07533e-40 -1.1551445e-11 -2.2517384e-09 -4.2970474e-10 -7.905888e-16 -3.4537656e-13 -2.3938964e-14
-2.1404583e-18 -6.459543e-16 -1.4976261e-12 8.17e-42 -1.0368e-41 -5.5853e-41 -6.0535e-41 1.934169e-39
1.7498e-41 5.688e-42 3.8586885e-35 5.0287798e-36 4.6947035e-38 1.026e-42 -2.3864e-41 1.701057e-39
-5.6059e-41 1.7415e-41 -5.033356e-38 -3.084e-41 5.174e-41 -1.424015e-27 5.85161e-40 5.2458e-41
-1.3919824e-24 1.9222e-41 -2.8707e-41 -6.0192526e-14 -5.9758e-41 4.5807e-41 -0.00013284489 -0.00012403032
-7.4158575e-05 -0.0001883967 -0.0001638436 -0.00013129956 -0.00018164866 -0.00014777812 -0.00013162602 -6.5686054e-11
-9.129862e-28 -5.2435202e-14 -1.7296075e-15 5.1020097e-25 -5.2440207e-16 -8.518496e-12 -2.363731e-18 -1.0607033e-14
0.10463961 0.06505806 0.20453058 0.018469976 0.009588967 0.046830103 0.10392209 0.09604422
0.31885964 0.040586393 -0.027147984 0.04357452 -0.007748504 0.24090742 0.01817839 -0.018610148
0.06384446 -0.024988657 0.027443046 0.1039141 -0.12065768 0.055888146 0.2736379 0.14397888
0.06029436 -0.028254915 -0.16946384 0.052237447 -0.10049698 -0.0064197313 0.10339382 -0.2420401
-0.34826112 0.21300735 -0.27616763 -0.013539588 0.08409303 0.12530074 0.06388358 0.13410537
00000000: 67fa 0000 bace 0000 473b 0000 e85d 0080
00000010: 4f17 0200 eab9 0080 daeb 0180 e07e 0000
00000020: b044 0000 cf42 0080 1b59 04b1 424d 82ab
00000030: dae9 4e8f 26e7 1819 b1f8 f5ad 6456 7082
00000040: f9df d018 8f63 3ab1 5f96 e182 0db8 0080
00000050: cf81 0180 49ac 0000 5d0a 0000 ccb3 0000
00000060: 7192 0080 c2d6 1500 c56e 0080 b1be 1217
00000070: bfcf c7a2 8230 39ac 91dd 378f 16e3 65aa
00000080: 73cb 6faf 771a 0080 f53c 40ae 25bc 1ab7
00000090: c7e8 0000 0071 21b6 0ef5 9db6 1b69 0000
000000a0: f936 fbb4 550c 56b5 a7a4 0080 6145 efb4
000000b0: 96cf 91b4 7e2f 0180 5156 0180 9651 0000
000000c0: 441e 0080 9359 0000 5b7c 0000 8a30 0080
000000d0: 5406 0080 7183 0280 6fce 0080 f431 2fa7
000000e0: 4d33 24b2 ddfb 0000 630b 0300 b0e6 3719
000000f0: 66f2 0080 d181 e903 9d16 b3b0 5996 0180
00000100: e4a5 0100 5463 0000 3d1c 0180 48ab 0000
00000110: 1e7b 0080 54d9 0000 ca1b 0180 7aec 0000
00000120: 9ce2 0180 9509 0180 46fd 0000 6c15 0000
00000130: a708 0000 f5c6 0080 c9e8 0100 4fb3 0000
00000140: eda0 0080 1076 3b11 f5a4 0000 9bde 0000
00000150: 7fb1 0000 01cb 0000 0956 0080 ad45 0000
00000160: ca48 0300 7be1 0000 3d21 0080 4353 0000
00000170: b3cc 0080 aec6 0000 3eb8 0080 a298 0000
00000180: a847 0080 1bdd 0080 d2ea 0080 9f32 0080
00000190: 1c34 0000 6210 0080 3ce1 0080 792e 0080
000001a0: 8abf 0000 17c1 0000 fa72 0000 77d6 0080
000001b0: 769a 8991 d706 e313 2a8c 9915 f713 1598
000001c0: 9485 6699 7235 139c 21d4 75a2 e0e1 45a1
000001d0: 6914 2ca2 6b52 4bb7 6c43 9db6 65af ddb6
000001e0: 12aa 5cb7 5e6a 02b8 b967 1fb7 3d24 e0b7
000001f0: a268 02b8 39bd 6cb7 138d 6abb 14c3 80bb
00000200: d030 71bb 8b31 52bb 5d1a 39bb 8641 4fbb
00000210: e4ca 56bb 0fc8 43bb 9a1b 54bb 0576 2abc
00000220: 733f aabb 2528 c0bb 6824 37bc b889 34bb
00000230: b76d b6bb 86dd 26bc 1572 f1bb e4c7 b8bb
00000240: 8f3f 17b6 f1e1 eeb5 8830 8bb6 7372 0bb6
00000250: 5fa8 06b6 7ca8 6eb6 bf4e 03b6 4d47 52b5
00000260: 6c97 eeb5 5c04 0200 0bdf 0100 0ede 0000
00000270: e5e6 0000 dcf1 0000 dccf 0280 30f9 0000
00000280: 5dcd 0000 c22b 0180 1537 4bad 00bd 1ab1
00000290: 913b ecaf 28df 63a6 026e c2aa 7e9f d7a8
000002a0: 1df0 1da2 042f 3aa6 abc5 d2ab c616 0000
000002b0: e71c 0080 b29b 0080 bfa8 0080 ad0f 1500
000002c0: c730 0000 db0f 0000 bf29 4d06 90e6 d504
000002d0: 9e9a 7f01 dc02 0000 8642 0080 db85 1200
000002e0: 459c 0080 8c30 0000 5f05 8981 f855 0080
000002f0: 3b90 0000 e9a4 e192 315f 0600 3b92 0000
00000300: 1b66 d797 9535 0000 0650 0080 a18a 87a9
00000310: 95a6 0080 b17f 0000 474c 0bb9 230e 02b9
00000320: 9585 9bb8 5b8c 45b9 6ecd 2bb9 75ad 09b9
00000330: f178 3eb9 e3f4 1ab9 1705 0ab9 f671 90ae
00000340: 1fab 9092 ac25 6ca9 4143 f9a6 49e6 1d17
00000350: 0b26 17a6 e5db 15ad 9e69 2ea2 4e14 3fa8
00000360: 4b4d d63d 293d 853d 7770 513e 594e 973c
00000370: 0b1b 1d3c ecd0 3f3d 1bd5 d43d d5b2 c43d
00000380: 9241 a33e eb3d 263d 7365 debc 327b 323d
00000390: 2ae7 fdbb 6fb0 763e d9ea 943c 4f74 98bc
000003a0: e2c0 823d 03b5 ccbc 3dd0 e03c ead0 d43d
000003b0: 601b f7bd f8ea 643d 441a 8c3e 336f 133e
000003c0: 38f7 763d da76 e7bc ee87 2dbe eff6 553d
000003d0: 5cd1 cdbd 9c5c d2bb 24c0 d33d 5cd9 77be
000003e0: 484f b2be 991e 5a3e d865 8dbe 26d5 5dbc
000003f0: f738 ac3d d64e 003e 65d5 823d eb52 093e

0.conv3.bias f4 [24]
-2.4842978e-17 -0.0026707647 -0.45405695 -1.6874364e-13 0.957243 0.6983599 -0.008689977 -0.013580749
-0.021222372 0.497279 0.49770322 -3.3054328e-06 -0.037950993 0.64154637 1.204146 -1.4831993e-06
0.20443787 -0.23995322 -0.02639574 -0.30601937 0.45631385 0.9510596 -0.003958391 0.7021037
00000000: d322 e5a3 ff07 2fbb 277a e8be 0bfd 3daa
00000010: e10d 753f b7c7 323f 6860 0ebc ca81 5ebc
00000020: 8ada adbc 5a9b fe3e f5d2 fe3e e7d2 5db6
00000030: 8072 1bbd 623c 243f 7521 9a3f 5712 c7b5
00000040: 2958 513e 4cb6 75be e13b d8bc 92ae 9cbe
00000050: f8a1 e93e a478 733f 64b5 81bb 11bd 333f

0.conv4.weight f4 [48, 24, 3, 3]
0.0005846899 -0.010956269 0.001776432 -0.002704514 -0.01211009 -0.0037858072 -0.002022979 -0.011431757
-0.00911612 -4.403e-42 7.087e-41 -1.38301e-40 -1.8318e-41 2.2428e-41 2.9546e-41 -9.6517e-41
-6.4489e-41 7.7441e-41 -0.03257263 -0.029524427 -0.029473314 -0.032805372 -0.031606544 -0.030254224
-0.030575294 -0.029299939 -0.029669946 -0.0076150866 -0.008413405 -0.009490065 -0.0052189985 -0.011810726
-0.009156284 -0.0037333225 -0.008281795 -0.009497942 0.0052349484 -0.0019023557 -0.010718044 0.0009895609
-0.00042335922 -0.0057627917 -0.0059059504 -0.00891389 -0.015616699 -0.018141331 -0.012799252 -0.021179887
-0.023378296 -0.018516108 -0.022313155 -0.020782087 -0.018184848 -0.021561148 -0.0042505353 -0.00080096454
-0.0034506908 -0.0024021252 -0.00092251657 -0.0027236987 -0.0033793042 -0.0014487511 -0.0024679902 -0.0010344626
-0.0014602318 -0.0025262835 -0.00041524513 -0.0010277027 -0.0032625378 -0.0018461116 -0.0037041125 -0.0045764227
-0.00056048133 -0.0011816313 -0.0005041551 0.0033895741 0.0006376237 0.0017676695 0.0017080845 -0.00015455965
-0.00011475574 -0.010330111 -0.011600883 -0.009964191 -0.008019556 -0.009248223 -0.01024573 -0.011213159
-0.011236865 -0.013185276 -0.0013187802 -0.020260187 -0.016308662 -0.014095358 -0.022960793 -0.02122976
-0.005387661 -0.022226235 -0.021427915 -0.010956687 -0.012262067 -0.011867713 -0.010953738 -0.014136563
-0.013727936 -0.01234104 -0.014053008 -0.015566306 -0.00018616613 -0.0018907129 -0.0016851588 -0.0011116707
-0.0038409722 -0.0033766325 -0.0015291645 -0.005691668 -0.005045738 -0.0008313423 -0.011226998 -0.0034171531
0.00090312306 -0.0044912635 -0.0037757165 -0.0024806773 -0.0125638675 -0.007071259 -0.0015815337 -0.000698442
-0.004600711 0.0061380593 0.0030835036 0.0016343197 -0.0029457952 -0.004333061 -0.0062396787 -0.0073195016
-0.007195349 -0.0067157242 -0.007221497 -0.0046679405 -0.0034139315 -0.0076977992 -0.007560132 -0.0056500123
-0.012024182 -0.022654502 -0.027167175 -0.02055265 -0.026568387 -0.02732857 -0.024955956 -0.03012191
-0.031211546 -0.0068593794 -0.010381596 -0.00957621 -0.007916013 -0.011205752 -0.006431714 -0.012540841
-0.014474811 -0.014561199 -0.010287226 -0.010116492 -0.00880425 -0.011317075 -0.012411177 -0.010862014
-0.010672672 -0.011092839 -0.010983662 -0.016079487 -0.0013179008 -0.0059309327 -0.018111229 -0.004336852
-0.007402402 -0.013299659 -0.00017426992 -0.007208564 -0.029731087 -0.03098661 -0.030168077 -0.03178112
-0.032274768 -0.03175681 -0.031190751 -0.03226347 -0.03185849 -0.0022790204 -0.0065577645 -0.0015168231
-0.012204687 -0.0066576223 -0.012573401 -0.0077688927 -0.013834864 -0.008739119 -0.0028773616 -0.0035023084
-0.002153996 -0.0026916447 -0.0047182264 -0.0030686841 -0.003558851 -0.0044366806 -0.0030721766 -0.00981222
-0.011005011 -0.011686217 -0.008456095 -0.009799751 -0.009656572 -0.01593026 -0.011744546 -0.0097214095
4.5174e-41 4.094e-41 -2.9371e-41 3.5293e-41 -4.0137e-41 1.421e-41 -1.0534e-41 5.7668e-41
7.3893e-41 1.4303e-41 -4.9558e-41 -1.33207e-40 3.47016e-40 -1.16013e-40 -2.93519e-40 5.684e-42
-1.25241e-40 1.09813e-40 1.4501906e-16 -1.6672064e-07 -3.659508e-15 -6.808548e-18 -1.6272141e-06 -3.1055027e-09
-7.123326e-26 -5.9517663e-07 -1.1231543e-06 1.49142e-40 8.7538e-41 8.2927e-41 4.387e-42 -5.4127e-41
-5.3374e-41 -8.2284e-41 9.9058e-41 -5.133e-41 3.5684e-41 4.545e-41 -5.52e-41 -9.91235e-40
00000000: e045 193a ec81 33bc 2bd7 e83a 373e 31bb
00000010: 6669 46bc 4e1b 78bb f593 04bb 444c 3bbc
00000020: c75b 15bc 460c 0080 8fc5 0000 8781 0180
00000030: 1033 0080 853e 0000 5d52 0000 0d0d 0180
00000040: c5b3 0080 e0d7 0000 e16a 05bd 36dd f1bc
00000050: 0572 f1bc ed5e 06bd dd75 01bd b5d7 f7bc
00000060: 0a79 fabc 6d06 f0bc 630e f3bc fa87 f9bb
00000070: 61d8 09bc 387c 1bbc 2204 abbb c681 41bc
00000080: 3d04 16bc c2aa 74bb 5eb0 07bc 429d 1bbc
00000090: ee89 ab3b 7758 f9ba bc9a 2fbc 27b4 813a
000000a0: 50f6 ddb9 cdd5 bcbb b486 c1bb 910b 12bc
000000b0: 2fdd 7fbc 219d 94bc f4b3 51bc 7181 adbc
000000c0: d783 bfbc 18af 97bc 14ca b6bc 323f aabc
000000d0: 64f8 94bc 01a1 b0bc 1348 8bbb d2f7 51ba
000000e0: fc24 62bb f96c 1dbb 0ad5 71ba 1580 32bb
000000f0: 5177 5dbb 05e4 bdba 01be 21bb ce96 87ba
00000100: 4065 bfba 0190 25bb 42b5 d9b9 fbb3 86ba
00000110: 4dd0 55bb 3af9 f1ba b2c0 72bb d1f5 95bb
00000120: 44ed 12ba f8e0 9aba 4729 04ba 9e23 5e3b
00000130: 3426 273a 25b1 e73a cee1 df3a 4a11 22b9
00000140: 05a9 f0b8 a03f 29bc a111 3ebc d940 23bc
00000150: 7564 03bc dc85 17bc b5dd 27bc 66b7 37bc
00000160: d41a 38bc 0e07 58bc ecda acba b1f8 a5bc
00000170: be99 85bc 37f0 66bc 4618 bcbc 09ea adbc
00000180: fa8a b0bb cb13 b6bc 9889 afbc ad83 33bc
00000190: d6e6 48bc cc70 42bc 4f77 33bc 0b9d 67bc
000001a0: 23eb 60bc 1332 4abc 963e 66bc d209 7fbc
000001b0: 9735 43b9 ccd1 f7ba 8ce0 dcba 7bb5 91ba
000001c0: d2b8 7bbb 7e4a 5dbb 3f6e c8ba 2c81 babb
000001d0: b856 a5bb 70ee 59ba 71f1 37bc 51f2 5fbb
000001e0: 90bf 6c3a 732b 93bb 0372 77bb dc92 22bb
000001f0: aed8 4dbc 05b6 e7bb 774b cfba a617 37ba
00000200: 90c1 96bb c621 c93b 9b14 4a3b ab36 d63a
00000210: 3e0e 41bb 5afc 8dbb 3876 ccbb 6ed8 efbb
00000220: f6c6 ebbb 940f dcbb 4fa2 ecbb 86f5 98bb
00000230: 44bc 5fbb d23d fcbb fcba f7bb bd23 b9bb
00000240: 1301 45bc ef95 b9bc b28d debc 085e a8bc
00000250: f2a5 d9bc 2ae0 dfbc 6f70 ccbc 39c2 f6bc
00000260: 5baf ffbc a5c4 e0bb 9217 2abc 89e5 1cbc
00000270: 2ab2 01bc 5598 37bc 21c1 d2bb 1978 4dbc
00000280: c227 6dbc 1892 6ebc c18b 28bc a5bf 25bc
00000290: b33f 10bc 416b 39bc 4058 4bbc 97f6 31bc
000002a0: 6edc 2ebc bdbe 35bc d1f4 33bc 21b9 83bc
000002b0: 6abd acba 4558 c2bb 005e 94bc 271c 8ebb
000002c0: d98f f2bb d0e6 59bc 3abc 36b9 d135 ecbb
000002d0: 9c8e f3bc a2d7 fdbc 0b23 f7bc eb2c 02bd
000002e0: 8c32 04bd 6e13 02bd bf83 ffbc b326 04bd
000002f0: 0c7e 02bd 9e5b 15bb 84e2 d6bb 23d0 c6ba
00000300: 2bf6 47bc 2f28 dabb ab00 4ebc 3292 febb
00000310: a0ab 62bc 862e 0fbc 1e92 3cbb fc86 65bb
00000320: 0e2a 0dbb 4e66 30bb 5a9b 9abb fa1b 49bb
00000330: 9d3b 69bb 9361 91bb 9256 49bb 6fc3 20bc
00000340: 5d4e 34bc 8c77 3fbc 6f8b 0abc 238f 20bc
00000350: 9936 1ebc 2d80 82bc 326c 40bc 8c46 1fbc
00000360: ed7d 0000 2072 0000 e051 0080 6262 0000
00000370: e36f 0080 9d27 0000 5d1d 0080 c1a0 0000
00000380: fccd 0000 df27 0000 268a 0080 5473 0180
00000390: 57c7 0300 6643 0180 3632 0380 d80f 0000
000003a0: 1f5d 0180 1d32 0100 1232 2725 d203 33b4
000003b0: 01d9 83a7 eb30 fba2 a766 dab5 9568 55b1
000003c0: 715d b095 3ac4 1fb5 4abf 96b5 bf9f 0100
000003d0: 05f4 0000 2be7 0000 3b0c 0000 e296 0080
000003e0: c994 0080 60e5 0080 2214 0100 168f 0080
000003f0: 7963 0000 b27e 0000 e099 0080 29cb 0a80

0.conv4.bias f4 [48]
-0.021192223 -9.4876804e-14 -0.01527258 -0.0039321687 -3.646213e-05 0.062185407 0.6197547 -8.660418e-06
0.34284577 -0.02172949 0.5037121 0.26664326 -3.2292308e-10 -0.0016789694 -0.0010542738 -0.026517447
-7.44591e-06 0.4369637 -4.5292498e-07 0.3683651 -0.008689146 0.40749 -1.4782105e-05 -0.023119094
-3.5077892e-07 0.6369365 -0.0024379315 -0.0001847712 -0.004791517 -2.6916234e-05 -0.0142697245 0.008910614
0.00014060888 -0.0055183824 0.23002593 -0.031024063 -0.00032498184 -0.00036749663 -0.012664342 -0.018460514
0.14437309 0.28823635 0.0006061216 -0.00078847515 -6.086102e-14 0.011201404 0.3645268 -0.02716525
00000000: 509b adbc c1a4 d5a9 d839 7abc 6cd9 80bb
00000010: eaee 18b8 20b6 7e3d 3ea8 1e3f 364c 11b7
00000020: 7b89 af3e 0b02 b2bc 47f3 003f 7785 883e
00000030: 6287 b1af dd10 dcba 8f2f 8aba 1e3b d9bc
00000040: e1d7 f9b6 b5b9 df3e 8929 f3b4 5a9a bc3e
00000050: eb5c 0ebc 87a2 d03e a800 78b7 4164 bdbc
00000060: b052 bcb4 450e 233f b4c5 1fbb 24bf 41b9
00000070: 2802 9dbb 2cca e1b7 90cb 69bc d3fd 113c
00000080: 6970 1339 8cd3 b4bb eb8b 6b3e 2d26 febc
00000090: 5362 aab9 90ac c0b9 1a7e 4fbc 813a 97bc
000000a0: 8ad6 133e b793 933e 22e4 1e3a acb1 4eba
000000b0: fd0b 89a9 1886 373c 42a3 ba3e a989 debc

0.conv5.weight f4 [96, 48, 3, 3]
-0.073137425 -0.10975867 -0.035764545 -0.04799596 -0.09266599 -0.055896696 -0.0052735396 -0.035985723
-0.032238483 0.041860156 0.028523827 0.016494093 -0.0063331896 -0.033984073 -0.008946393 -0.047384445
-0.030251436 -0.021955362 0.061969746 0.012752658 -0.06723686 0.028307943 0.034199085 -0.084977664
-0.0089954045 0.005255453 0.050852332 -0.00068848825 0.0034337786 -0.0021118377 -0.0010701672 0.006899457
-0.0062405122 0.0038448768 -0.0011387825 0.0042620804 -0.008076195 0.022187773 0.027566005 -0.038093526
0.061380308 0.021510415 -0.0073923157 0.06746346 0.032351457 0.006465847 0.007017067 0.005738538
0.06290555 0.036318656 -0.06963515 -0.0071005556 0.008168346 0.027894953 0.028893806 0.06520071
0.04906893 -0.025134265 -0.28893238 0.14257514 0.099727236 -0.041798957 -0.20085579 0.006350727
0.046502817 0.06940279 -0.07940672 0.07022969 0.092113756 -0.0036277354 -0.023557805 -0.037499987
-0.021221623 0.0040994813 -0.13762552 -0.0121090915 0.15059753 -0.025798468 -0.07785631 -0.16384254
0.031733815 0.04443608 0.10004131 0.038496345 0.020658473 0.01938046 0.021122258 -0.004534731
-0.061012737 -0.070276424 -0.018561073 -0.16735356 0.07916437 -0.02956202 -0.045272183 0.25191024
-0.022746911 -0.294959 -0.030562222 -0.010632005 -0.082014546 0.030854184 -0.021375429 0.17843166
0.011760992 -0.057775803 0.07273838 -0.1949565 0.01347973 -0.0038246007 -0.0070414892 0.10461373
-0.014417427 -0.051072624 0.05322072 -0.023492904 -0.0044247317 -0.026511569 -0.04403871 0.00094786374
0.005873481 -0.038072452 0.07120265 0.027775375 0.01659796 0.0720324 -0.0027787976 0.0071906284
-0.0039455 0.0010262592 -0.0012366056 0.0017031552 -0.0034265663 -0.0005231596 -0.003957011 0.017650515
0.031420514 0.0267731 0.014578065 0.0044276644 0.024165537 0.023070296 0.018719627 0.004637144
0.0446837 -0.17851266 0.040541537 -0.017943725 -0.08622218 -0.008735136 -0.044614878 -0.0023144335
0.014779125 0.038931783 -0.05013137 0.022628278 0.08447622 -0.1645472 0.08561959 -0.091863856
-0.09048657 0.2082438 0.04544194 0.058813486 -0.0022814877 -0.10899849 -0.037629932 -0.08311351
-0.1679534 -0.119278744 -0.10949542 -0.035806373 -0.027892858 -0.10439425 0.10319643 0.13814491
0.35126635 0.10055596 -0.112340614 0.02880396 -0.00031396287 -0.00019296848 6.138164e-05 -5.6760146e-05
-0.00013161455 0.00012380665 -7.956366e-05 6.202711e-05 0.00013440182 -0.06576901 -0.010542061 -0.11390084
0.045570157 0.012304091 0.0447544 0.11958176 -0.03337467 0.026720982 0.008419565 -0.018399902
0.04154404 -0.032989856 -0.01900779 0.028098809 -0.058181696 -0.07627322 -0.015101346 -0.002351772
-0.00074909104 0.00058775314 -0.024230774 0.017292332 -0.020632923 -0.0003211291 -0.003839301 -0.012812091
0.019912418 0.04204784 0.047964636 0.00775317 0.037174504 -0.04547392 -0.33266446 -0.15186861
-0.09827255 0.05792072 0.12265295 0.0718566 0.18985239 -0.2923142 -0.117067516 -0.05729124
-0.15446883 0.07527142 -0.062240038 0.08277505 -0.09509533 -0.015472922 0.15183382 -0.0051990254
0.0127970055 -0.14305139 0.22223666 0.062421188 0.08315504 -0.13601908 -0.016817525 -0.06693392
0.040086307 -0.099804744 0.032138884 -0.03043334 0.047169197 0.019085297 -0.014692951 0.0133603355
00000000: 13c9 95bd 27c9 e0bd d87d 12bd 6997 44bd
00000010: abc7 bdbd eff3 64bd a8cd acbb c465 13bd
00000020: 800c 04bd 8e75 2b3d cdaa e93c 9f1e 873c
00000030: a586 cfbb e232 0bbd e493 12bc 3116 42bd
00000040: dcd1 f7bc bbdb b3bc fdd3 7d3d 86f0 503c
00000050: 7bb3 89bd 0fe6 e73c 5714 0c3d c508 aebd
00000060: 7661 13bc ef35 ac3b 894a 503d aa7b 34ba
00000070: 3f09 613b c266 0abb da44 8cba d714 e23b
00000080: 367d ccbb 54fa 7b3b 3343 95ba eca8 8b3b
00000090: 0452 04bc 22c3 b53c 1ad2 e13c f507 1cbd
000000a0: eb69 7b3d 9c36 b03c 3d3b f2bb 482a 8a3d
000000b0: f682 043d 75df d33b 6def e53b 590a bc3b
000000c0: a0d4 803d dfc2 143d e09c 8ebd c7ab e8bb
000000d0: 87d4 053c f583 e43c b4b2 ec3c f387 853d
000000e0: 81fc 483d 60e6 cdbc f2ee 93be 38ff 113e
000000f0: cb3d cc3d 6235 2bbd 24ad 4dbe c219 d03b
00000100: bd79 3e3d 0d23 8e3d fe9f a2bd 95d4 8f3d
00000110: 23a6 bc3d 4dbf 6dbb 4cfc c0bc 9699 19bd
00000120: f8d8 adbc f154 863b b4ed 0cbe 3665 46bc
00000130: 3d36 1a3e 4f57 d3bc 2173 9fbd 57c6 27be
00000140: 51fb 013d 9b02 363d 75e2 cc3d 58ae 1d3d
00000150: f53b a93c c5c3 9e3c 9608 ad3c 1598 94bb
00000160: 7ee8 79bd 16ed 8fbd 640d 98bc bb5e 2bbe
00000170: ee20 a23d 0d2c f2bc 536f 39bd 61fa 803e
00000180: bb57 babc de04 97be a05d fabc dc31 2ebc
00000190: 3ef7 a7bd eac1 fc3c 861b afbc cab6 363e
000001a0: 2db1 403c 52a6 6cbd dcf7 943d ada2 47be
000001b0: 16da 5c3c 27a6 7abb 4bbc e6bb b93f d63d
000001c0: 1237 6cbc 8731 51bd f8fd 593d 3174 c0bc
000001d0: 57fd 90bb ca2e d9bc ef61 34bd 0f7a 783a
000001e0: 5476 c03b dcf1 1bbd b2d2 913d 2f89 e33c
000001f0: 72f8 873c b985 933d 7d1c 36bb 5d9f eb3b
00000200: 4149 81bb 8b83 863a 9915 a2ba 683c df3a
00000210: 3e90 60bb a524 09ba d0a9 81bb d097 903c
00000220: ccb2 003d 4353 db3c d6d8 6e3c f115 913b
00000230: cef6 c53c ebfd bc3c e759 993c 2ff3 973b
00000240: 4106 373d 06cc 36be e20e 263d b8fe 92bc
00000250: 4195 b0bd d11d 0fbc 17be 36bd c0ad 17bb
00000260: 2524 723c ef76 1f3d 8d56 4dbd f05e b93c
00000270: de01 ad3d 107f 28be 5359 af3d 1e23 bcbd
00000280: 0651 b9bd dd3d 553e 5421 3a3d 69e6 703d
00000290: 0385 15bb 9a3a dfbd d821 1abd 6a37 aabd
000002a0: fafb 2bbe 6a48 f4bd 223f e0bd b4a9 12bd
000002b0: 907f e4bc a7cc d5bd a658 d33d dc75 0d3e
000002c0: 2fd9 b33e 48f0 cd3d d612 e6bd 48f6 eb3c
000002d0: 629b a4b9 9557 4ab9 04ba 8038 be11 6eb8
000002e0: 0302 0ab9 18d2 0139 6adb a6b8 8d14 8238
000002f0: 37ee 0c39 e7b1 86bd 9cb8 2cbc d844 e9bd
00000300: c6a7 3a3d 1997 493c 6450 373d 48e7 f43d
00000310: e1b3 08bd f6e5 da3c 37f2 093c 64bb 96bc
00000320: 152a 2a3d 5f20 07bd 3ab6 9bbc 792f e63c
00000330: ee4f 6ebd 2235 9cbd a36b 77bc 3020 1abb
00000340: a65e 44ba 7213 1a3a 9e7f c6bc a6a8 8d3c
00000350: 6006 a9bc 385d a8b9 c89c 7bbb cee9 51bc
00000360: 5e1f a33c 5b3a 2c3d 9176 443d 4e0e fe3b
00000370: 4b44 183d dc42 3abd ff52 aabe 7283 1bbe
00000380: 1e43 c9bd 473e 6d3d 7831 fb3d 8e29 933d
00000390: aa68 423e 35aa 95be 18c1 efbd 38aa 6abd
000003a0: 142d 1ebe e727 9a3d 69ef 7ebd f785 a93d
000003b0: 57c1 c2bd 2382 7dbc 537a 1b3e 965c aabb
000003c0: 88aa 513c 107c 12be 0292 633e 5cad 7f3d
000003d0: 314d aa3d 9648 0bbe e8c4 89bc a714 89bd
000003e0: 8a31 243d 6e66 ccbd 10a4 033d 574f f9bc
000003f0: 7d34 413d c558 9c3c b4ba 70bc 4fe5 5a3c

0.conv5.bias f4 [96]
-0.007235387 0.4366373 0.04582248 -0.1651219 -0.06513011 -0.15511832 0.10121639 0.11413323
0.05595516 -0.06640794 0.008387843 0.1091431 -0.14336145 -0.006324117 -0.112381555 0.2090791
-0.017007453 1.2128574 0.23829415 0.049368013 0.18789457 0.09884554 0.11232669 0.32989067
-0.068134874 -0.03996489 0.053448815 0.14424099 0.20603274 0.24098782 0.2701314 0.07389691
0.18595487 -0.06921551 -0.21788341 -0.020615427 0.013396209 -0.073230095 -0.16615412 0.054838397
0.24225856 0.15977839 -0.10614459 0.053185303 0.21994874 0.09412752 0.047079176 -0.22336726
0.13701706 -0.1505347 0.08704484 -0.23149848 -0.24870507 -0.09554498 0.039683234 -0.23159699
0.033415534 -0.06930634 -0.6083061 0.007884681 0.042933255 0.06290267 0.018210629 0.056752376
-0.2664131 -0.42897284 0.117280014 0.06465221 -0.020736385 0.20481093 -0.11117288 0.18879092
0.13770479 -0.058367778 -0.15442038 0.21209851 0.14456512 0.00019776891 -0.049558204 0.4673901
-0.08689866 0.30818966 0.14700739 -0.1263406 -0.018903388 0.06310702 -0.014204582 -0.2989745
-0.10746875 0.18233761 0.03957072 0.40030912 0.19528493 -0.02811772 0.10747802 -0.05319377
00000000: d316 edbb ed8e df3e 5ab0 3b3d b715 29be
00000010: ef62 85bd 56d7 1ebe 8a4a cf3d afbe e93d
00000020: 3d31 653d e300 88bd 2a6d 093c 6b86 df3d
00000030: 58cd 12be 8a3a cfbb 4d28 e6bd d518 563e
00000040: 3753 8bbc e93e 9b3f 6203 743e 1d36 4a3d
00000050: 6f67 403e 886f ca3d 890b e63d 6ee7 a83e
00000060: 4c8a 8bbd 39b2 23bd 25ed 5a3d e9b3 133e
00000070: 3ffa 523e 83c5 763e aa4e 8a3e 4357 973d
00000080: f46a 3e3e dcc0 8dbd d41c 5fbe afe1 a8bc
00000090: c67b 5b3c a9f9 95bd 4e24 2abe 3a9e 603d
000000a0: a112 783e f29c 233e 5662 d9bd d5d8 593d
000000b0: 3e3a 613e eec5 c03d 18d6 403d 63ba 64be
000000c0: 334e 0c3e c525 1abe 9144 b23d f00d 6dbe
000000d0: 8bac 7ebe 16ad c3bd e38a 223d c327 6dbe
000000e0: bade 083d 7bf0 8dbd f3b9 1bbf c02e 013c
000000f0: c8da 2f3d 1dd3 803d 752e 953c 2e75 683d
00000100: 4c67 88be 54a2 dbbe 8130 f03d 6168 843d
00000110: 5adf a9bc f5b9 513e 9bae e3bd 6852 413e
00000120: 7c02 0d3e 0d13 6fbd 6020 1ebe 5a30 593e
00000130: e108 143e 3060 4f39 8bfd 4abd c14d ef3e
00000140: edf7 b1bd 09cb 9d3e 1b89 163e 6e5f 01be
00000150: 47db 9abc 413e 813d 56ba 68bc 3013 99be
00000160: 9318 dcbd b6b6 3a3e e814 223d 51f5 cc3e
00000170: c6f8 473e 2257 e6bc 701d dc3d b6e1 59bd

0.res1.conv1.weight f4 [6, 6, 3, 3]
0.0081615895 -0.037129182 -0.05685659 -0.044800892 -0.27584854 -0.22615156 -0.20709279 -0.17634188
-0.014508988 -0.1705777 0.101342976 -0.13055375 0.09207986 0.32761273 -0.0627424 0.06624969
0.081250735 0.12860286 -0.04419032 -0.030937284 0.024364458 -0.1216415 -0.059619993 -0.02384714
-0.28281513 -0.1606566 0.009467981 0.0075127017 -0.0501123 0.09237848 -0.10821636 -0.22328146
0.0052018384 -0.22838317 -0.33051947 -0.02971049 -0.13532925 0.045386016 -0.10542227 0.35448533
0.7658955 0.12724516 -0.023290297 0.6079139 -0.29668784 -0.21157277 -0.1456801 -0.079469435
-0.14205688 -0.20051168 -0.10909858 -0.22291501 -0.20324506 -0.21542305 -0.25696388 -0.23302057
-0.0016300181 0.07220623 1.0910461 1.3155221 -0.10033506 0.03782752 -0.16531028 0.11998316
0.01593528 -0.3025828 -0.11358508 -0.24700563 -0.31254113 -0.11149278 -0.13974838 -0.09156036
-0.5220958 -0.36451447 -0.022590727 -0.25607926 -0.13110203 0.05872765 0.004411432 0.060303647
0.26205117 -0.112230845 -0.18432271 -0.10938842 -0.22607274 -0.27145198 -0.013893964 -0.14281394
-0.13270152 0.238845 -0.16956088 0.5687485 -0.060464613 0.19169222 1.2022544 0.26176032
-0.21733136 -0.026912263 -0.48576897 0.055095255 0.21752854 0.12504968 0.250267 0.36249068
0.11080437 0.12278442 0.14240626 -0.032224935 0.29198724 0.06863662 0.111796506 0.0731538
-0.42286685 -0.3545729 0.23014197 -0.035375856 0.034299184 -0.1363653 -0.12070316 -0.11278247
-0.13251251 -0.06520655 -0.07130182 -0.039383255 -0.067316875 0.014516267 0.12211378 0.16155846
0.037067417 0.2367049 0.3534383 0.05711226 0.0060918774 0.025397073 -0.06510733 -0.29388946
-0.2544096 -0.35199374 -0.40822855 -0.42963773 -0.48225728 -0.36444625 -0.3508768 -0.34755513
-0.24389178 -0.34136468 -0.018416144 -0.2673367 -0.23060091 -0.14147164 -0.09394824 -0.25909954
-0.10535805 -0.08558719 -0.010131825 0.015891084 -0.05270929 0.0027190463 0.004185797 -0.08392076
-0.0600353 -0.02758834 0.4408551 0.11857904 0.20488074 0.26654923 0.15742132 0.30580255
0.2580125 0.19425286 0.29744422 0.08445982 0.0420667 0.043863826 0.03058026 -0.008087546
-0.02878104 0.0154229645 -0.0107383225 -0.04088898 0.032898 0.18898316 0.07038381 0.23411055
0.34430075 0.2101426 0.17800373 0.34928924 0.2957108 0.10798603 0.096922934 0.08032608
0.28561473 0.19292781 0.007780651 0.27461973 0.2946733 0.23261805 -0.231852 -0.30395713
-0.09098746 -0.11074589 -0.09402516 -2.6925703e-05 -0.33669305 -0.3004797 -0.15932713 0.0013440833
0.069523446 0.025565086 0.044867758 0.1343806 0.15307947 -0.011323913 0.032301955 0.09278026
-0.21646923 -0.18108225 -0.1501712 -0.0599516 -0.05433272 -0.105334416 -0.072369926 0.029749569
0.11473986 -0.008495916 0.10024699 -0.023280637 0.011983152 0.2788908 0.044732925 -0.015045639
0.01917446 0.040299237 0.07146899 0.24539375 -0.4121034 -0.011065609 0.111363254 -0.48886576
0.13836682 0.3984745 0.096801996 0.10929113 0.20831977 0.06302478 -0.06487675 0.0022338459
-0.46562323 0.02401319 0.19392192 0.025846101 -0.14209959 -0.0737237 -0.009264747 0.24152465
00000000: 30b8 053c c514 18bd 75e2 68bd 2481 37bd
00000010: 053c 8dbe 4694 67be 2210 54be f792 34be
00000020: 1bb7 6dbc ecab 2ebe e88c cf3d e2af 05be
00000030: 5e94 bc3d dbbc a73e 167f 80bd ebad 873d
00000040: c966 a63d 78b0 033e e900 35bd 3070 fdbc
00000050: f997 c73c 2e1f f9bd 1834 74bd 145b c3bc
00000060: 25cd 90be 2a83 24be 971f 1b3c 1c2d f63b
00000070: 8e42 4dbd ee30 bd3d 8aa0 ddbd e5a3 64be
00000080: 2f74 aa3b 47dd 69be d939 a9be 6a63 f3bc
00000090: c093 0abe b0e6 393d a2e7 d7bd 1a7f b53e
000000a0: ba11 443f 8e4c 023e 4bcb bebc 3fa0 1b3f
000000b0: 78e7 97be 88a6 58be 2a2d 15be dfc0 a2bd
000000c0: 5c77 11be ef52 4dbe 146f dfbd d543 64be
000000d0: 791f 50be dc97 5cbe c590 83be f29c 6ebe
000000e0: 55a6 d5ba dce0 933d 66a7 8b3f 0763 a83f
000000f0: 787c cdbd 08f1 1a3d 1947 29be bbb9 f53d
00000100: b48a 823c 22ec 9abe 4b9f e8bd 0bef 7cbe
00000110: 6405 a0be 5456 e4bd 331a 0fbe ff83 bbbd
00000120: 12a8 05bf a4a1 babe 3010 b9bc d21c 83be
00000130: 9c3f 06be 688c 703d c68d 903b f500 773d
00000140: 922b 863e 49d9 e5bd 18bf 3cbe 0907 e0bd
00000150: 9d7f 67be c1fb 8abe 82a3 63bc d13d 12be
00000160: e8e2 07be c993 743e 5ea1 2dbe 8099 113f
00000170: bea9 77bd f74a 443e 79e3 993f 7305 863e
00000180: 1d8c 5ebe 1b77 dcbc b6b6 f8be 90ab 613d
00000190: cdbf 5e3e 060d 003e ff22 803e 6198 b93e
000001a0: 67ed e23d 6676 fb3d f2d2 113e 4bfe 03bd
000001b0: 5a7f 953e 5b91 8c3d 91f5 e43d a9d1 953d
000001c0: 0182 d8be 948a b5be 56aa 6b3e 46e6 10bd
000001d0: 4d7d 0c3d 58a3 0bbe 3833 f7bd 7ffa e6bd
000001e0: 5cb1 07be 038b 85bd b006 92bd 5650 21bd
000001f0: 6edd 89bd a3d5 6d3c ca16 fa3d 956f 253e
00000200: 01d4 173d c562 723e ddf5 b43e 8cee 693d
00000210: 5f9e c73b 860d d03c fe56 85bd ae78 96be
00000220: fa41 82be 8638 b4be 5503 d1be 7af9 dbbe
00000230: 6dea f6be b398 babe 20a6 b3be bff2 b1be
00000240: c4be 79be 5ac7 aebe 74dd 96bc 5be0 88be
00000250: a522 6cbe f1dd 10be ef67 c0bd b2a8 84be
00000260: f6c5 d7bd 5648 afbd f4ff 25bc 052e 823c
00000270: b2e5 57bd 0732 323b 0329 893b a6de abbd
00000280: 93e7 75bd f100 e2bc c2b7 e13e 91d9 f23d
00000290: 42cc 513e 2479 883e 0e33 213e 2792 9c3e
000002a0: 371a 843e 39ea 463e 9c4a 983e 45f9 ac3d
000002b0: 224e 2c3d 8eaa 333d 7483 fa3c a081 04bc
000002c0: 37c6 ebbc 9ab0 7c3c caef 2fbc 347b 27bd
000002d0: 0ec0 063d cd84 413e 6325 903d adba 6f3e
000002e0: 3048 b03e 9f2f 573e 9c46 363e 0ad6 b23e
000002f0: 6867 973e c827 dd3d 887f c63d 0082 a43d
00000300: 183c 923e de8e 453e d5f4 fe3b f59a 8c3e
00000310: 6bdf 963e 6d33 6e3e 9c6a 6dbe 45a0 9bbe
00000320: a257 babd bece e2bd 4390 c0bd 82de e1b7
00000330: 0863 acbe 7ad8 99be a726 23be f42b b03a
00000340: 4f62 8e3d df6d d13c 41c7 373d 119b 093e
00000350: ddc0 1c3e ef87 39bc 0e4f 043d 9403 be3d
00000360: 1caa 5dbe a06d 39be 7bc6 19be cf8f 75bd
00000370: fc8b 5ebd 92b9 d7bd af36 94bd 5eb5 f33c
00000380: bbfc ea3d 7432 0bbc 4b4e cd3d 09b7 bebc
00000390: fb54 443c c6ca 8e3e df39 373d fc81 76bc
000003a0: c213 9d3c d010 253d 555e 923d 8048 7b3e
000003b0: 38ff d2be 874c 35bc 6b12 e43d 9d4c fabe
000003c0: 08b0 0d3e da04 cc3e 2040 c63d 07d4 df3d
000003d0: c751 553e 2313 813d 1ade 84bd b765 123b
000003e0: 2b66 eebe 4fb7 c43c 7893 463e 34bb d33c
000003f0: 8e82 11be 74fc 96bd 2acb 17bc 3d52 773e

0.res1.conv1.bias f4 [6]
1.8998786e-07 -5.6857505e-05 -1.3666128e-05 -1.8494236e-05 2.8650114e-05 -8.413951e-06
00000000: 77ff 4b34 487a 6eb8 9347 65b7 1224 9bb7
00000010: a755 f037 a529 0db7

0.res1.conv2.weight f4 [6, 6, 3, 3]
-0.092150286 -0.16167112 0.076468535 -0.13982882 -0.30168182 -0.16292128 -0.020738572 -0.112868324
0.11308323 0.0006452576 0.025592688 0.055060312 -0.59669065 -0.29747343 -0.022916613 -0.0052659097
0.09120486 0.11006399 0.361231 0.28257188 0.10397022 0.35973206 0.37564224 0.13029324
0.26384997 0.06577679 -0.019255549 -0.16834486 -0.046543658 -0.09111376 -0.06715193 -0.0012876397
-0.06483685 -0.034463678 -0.010738169 -0.09483212 -0.25676417 -0.17934501 -0.09035527 -0.23907362
-0.21406297 -0.13098256 -0.2153635 -0.12737389 0.12308309 -0.4329714 -0.055376057 -0.35700667
-0.042329375 0.87234193 0.033738516 -0.53912157 -0.08753346 -0.3482318 0.26645446 0.16698676
0.2982726 0.010074665 -0.2645768 -0.14614525 0.008793306 -0.19300792 0.006980088 0.24690756
0.16521452 0.21547438 0.10410114 -0.08140123 -0.12065371 0.02943295 -0.25141478 -0.27640983
0.026663357 0.070401356 -0.005208155 0.0091838855 -0.008399071 0.00076530984 0.010139993 -0.0062142434
-0.02753407 0.0101029705 0.004231475 -0.01885825 0.0061392705 0.026545333 -0.069556184 0.13991436
0.16867894 0.078009576 0.17902777 -0.04199463 0.17693548 -0.15692043 -0.4919562 -0.13923635
-0.16273168 -0.4881168 -0.24109598 -0.3147159 -0.06383381 -0.12562537 -0.06003247 0.37082896
0.45147893 -0.060953297 0.23943649 0.1614294 0.22118372 -0.28270233 -0.07528489 0.17013726
-0.9179935 -0.068437286 0.2802181 0.042241495 0.15408252 0.255124 0.1585496 0.076864205
0.032202758 -0.5463121 -0.026143463 0.10253778 -0.3265434 0.12006142 -0.06456857 0.03469053
-0.05311528 -0.0007309651 0.12242223 0.046405114 -0.19451176 0.042704247 -0.10479176 0.042230457
0.17639391 0.11807133 0.07284831 0.21136478 0.07420695 0.0050270893 0.043568697 -0.038885966
0.22349449 0.18660969 0.26429012 -0.32200375 -0.13606295 0.26277637 0.1951616 0.012039091
0.22581044 -0.05031334 0.1506847 -0.09397883 -0.03740411 0.3969798 -0.113064654 -0.17344049
0.049909476 -0.12801048 0.1448721 0.3364255 0.33654267 0.16624671 0.4300676 0.2689373
-0.33115658 0.23052719 -0.22340955 -0.090898894 -0.1302002 -0.13138722 -0.13437474 -0.50773436
-0.043988153 -0.19542159 -0.19178037 -0.08526417 -0.1829084 -0.22086605 -0.10393007 -0.28140068
-0.29632664 -0.16032358 -0.06866193 -0.14163944 -0.022959303 -0.625131 -0.6112383 -0.28496072
-0.4753838 -0.4058773 -0.22098531 0.07361158 0.023473516 0.108533785 -0.19095574 -0.24034287
-0.15540037 0.27831444 0.13870771 0.1065017 -0.18380965 -0.2534356 -0.3829763 -0.11055799
-0.084817454 -0.10460255 -0.026047753 0.10661531 -0.0045032375 0.052277107 0.18920407 0.05341444
-0.2339094 -0.65929705 -0.21717471 -0.23563567 -0.50443304 -0.33137462 0.042853907 -0.11143682
-0.06726584 0.09129496 0.056697883 0.2249712 -0.34472403 -0.6755428 -0.0983795 -0.13954893
-0.33653623 0.0238335 0.059438832 -0.029533181 0.015331178 -0.04157196 -0.1735742 -0.050570298
-0.020050224 -0.07314983 -0.041643474 -0.044156168 -0.040596124 0.18837048 -0.22657286 -0.21847463
-0.14954051 -0.037745852 -0.020456184 -0.00052552234 0.012046535 -0.19854169 0.17889614 0.025061853
00000000: 4ab9 bcbd 1d8d 25be 899b 9c3d 492f 0fbe
00000010: 0a76 9abe d6d4 26be f0e3 a9bc 8227 e7bd
00000020: 2e98 e73d 8126 293a c2a7 d13c ec86 613d
00000030: b8c0 18bf 704e 98be 9fbb bbbc a78d acbb
00000040: 9dc9 ba3d 3b69 e13d 45f3 b83e 43ad 903e
00000050: 57ee d43d cd2e b83e 2e54 c03e 976b 053e
00000060: 5817 873e fbb5 863d d0bd 9dbc 9862 2cbe
00000070: 90a4 3ebd da99 babd f386 89bd 05c6 a8ba
00000080: 2fc9 84bd c929 0dbd 25ef 2fbc 5837 c2bd
00000090: 9876 83be 38a6 37be 2f0c b9bd b7cf 74be
000000a0: 5333 5bbe 4b20 06be 4088 5cbe 4d6e 02be
000000b0: fd12 fc3d 6dae ddbe 01d2 62bd 94c9 b6be
000000c0: 9161 2dbd cd51 5f3f 6631 0a3d df03 0abf
000000d0: be44 b3bd 704b b2be b86c 883e 94fe 2a3e
000000e0: 30b7 983e 3510 253c 9c76 87be 1aa7 15be
000000f0: cc11 103c dea3 45be 39b9 e43b 56d5 7c3e
00000100: ff2d 293e 51a5 5c3e fa32 d53d b0b5 a6bd
00000110: 4b19 f7bd 5f1d f13c 70b9 80be 9785 8dbe
00000120: 1d6d da3c 962e 903d 2ca9 aabb 0278 163c
00000130: 429c 09bc 139f 483a 3722 263c daa0 cbbb
00000140: 218f e1bc ee86 253c 2fa8 8a3b 9e7c 9abc
00000150: ef2b c93b 9975 d93c 7973 8ebd b645 0f3e
00000160: 2cba 2c3e 7cc3 9f3d 0e53 373e 9002 2cbd
00000170: 932e 353e c0af 20be afe1 fbbe f993 0ebe
00000180: 22a3 26be 72ea f9be dde1 76be 7122 a1be
00000190: 4dbb 82bd f0a3 00be 9be4 75bd 4bdd bd3e
000001a0: 3f28 e73e 2aaa 79bd d72e 753e c04d 253e
000001b0: fc7d 623e 5cbe 90be f72e 9abd 7638 2e3e
000001c0: 9f01 6bbf d928 8cbd bf78 8f3e 6b05 2d3d
000001d0: cfc7 1d3e 9d9f 823e d45a 223e fb6a 9d3d
000001e0: 0ae7 033d 1cdb 0bbf d12a d6bc 54ff d13d
000001f0: b230 a7be c3e2 f53d 873c 84bd a817 0e3d
00000200: 688f 59bd 3d9e 3fba 82b8 fa3d 4a13 3e3d
00000210: 172e 47be a6ea 2e3d 109d d6bd d8f9 2c3d
00000220: 9ba0 343e 62cf f13d 7f31 953d 0270 583e
00000230: d0f9 973d 48ba a43b 1775 323d e446 1fbd
00000240: bddb 643e 9c16 3f3e 0951 873e addd a4be
00000250: 1654 0bbe a08a 863e 71d8 473e 9c3f 453c
00000260: da3a 673e 5c15 4ebd 174d 1a3e f977 c0bd
00000270: 0d35 19bd f040 cb3e 718e e7bd 629a 31be
00000280: e16d 4c3d 2e15 03be 5a59 143e f73f ac3e
00000290: 524f ac3e 943c 2a3e d231 dc3e 26b2 893e
000002a0: 5b8d a9be 520f 6c3e 79c5 64be 3329 babd
000002b0: 3453 05be 5f8a 06be 8899 09be e1fa 01bf
000002c0: ec2c 34bd 991c 48be 1362 44be fb9e aebd
000002d0: 574c 3bbe b62a 62be 4ad9 d4bd c013 90be
000002e0: 20b8 97be dd2b 24be a09e 8cbd ee09 11be
000002f0: 2615 bcbc 9608 20bf 1d7a 1cbf 5fe6 91be
00000300: 8165 f3be 26cf cfbe f949 62be abc1 963d
00000310: 884b c03c f646 de3d e789 43be 711c 76be
00000320: 4621 1fbe 3b7f 8e3e 6509 0e3e 901d da3d
00000330: 9938 3cbe 50c2 81be 7815 c4be 3a6c e2bd
00000340: c6b4 adbd dd39 d6bd 1962 d5bc 2159 da3d
00000350: e58f 93bb 8520 563d b6be 413e 1ac9 5a3d
00000360: f285 6fbe b1c7 28bf 0c63 5ebe 7a4a 71be
00000370: 8622 01bf efa9 a9be 9487 2f3d fd38 e4bd
00000380: acc2 89bd daf8 ba3d 0a3c 683d da5e 663e
00000390: ab7f b0be 5ff0 2cbf 317b c9bd eae5 0ebe
000003a0: 7a4e acbe 793e c33c 2276 733d 92ef f1bc
000003b0: 9f2f 7b3c 5c47 2abd 6fbd 31be cd22 4fbd
000003c0: 5e40 a4bc 94cf 95bd 5992 2abd 19dd 34bd
000003d0: 1f48 26bd 31e4 403e b702 68be d0b7 5fbe
000003e0: 2621 19be 659b 1abd ba93 a7bc 35c3 09ba
000003f0: d45e 453c 834e 4bbe 8d30 373e 844e cd3c

0.res1.conv2.bias f4 [6]
-5.955653e-05 -9.495183e-05 -0.00040937425 5.4447864e-06 5.4187152e-05 2.086389e-05
00000000: 56cc 79b8 e020 c7b8 48a1 d6b9 5cb2 b636
00000010: 0347 6338 dd04 af37

0.res1.batch_norm1.weight f4 [6]
1.1518954 1.0932497 0.69653404 0.4346683 1.0736042 0.59741205
00000000: 4f71 933f 9bef 8b3f 0e50 323f d88c de3e
00000010: dd6b 893f ffef 183f

0.res1.batch_norm1.bias f4 [6]
-0.05248056 0.043111287 -0.28260934 -0.054715782 -0.8758073 0.4614972
00000000: dbf5 56bd 7695 303d 2cb2 90be a81d 60bd
00000010: e834 60bf 5c49 ec3e

0.res1.batch_norm1.running_mean f4 [6]
-0.48705155 0.55747074 -2.868556 1.894981 0.7481774 -1.5062443
00000000: d25e f9be 67b6 0e3f 6c96 37c0 bd8e f23f
00000010: 8e88 3f3f 9dcc c0bf

0.res1.batch_norm1.running_var f4 [6]
7.3507147 10.522018 8.192837 15.301069 0.8904347 2.300417
00000000: 0e39 eb40 305a 2841 dc15 0341 2ed1 7441
00000010: 87f3 633f 083a 1340

0.res1.batch_norm2.weight f4 [6]
0.28423274 0.057411112 0.24135174 0.3758695 0.55125916 0.22550724
00000000: f486 913e ea27 6b3d e924 773e f871 c03e
00000010: 521f 0d3f 5feb 663e

0.res1.batch_norm2.bias f4 [6]
-0.25327736 -0.07385704 0.32628122 -0.26013875 -0.043494392 -0.7189891
00000000: 92ad 81be 5c42 97bd 550e a73e e830 85be
00000010: 2d27 32bd ab0f 38bf

0.res1.batch_norm2.running_mean f4 [6]
-1.1404095 0.2881061 -0.14154561 -0.71008736 -1.0384817 0.52406746
00000000: f0f8 91bf a582 933e 55f1 10be 49c8 35bf
00000010: f8ec 84bf 4929 063f

0.res1.batch_norm2.running_var f4 [6]
1.1149751 0.81464636 0.5943679 1.0686444 5.603778 2.020856
00000000: 81b7 8e3f aa8c 503f 7f28 183f 57c9 883f
00000010: 2652 b340 b455 0140
