autoencoder/checkpoints/small_classifier/frozen_encoder_classifier_5_epoch20.pth (torch, 971803 bytes, 68 tensors)

0.conv1.weight f4 [6, 3, 3, 3]
-0.016176382 -0.14570089 -0.024381528 -0.26120344 -0.119032554 -0.16639422 0.027975077 0.0053820703
-0.029413952 0.2392386 0.15130109 0.18099944 0.10891343 0.07908928 0.1608646 0.17367667
0.27336535 0.3233139 -0.28074685 -0.17808482 -0.06302733 -0.28293523 -0.36437732 -0.04654036
-0.12049948 -0.041841473 -0.15043768 -0.012389354 0.03573339 0.050655335 0.08696561 0.07397049
0.16465804 0.052934397 0.16663948 0.26343662 0.0063994243 0.15433599 0.040159985 -0.046333924
0.09774223 -0.0547556 0.06955776 -0.04695774 0.03155623 -0.07568905 -0.16095449 -0.24338923
-0.085679926 -0.068971455 -0.03275057 -0.18346816 -0.009875816 -0.27954572 0.060635325 -0.046295602
0.119102016 0.057808325 0.108919024 0.03147713 -0.03116958 0.14019011 -0.015961738 -0.036688857
0.071990855 -0.15593037 -0.04909795 0.019644976 0.21045287 -0.014187056 0.13369922 0.026250558
-0.04891112 0.1042994 0.11846577 0.052183487 0.254437 0.018557545 0.09023694 0.048402335
0.22886963 0.05842871 0.2810359 0.18201476 0.21153389 0.17766327 0.19345716 0.19907865
-0.00261193 0.13357475 -0.11500413 -0.08479166 -0.29187086 -0.14653711 0.123934165 -0.11147547
-0.2142574 -0.12537088 -0.32997295 -0.054252256 0.055411726 -0.052561443 0.14160758 0.030717812
0.048337854 -0.062158264 0.03882984 0.032231633 -0.021497529 -0.07624865 -0.094629414 -0.108140804
-0.14098889 -0.06201328 0.008980098 -0.07320288 -0.036404047 -0.050680097 0.007761653 0.05917902
0.078714505 -0.19513789 -0.2063149 -0.088965915 -0.14837189 -0.1594843 0.06287691 -0.13888305
-0.14872617 -0.12215334 -0.17469788 -0.15786932 -0.04311529 -0.16860563 -0.20914605 -0.087490305
-0.044368792 -0.058455855 -0.0731228 0.08069888 -0.19949226 -0.13303037 -0.13601519 -0.28363112
0.048444584 0.025841596 0.04809224 0.094892144 -0.0051020375 -0.04193034 -0.008384537 -0.10293917
-0.058573406 0.22675522 0.32417744 0.2009876 0.08297941 -0.21401714 0.07272119 0.14394209
0.16789785 0.15199812
00000000: 5584 84bc 9d32 15be c5bb c7bc 75bc 85be
00000010: 57c7 f3bd 3f63 2abe fd2b e53c 145c b03b
00000020: 87f5 f0bc f7fa 743e acee 1a3e eb57 393e
00000030: 010e df3d 8ff9 a13d b1b9 243e 4cd8 313e
00000040: 8bf6 8b3e 6689 a53e 0dbe 8fbe de5b 36be
00000050: 7914 81bd e3dc 90be aa8f babe 1ba1 3ebd
00000060: 6ec8 f6bd f761 2bbd 560c 1abe b8fc 4abc
00000070: 2d5d 123d f87b 4f3d 071b b23d d77d 973d
00000080: 1e9c 283e bdd1 583d 8aa3 2a3e 2ae1 863e
00000090: 43b2 d13b 410a 1e3e cc7e 243d a4c8 3dbd
000000a0: 142d c83d 6847 60bd 4d74 8e3d c256 40bd
000000b0: 1b41 013d dc02 9bbd 41d1 24be 073b 79be
000000c0: f578 afbd e840 8dbd 7625 06bd 14df 3bbe
000000d0: 2dce 21bc 9e20 8fbe bf5c 783d 75a0 3dbd
000000e0: c2eb f33d 6cc8 6c3d f010 df3d 2aee 003d
000000f0: 5957 ffbc ff8d 0f3e 31c2 82bc 0e47 16bd
00000100: f16f 933d 36ac 1fbe ef1a 49bd 80ee a03c
00000110: f580 573e d370 68bc 73e8 083e 690b d73c
00000120: 0757 48bd ec9a d53d 2e9e f23d 5abe 553d
00000130: 9145 823e fe05 983c 25ce b83d 8741 463d
00000140: cd5c 6a3e f152 6f3d f0e3 8f3e 1462 3a3e
00000150: 579c 583e 5ced 353e a219 463e 46db 4b3e
00000160: ea2c 2bbb d2c7 083e 4987 ebbd 40a7 adbd
00000170: 1970 95be d30d 16be 32d1 fd3d 404d e4bd
00000180: 4b66 5bbe 3961 00be 37f2 a8be 9d37 5ebd
00000190: 68f7 623d ab4a 57bd 9401 113e eca3 fb3c
000001a0: eafd 453d aa99 7ebd 0a0c 1f3d 5105 043d
000001b0: 961b b0bc 4128 9cbd 11cd c1bd ed78 ddbd
000001c0: 645f 10be a301 7ebd 4321 133c 64eb 95bd
000001d0: 691c 15bd ef95 4fbd 7755 fe3b b365 723d
000001e0: 1235 a13d 3ad2 47be 3744 53be c333 b6bd
000001f0: cdee 17be da4f 23be 9cc5 803d 5c37 0ebe
00000200: ac4b 18be 882b fabd 00e4 32be 7fa8 21be
00000210: a999 30bd f4a6 2cbe 622a 56be 1e2e b3bd
00000220: 0dbc 35bd 686f 6fbd 68c1 95bd 7445 a53d
00000230: b347 4cbe 1d39 08be 9147 0bbe 1938 91be
00000240: d46d 463d c1b1 d33c 5efc 443d d056 c23d
00000250: fe2e a7bb 26bf 2bbd 4c5f 09bc c6d1 d2bd
00000260: abea 6fbd 8532 683e 96fa a53e b2cf 4d3e
00000270: 1cf1 a93d 4f27 5bbe d9ee 943d 8e65 133e
00000280: 6aed 2b3e 65a5 1b3e

0.conv1.bias f4 [6]
-0.08811437 0.5738814 0.38886976 0.33078498 -0.6378308 0.2952928
00000000: 4f75 b4bd e4e9 123f f019 c73e a65c a93e
00000010: e148 23bf 9e30 973e

0.conv2.weight f4 [12, 6, 3, 3]
9.33e-42 5.32646e-40 1.532e-42 -7.7192e-41 5.4243e-41 3.8894e-41 3.1907286e-38 7.822573e-37
1.1760234e-32 -1.17474e-40 -3.339754e-15 -6.9435613e-10 4.5045e-41 6.1579655e-28 -1.4938774e-12 -1.4449845e-38
9.236619e-31 -4.1993637e-17 4.7417e-41 -4.643e-42 -8.5258e-41 -2.3984e-40 -1.0714372e-29 -1.14793e-40
-5.0967e-41 2.9322e-40 -1.52831e-40 7.6858e-41 -7.4834e-41 9.279e-41 8.4669e-41 3.5177e-41
8.629e-41 -2.4642e-41 -1.06307e-40 3.3728e-40 -4.5175e-41 -7.0218e-41 -1.8850272e-31 1.4669e-41
1.26634e-40 -1.7714771e-37 1.17685e-40 -1.348029e-23 9.1398417e-26 -2.9008e-41 -3.6523e-41 6.1866e-41
6.4575e-41 1.12045e-40 1.48955e-40 -7.035587e-35 -7.7549193e-35 -1.9283e-41 -0.123392396 -0.103551894
-0.15589043 -0.17596263 -0.17053923 -0.24082439 -0.216776 -0.21271355 -0.21102056 0.08681763
-0.029253233 0.06814497 -0.011552352 -0.04631236 0.017800169 -0.0135377515 -0.015348637 0.06432507
0.043179136 -0.043750506 0.18930933 -0.20116831 -0.10644323 0.16469517 -0.05220096 -0.025046097
0.27385867 -0.011429219 -0.06547006 -0.033411976 -0.054532964 -0.08476909 -0.04543308 -0.113247335
-0.07049526 -0.0683844 0.008782693 0.10443434 -0.059026156 0.1687418 0.072681114 -0.16314289
0.06925743 0.06620152 -0.14746812 0.043240618 -0.01863712 0.045195203 -0.009944367 0.01618389
-0.06375326 0.05016458 -0.0659534 0.016694687 -0.05298049 -0.016564108 -0.022788724 -0.008820502
0.04874402 0.05248918 0.00019536492 0.067358986 0.03221849 0.0044587683 0.0662006 0.05952193
0.09663645 0.23655076 0.18086047 0.07021813 0.23111755 0.13103312 0.031103987 0.09896754
0.047735944 0.09892282 0.047197543 -0.050638787 0.07175275 -0.1310981 -0.14792143 0.07574599
0.073077634 0.075148344 0.085877754 0.0872868 0.050458685 0.004334406 0.043496825 0.07802025
-0.077034034 -0.062887274 -0.026755199 -0.07884674 0.014060392 0.058467906 -0.040221684 0.105351515
0.062390752 -0.11552041 -0.11724525 -0.16321805 -0.10706407 -0.1421717 -0.21643764 -0.13330705
-0.24547903 -0.19834946 0.037383545 -0.017053096 -0.029868763 0.006247089 -0.024225332 -0.026026094
-0.05460119 -0.0757931 -0.03755601 -0.006872122 -0.013618986 -0.064584605 -0.0449203 -0.049418412
-0.082100354 -0.030605096 -0.04419819 -0.025716688 0.0107577145 0.059651725 0.031909984 0.06854642
0.19249216 0.13052166 0.027958652 0.1855851 0.1326327 -0.022597479 -0.029238032 0.013209156
-0.06006091 -0.04356337 -0.010125415 -0.0021997893 -0.016927319 0.008544518 -0.015779803 -0.071791165
-0.08352923 -0.04982185 -0.16515481 -0.07739842 0.011225786 -0.12064214 -0.05600192 0.020908283
0.051401936 0.05853879 0.043729942 0.032348473 0.074445665 0.018727303 0.033068527 0.04780807
-0.018503098 -0.021239175 -0.03552417 0.030648267 0.013229775 0.0355019 0.010365904 0.060208905
0.01569405 -0.03961527 -0.061292276 -0.17867956 -0.07707854 -0.18306199 -0.18814825 -0.12204133
-0.14351544 -0.22446409 0.014267072 -0.058531757 0.081334114 -0.034115043 -0.050718352 0.106226034
-0.023928728 -0.1435864 0.0510134 0.10204402 0.13387927 0.10372378 0.09980613 0.15286063
0.12464242 0.014095047 0.020731343 0.05249111 -0.006441294 0.12365668 -0.04411913 0.010006281
00000000: 021a 0000 cdcc 0500 4504 0000 2ed7 0080
00000010: 3597 0000 6c6c 0000 44b8 2d01 1c18 8503
00000020: 2140 740a 7847 0180 96a7 70a7 f8dc 3eb0
00000030: 917d 0000 5a27 4312 9b3e d2ab 4a58 9d80
00000040: 6adf 950d 56a9 41a4 2e84 0000 f10c 0080
00000050: aaed 0080 949c 0280 3350 598f ff3f 0180
00000060: 138e 0080 6131 0300 08aa 0180 40d6 0000
00000070: 9bd0 0080 a902 0100 06ec 0000 0f62 0000
00000080: 8bf0 0000 b144 0080 5728 0180 33ac 0300
00000090: ee7d 0080 bdc3 0080 c6b0 748c e428 0000
000000a0: 0161 0100 f81e 7182 0f48 0100 955f 8299
000000b0: a14a e215 dd50 0080 d065 0080 75ac 0000
000000c0: 02b4 0000 5638 0100 3a9f 0100 b909 bb86
000000d0: 3f29 ce86 c135 0080 27b5 fcbd 0413 d4bd
000000e0: bea1 1fbe 8c2f 34be d6a1 2ebe ab9a 76be
000000f0: 87fa 5dbe 95d1 59be c615 58be 71cd b13d
00000100: 7aa4 efbc 978f 8b3d 1446 3dbc 07b2 3dbd
00000110: a9d1 913c 72cd 5dbc d978 7bbc ddbc 833d
00000120: 9bdc 303d bb33 33bd 4eda 413e 11ff 4dbe
00000130: e8fe d9bd daa5 283e add0 55bd 792d cdbc
00000140: 3437 8c3e 9e41 3bbc 2b15 86bd ffda 08bd
00000150: f55d 5fbd 6b9b adbd 0a18 3abd 38ee e7bd
00000160: d25f 90bd 1f0d 8cbd 49e5 0f3c ace1 d53d
00000170: 69c5 71bd a7ca 2c3e d6d9 943d ee0e 27be
00000180: d7d6 8d3d aa94 873d e201 17be 131d 313d
00000190: e0ac 98bc 9b1e 393d b3ed 22bc 1494 843c
000001a0: 1291 82bd 6079 4d3d 9412 87bd 4cc3 883c
000001b0: 1202 59bd 74b1 87bc 6baf babc de83 10bc
000001c0: cfa7 473d e5fe 563d dfda 4c39 82f3 893d
000001d0: 89f7 033d dc1a 923b 2e94 873d 44cd 733d
000001e0: 55e9 c53d 5d3a 723e 7d33 393e 86ce 8f3d
000001f0: 14aa 6c3e 8c2d 063e cacd fe3c 7eaf ca3d
00000200: c486 433d 0c98 ca3d 3652 413d 9e6a 4fbd
00000210: 1bf3 923d 953e 06be b778 17be b720 9b3d
00000220: baa9 953d 60e7 993d ade0 af3d 6cc3 b23d
00000230: c4ad 4e3d a207 8e3b ba29 323d 15c9 9f3d
00000240: 05c4 9dbd 0bcb 80bd b82d dbbc 667a a1bd
00000250: 8f5d 663c 0b7c 6f3d 7ebf 24bd 89c2 d73d
00000260: 728d 7f3d f795 ecbd 471e f0bd a222 27be
00000270: 6844 dbbd 7595 11be d4a1 5dbe a581 08be
00000280: db5e 7bbe 1f1c 4bbe 7d1f 193d efb2 8bbc
00000290: 56af f4bc 61b4 cc3b 3474 c6bc ad34 d5bc
000002a0: 7fa5 5fbd 6a39 9bbd 55d4 19bd 8a2f e1bb
000002b0: 2b22 5fbc ef44 84bd 59fe 37bd f66a 4abd
000002c0: 3b24 a8bd 8ab7 fabc 2909 35bd ceab d2bc
000002d0: 2041 303c 5e55 743d 0bb4 023d 1162 8c3d
000002e0: aa1c 453e 78a7 053e 8b09 e53c 050a 3e3e
000002f0: ded0 073e 591e b9bc 9984 efbc 376b 583c
00000300: 6e02 76bd 816f 32bd 12e5 25bc 572a 10bb
00000310: 29ab 8abc 4efe 0b3c a544 81bc 3f07 93bd
00000320: 5f11 abbd ff11 4cbd 581e 29be 1083 9ebd
00000330: 5cec 373c 3a13 f7bd 4562 65bd d947 ab3c
00000340: d68a 523d 5fc6 6f3d 2b1e 333d d57f 043d
00000350: f876 983d 006a 993c dd72 073d 65d2 433d
00000360: cf93 97bc c7fd adbc cb81 11bd 1312 fb3c
00000370: b3c1 583c 716a 113d c1d5 293c 9d9d 763d
00000380: cf90 803c 9f43 22bd 9c0d 7bbd c6f7 36be
00000390: 5bdb 9dbd 9a74 3bbe efa9 40be cef0 f9bd
000003a0: b6f5 12be ead9 65be 70c0 693c ffbe 6fbd
000003b0: 8092 a63d 37bc 0bbd 0cbe 4fbd 098d d93d
000003c0: 2e06 c4bc 5008 13be 6df3 503d 75fc d03d
000003d0: a617 093e 226d d43d 2867 cc3d 7f87 1c3e
000003e0: 8644 ff3d e9ee 663c c7d4 a93c eb00 573d
000003f0: 7e11 d3bb b73f fd3d 43b6 34bd 62f1 233c

0.conv2.bias f4 [12]
-3.9528473e-17 0.63553095 0.762178 0.6756269 0.51207924 -0.027283613 0.61688113 -0.06117919
0.015510069 -0.19167593 -0.019265562 -0.13219152
00000000: fc4a 36a4 28b2 223f 191e 433f e2f5 2c3f
00000010: a017 033f e281 dfbc eceb 1d3f 0897 7abd
00000020: f21d 7e3c b246 44be d0d2 9dbc 375d 07be

0.conv3.weight f4 [24, 12, 3, 3]
-4.5900216e-23 6.618895e-23 6.272344e-22 -4.289651e-23 1.13039e-22 1.7099518e-22 4.8404712e-26 -2.622473e-20
2.0012934e-21 -1.2001681e-21 -0.00013737804 -1.4144723e-05 1.2786061e-09 -4.937527e-08 -3.8200884e-05 2.9494927e-14
-3.1476063e-08 -0.00015241218 -6.483359e-14 4.637411e-22 8.8316456e-23 6.5022842e-21 2.0626321e-23 2.8435366e-22
1.6655573e-21 4.2340223e-16 -1.4944007e-22 -1.9029592e-08 -5.6752623e-07 -1.9211218e-05 -7.5131784e-10 -9.143143e-06
-7.09534e-05 9.801499e-21 -4.387296e-05 -0.0019569586 4.245402e-22 -0.0012735953 -0.0015780417 -2.3964668e-22
-0.0007575152 -0.0008965684 7.6392063e-22 -0.00074606756 -0.00063805026 -8.269e-41 -5.2166e-41 -7.65549e-40
4.7008e-41 -1.35342e-40 2.6253e-41 -6.154e-41 -1.65083e-40 1.58578e-40 -9.988243e-23 -2.7180827e-06
-0.00022434477 -4.404623e-22 -1.5057936e-17 -3.769795e-08 -1.6210055e-22 -3.8732746e-13 -0.00012183157 5.649224e-39
-2.4607624e-22 -2.1087985e-22 8.7329e-41 -5.992984e-25 1.7607487e-32 7.5282e-41 2.2142351e-24 -1.2144154e-22
1.3460094e-22 -5.366031e-23 2.982564e-22 -8.113756e-23 3.373246e-22 2.5426832e-22 1.3715057e-22 1.0438367e-21
1.6092192e-22 -1.901979e-09 8.23801e-20 3.9825778e-22 -2.4334476e-21 -6.9700786e-22 -2.3281085e-22 -1.636836e-20
6.632983e-23 -9.181977e-24 -4.092518e-22 -3.6593293e-22 -6.66701e-22 -4.998177e-22 -2.0270197e-24 4.2198389e-22
1.6051056e-22 -5.9166416e-22 -3.0945417e-23 2.664921e-21 -6.085913e-22 -9.0055967e-26 2.1759396e-22 1.3171178e-22
-1.1718621e-22 8.418315e-22 -3.2522205e-20 4.720304e-24 -2.3300664e-10 -3.0894737e-10 -7.923455e-10 -5.6367675e-09
-4.05214e-09 -9.044922e-09 -1.0489619e-07 -2.3443036e-08 -7.8940474e-08 -0.0012589727 -0.00022768218 -0.0006942158
-0.0017297369 -0.0010822387 -0.0010277444 -0.0024225826 -0.0016467866 -0.0014752039 -0.013410408 -0.015448943
-0.014000281 -0.012430094 -0.0127147045 -0.012452194 -0.012933527 -0.012472068 -0.012125139 -0.01627111
-0.007858674 -0.008932652 -0.017459093 -0.0041279593 -0.008386242 -0.016354105 -0.011316171 -0.00873539
-0.0007115308 -0.0005814556 -0.0009584824 -0.00074814406 -0.000674695 -0.000910342 -0.0008110096 -0.00041445048
-0.00063479046 3.044041e-30 -4.947974e-31 9.07746e-31 2.1435323e-31 1.1429473e-30 -3.4155056e-29 -6.939632e-31
-1.9791343e-30 1.1339037e-30 -1.5276655e-05 -7.844239e-05 -5.415065e-05 -8.874852e-07 -5.2619894e-06 -2.1664705e-06
-1.4121362e-07 -6.7541305e-07 -7.4309764e-06 -3.5352981e-25 1.9632064e-23 1.0764217e-21 4.469e-19 -1.5698546e-16
-5.858713e-20 7.41829e-25 -5.3481644e-13 -1.0777302e-13 -5.9887766e-15 -2.1576492e-24 -6.204314e-27 -1.8645039e-16
3.9177948e-26 -5.0052387e-28 -2.2453041e-14 1.1585682e-21 2.0537559e-25 -7.5668616e-10 -5.2347212e-17 8.566183e-27
-5.5198646e-09 -8.566791e-27 -4.9546493e-28 -2.085758e-06 -6.977431e-18 2.7953548e-20 -0.0037598158 -0.0032001098
-0.0018560947 -0.0042051664 -0.0034676509 -0.002847804 -0.0038675878 -0.0030983426 -0.0028919182 -2.4613402e-05
-6.295932e-10 -3.6685224e-06 -9.712138e-07 -3.98685e-09 -8.547104e-07 -1.7575045e-05 -1.434763e-07 -2.088845e-06
0.18377951 0.1391714 0.2713187 0.016024273 0.010990369 0.018442363 0.07904577 0.07024982
0.32466558 -0.0076881577 -0.004302474 0.024870455 -0.012020623 0.25879025 -0.02210704 -0.021111121
0.043126523 -0.066319376 0.032878358 0.10294587 -0.118001804 0.057994727 0.27298546 0.14841634
0.061028235 -0.02784152 -0.17426352 0.068266824 -0.09443123 0.011242682 0.10487718 -0.20918818
-0.335038 0.21462156 -0.2656606 -0.009815562 0.072646156 0.11793998 0.036966305 0.12474321
00000000: b7f5 5d9a fa08 a01a e991 3d1c 4f6f 4f9a
00000010: e0a7 081b 72b8 4e1b 43b0 6f15 82af f79e
00000020: a536 171d 415d b59c 230d 10b9 1f4f 6db7
00000030: f4ba af30 af10 54b3 e339 20b8 56d5 0429
00000040: 4c30 07b3 d5d0 1fb9 05fe 91a9 3b28 0c1c
00000050: 3d89 d51a 3ca6 f51d 4c7c c719 99e1 ab1b
00000060: 21b1 fb1c 2413 f425 76a9 349b 8476 a3b2
00000070: 1b58 18b5 c727 a1b7 4b85 4eb0 8065 19b7
00000080: d1cc 94b8 2425 391e 3b04 38b8 5140 00bb
00000090: 354f 001c c4ee a6ba 4bd6 ceba 87db 909b
000000a0: fc93 46ba b007 6bba 7fe1 661c bf93 43ba
000000b0: d442 27ba 82e6 0080 6b91 0080 0a56 0880
000000c0: 0a83 0000 4779 0180 2f49 0000 8cab 0080
000000d0: 2fcc 0180 0dba 0100 3b80 f19a 4e68 36b6
000000e0: 173e 6bb9 1f1f 059c 8ce2 8aa3 56e9 21b3
000000f0: b1f7 439b c50b daaa d37f ffb8 bd83 3d00
00000100: 74be 949b 27f0 7e9b 70f3 0000 5079 3997
00000110: bbd8 b60a dbd1 0000 7251 2b18 56d0 129b
00000120: f9b8 221b 20be 819a f148 b41b b82d c49a
00000130: 74e6 cb1b 1eb2 991b 0cce 251b 7abd 9d1c
00000140: ec8a 421b f8b3 02b1 b783 c21f 68bb f01b
00000150: b9dd 379d 5fa8 529c bcb9 8c9b 4498 9a9e
00000160: 2d60 a01a f39a 3199 a660 f79b 6131 dd9b
00000170: 7e7f 499c 850f 179c 43d5 1c98 d812 ff1b
00000180: 9d0b 421b ccd1 329c 92a4 159a 125b 491d
00000190: 79ef 379c c0f7 de95 0987 831b d23a 1f1b
000001a0: 60ab 0d9b 8f6d 7e1c ef94 199f a09b b618
000001b0: c518 80af 7ad8 a9af 5ccc 59b0 88ad c1b1
000001c0: 003b 8bb1 fd63 1bb2 4a43 e1b3 c85f c9b2
000001d0: fc85 a9b3 1d04 a5ba f8bd 6eb9 09fc 35ba
000001e0: 57b8 e2ba e8d9 8dba 61b5 86ba 31c4 1ebb
000001f0: fdd8 d7ba a15b c1ba 54b7 5bbc 901d 7dbc
00000200: 6f61 65bc 98a7 4bbc 5651 50bc 4904 4cbc
00000210: 25e7 53bc a557 4cbc 85a8 46bc fe4a 85bc
00000220: abc1 00bc 425a 12bc 5f06 8fbc d543 87bb
00000230: 7366 09bc 0bf9 85bc 7667 39bc e21e 0fbc
00000240: 0686 3aba d36c 18ba aa42 7bba 191f 44ba
00000250: 04de 30ba 04a4 6eba ef99 54ba 9a4a d9b9
00000260: 1168 26ba 42f6 760e 2992 208d 4b4a 930d
00000270: 8a1f 8b0c 2c74 b90d cc2f 2d90 3534 618d
00000280: 0391 208e 84fc b70d 5e26 80b7 7081 a4b8
00000290: d11f 63b8 853b 6eb5 2590 b0b6 ae63 11b6
000002a0: 81a0 17b4 084e 35b5 9a57 f9b6 09d3 da96
000002b0: a3de bd19 0caa a21c cfe6 0321 eefd 34a5
000002c0: bf55 8a9f c095 6517 9689 16ab ebae f2a9
000002d0: b7c4 d7a7 a5f0 2698 38c7 f593 71f6 56a5
000002e0: f3ff 4115 529f 1e92 303d caa8 f013 af1c
000002f0: 1f3e 7e16 0eff 4fb0 ae68 71a4 b5ab 2914
00000300: 3ea9 bdb1 caae 2994 e404 1d92 0df9 0bb6
00000310: fcb5 00a3 c401 041f 3e67 76bb efb8 51bb
00000320: 3448 f3ba 7ecb 89bb 8741 63bb 39a2 3abb
00000330: 5b77 7dbb 900d 4bbb 5686 3dbb e178 ceb7
00000340: af0f 2db0 bc30 76b6 a75a 82b5 b4fc 88b1
00000350: 406f 65b5 1f6e 93b7 770e 1ab4 152e 0cb6
00000360: b230 3c3e f382 0e3e 49ea 8a3e 5645 833c
00000370: f310 343c 7014 973c c0e2 a13d 23df 8f3d
00000380: 913a a63e f1ec fbbb c5fb 8cbb 20bd cb3c
00000390: 26f2 44bc 2880 843e d319 b5bc 3bf1 acbc
000003a0: 70a5 303d 74d2 87bd 75ab 063d 49d5 d23d
000003b0: eeaa f1bd e18b 6d3d c0c4 8b3e 74fa 173e
000003c0: bef8 793d e613 e4bc 2372 32be 7acf 8b3d
000003d0: 2965 c1bd 3a33 383c d9c9 d63d 6d35 56be
000003e0: 1a8a abbe c1c5 5b3e ab04 88be 73d1 20bc
000003f0: 82c7 943d 848a f13d fb69 173d 5e79 ff3d

0.conv3.bias f4 [24]
-8.060394e-07 -0.008014179 -0.47921172 -5.513972e-07 0.9559138 0.6983929 -0.01711453 -0.02182729
-0.024806116 0.50099653 0.5051666 -0.0009955321 -0.03993217 0.64974797 1.2065339 -0.0002853541
0.20387858 -0.26532206 -0.03303364 -0.30297798 0.45666412 0.95110375 -0.0042689736 0.72577477
00000000: 9b5e 58b5 e74d 03bc 3d5b f5be ba03 14b5
00000010: c4b6 743f e1c9 323f c533 8cbc 25cf b2bc
00000020: 3236 cbbc 4f41 003f 9952 013f 847c 82ba
00000030: ea8f 23bd e255 263f b46f 9a3f 949b 95b9
00000040: 8cc5 503e 4bd8 87be 484e 07bd ee1f 9bbe
00000050: e1cf e93e 897b 733f bfe2 8bbb 60cc 393f

0.conv4.weight f4 [48, 24, 3, 3]
9.1323e-41 4.83127e-40 5.6662e-41 2.1587e-41 5.6757e-41 1.3253e-41 -8.0024e-41 -7.792e-41
2.035e-42 1.232e-41 8.2077e-41 2.4521e-41 -1.14445e-40 5.1632e-41 -2.0183e-41 -3.5586e-41
-2.6555e-41 8.0573e-41 -5.591137e-12 -5.8565684e-07 -6.2042553e-09 -4.1687244e-08 -6.9556836e-06 -1.1753891e-07
-1.324489e-07 -4.88332e-06 -2.4204004e-07 -6.442578e-38 -3.153e-42 3.1833658e-37 -3.9239e-41 2.0235e-41
2.2208e-41 -3.4486038e-37 -9.5546e-41 8.215554e-37 -1.4411559e-36 1.0128262e-36 4.8189252e-36 6.2707766e-36
-1.5512567e-36 -4.379612e-37 -1.0734881e-35 5.7885197e-36 2.063285e-36 -5.041034e-36 7.376979e-36 -9.277782e-35
3.7091765e-36 -1.08527674e-35 -9.991203e-36 9.944887e-36 -6.333882e-36 1.2592051e-35 -1.13847805e-35 -1.1165557e-35
-1.700752e-38 1.3845993e-35 6.0671996e-36 5.4501717e-37 -1.1849829e-35 -1.1262724e-35 3.6492953e-37 -9.372904e-37
-4.625364e-36 -4.5642298e-38 2.0962876e-36 -5.944398e-36 -2.6829109e-36 -1.3158745e-36 1.9875088e-36 3.272422e-36
-1.3447641e-35 -1.107198e-35 -4.7463746e-37 1.07090405e-35 1.1340681e-35 -1.8327605e-36 4.1318577e-38 1.5368632e-35
-1.06702336e-35 -6.45484e-36 1.489019e-35 -1.1046676e-34 1.03397456e-35 6.603271e-36 -9.767779e-36 -4.4257786e-36
-2.447815e-35 -1.8242314e-37 3.2222705e-35 1.1614738e-35 -1.7848908e-36 -1.756319e-35 1.8261406e-36 -1.6188931e-38
1.1440876e-36 1.1050579e-36 3.8593822e-37 1.3503495e-36 -3.6682321e-37 -3.1424616e-37 -7.552967e-37 -2.4602476e-37
-7.4052315e-37 1.4026266e-36 1.2246069e-36 3.2039055e-37 -1.6153488e-37 -2.2135452e-36 1.2335499e-37 5.0898416e-37
-1.7130828e-36 3.710404e-39 2.5722e-41 6.3790577e-37 1.1532682e-36 1.838938e-36 4.0654843e-37 1.5323e-41
-3.720639e-36 3.872291e-39 2.4350958e-37 -3.2354872e-36 -2.9321878e-36 -2.5661962e-36 2.1094949e-36 3.1079053e-37
2.9822977e-36 -4.2633504e-37 -5.3449977e-36 5.2392527e-36 -7.337488e-36 1.567771e-35 1.3370054e-35 -3.5824417e-36
1.2328864e-35 -1.7049357e-36 2.6779184e-36 -5.1198522e-36 7.669605e-38 -1.9317052e-37 -7.578272e-36 2.9265042e-36
-8.473535e-36 4.0186593e-36 3.8564354e-35 1.9013798e-35 4.0286926e-36 1.327825e-35 -3.0716414e-35 2.872544e-39
7.868569e-37 9.071092e-36 2.704481e-35 -6.256005e-36 -4.7181763e-36 1.0243786e-35 -5.0614466e-37 -8.3990176e-36
-2.9698997e-35 1.653944e-35 -5.853655e-36 8.426231e-36 9.459224e-36 8.5947305e-36 -7.939834e-36 1.4738191e-35
-9.63277e-29 -7.970235e-36 -1.4918516e-36 1.4812262e-35 3.3669378e-35 3.0845715e-35 2.3297664e-35 1.2303181e-35
4.9945556e-31 -1.9749884e-35 2.7119535e-36 3.78335e-35 2.1937111e-30 1.0700566e-31 1.1509398e-20 -7.952369e-28
-8.27726e-26 -1.1235289e-22 -1.2564237e-27 -5.162215e-31 -2.0654574e-29 -6.4225506e-36 -1.52649e-35 1.0472861e-37
4.9494816e-36 -1.2424912e-35 -6.789485e-36 -1.1285627e-35 -1.4660623e-35 -1.6532895e-36 -5.6743525e-37 -7.486697e-38
6.135771e-38 -2.471e-41 -2.6461184e-38 3.901168e-37 -3.2489923e-38 -4.622756e-39 2.0861615e-37 1.9871521e-35
-7.1434516e-35 4.012125e-35 -2.933334e-35 -4.2578205e-35 3.1024154e-35 -1.0632834e-35 3.1089693e-35 2.0495908e-35
3.405442e-24 -2.915796e-25 -2.3785049e-25 -3.0528057e-24 -1.2894399e-24 1.5969354e-25 -1.5255605e-24 9.893799e-24
-5.060113e-25 7.5178234e-33 -2.5742348e-34 -1.6108872e-32 1.1262891e-31 3.114255e-32 1.2828787e-31 -2.79585e-33
1.659791e-32 -3.152816e-32 3.108223e-08 -0.00016705743 -4.0741395e-07 -6.499156e-08 -0.00042829078 -8.572518e-05
1.097971e-09 -0.00019328207 -0.00061032287 -4.3492062e-26 -1.6016318e-32 -1.9465895e-25 -9.842756e-27 3.728936e-26
1.0311823e-24 1.5327625e-25 -8.120844e-26 2.1623525e-26 3.1643304e-25 1.0722614e-24 5.947732e-25 -4.18176e-16
00000000: 92fe 0000 c342 0500 f39d 0000 2d3c 0000
00000010: 379e 0000 f224 0000 13df 0080 36d9 0080
00000020: ac05 0000 5822 0000 cce4 0000 5b44 0000
00000030: 073f 0180 ee8f 0000 4338 0080 3363 0080
00000040: 064a 0080 9be0 0000 7cb8 c4ac 0836 1db5
00000050: 352d d5b1 9c0b 33b3 de64 e9b6 b369 fcb3
00000060: 4737 0eb4 66db a3b6 bbf1 81b4 3762 af81
00000070: ca08 0080 0ea6 d802 626d 0080 6838 0000
00000080: e83d 0000 27b3 ea82 580a 0180 c9c7 8b03
00000090: 3133 f583 ce52 ac03 73f9 cc04 5b5d 0505
000000a0: 61f7 0384 cd07 1583 404e 6485 6637 f604
000000b0: 5e86 2f04 006c d684 18e4 1c05 50a5 f686
000000c0: 5bc5 9d04 16d0 6685 497d 5485 1d81 5305
000000d0: efb4 0685 d3e6 8505 a420 7285 1377 6d85
000000e0: 0c32 b980 613c 9305 fa08 0105 b175 3903
000000f0: 9b04 7c85 1a88 6f85 b15b f802 c178 9f83
00000100: c1bd c484 1480 7881 1a55 3204 c3d8 fc84
00000110: a03c 6484 6be2 df83 1c14 2904 8531 8b04
00000120: f6ff 8e85 9879 6b85 c182 2183 90c1 6305
00000130: 8a30 7105 fde9 1b84 b1f5 6001 656d a305
00000140: 47ee 6285 7e47 0985 f456 9e05 e4d5 1287
00000150: eee6 5b05 a16f 0c05 d9bc 4f85 7640 bc84
00000160: ee25 0286 304d 7882 4653 2b06 a604 7705
00000170: 7bd7 1784 8dc3 ba85 d259 1b04 2748 b080
00000180: 0ba8 c203 0f04 bc03 f653 0303 04c0 e503
00000190: 9ea5 f982 67dd d582 d081 8083 8f6f a782
000001a0: aafc 7b83 01a5 ee03 275b d003 e80b da02
000001b0: b1de 5b82 bf4e 3c84 f1e6 2702 c632 2d03
000001c0: a4bb 1184 1967 2800 b447 0000 6e11 5903
000001d0: ea37 c403 8670 1c04 5d57 0a03 b72a 0000
000001e0: 2c42 9e84 5f2a 2a00 5ab9 a502 569f 8984
000001f0: 6571 7984 ce4e 5a84 bb74 3304 5983 d302
00000200: b1b4 7d04 0513 1183 df59 e384 69da de04
00000210: 160d 1c85 c9b6 a605 c02c 8e05 5661 9884
00000220: 5c1a 8305 360a 1184 e6cf 6304 41c6 d984
00000230: 59c9 d001 0d77 8382 0a2c 2185 9ef5 7804
00000240: 5036 3485 53ef aa04 140b 4d06 7b30 ca05
00000250: 945c ab04 d632 8d05 0451 2386 7c47 1f00
00000260: 74e0 8503 b9eb 4005 7dcb 0f06 ee0c 0585
00000270: 64b0 c884 7adc 5905 6b3b 2c83 9aa0 3285
00000280: 2ee8 1d86 a3e0 af05 a9fc f884 c434 3305
00000290: ea2c 4905 2aca 3605 91dc 2885 2cb9 9c05
000002a0: 4038 f490 1682 2985 4dd3 fd83 d082 9d05
000002b0: 6204 3306 0301 2406 46be f705 72d4 8205
000002c0: 2515 220d 4c04 d285 1eb5 6604 4b28 4906
000002d0: 99f9 310e bbe6 0a0c 0968 591e 4805 7c92
000002e0: 5eef cc95 89d3 079b 9a16 c792 0186 278d
000002f0: 5776 d18f b197 0885 0353 a285 988c 0e02
00000300: 1587 d204 d41f 8485 7965 1085 cc04 7085
00000310: 03e6 9b85 75a5 0c84 9516 4183 aace cb81
00000320: 1508 a701 e244 0080 8211 1081 f7bf 0403
00000330: 58e4 3081 5d56 3280 0ffa 8d02 6d4f d305
00000340: d0e7 bd86 3752 5506 79f6 1b86 7362 6286
00000350: e4f3 2406 a822 6285 194d 2506 2bf3 d905
00000360: ddbd 8318 a27a b496 ea38 9396 0c33 6c98
00000370: fa87 c797 e7b0 4516 ad11 ec97 b85f 3f19
00000380: 589a 1c97 9b23 1c0a 5616 ab87 ba48 a78a
00000390: 6033 120c 8db3 210b f586 260c 2745 6889
000003a0: d05c ac0a 1db4 238b 467f 0533 232c 2fb9
000003b0: 8cba dab4 7d91 8bb3 378c e0b9 5bc7 b3b8
000003c0: 6ce7 9630 c3ab 4ab9 13fe 1fba bd5c 5795
000003d0: ad52 a68a e2f9 7096 b4f4 4294 e1a5 3815
000003e0: 5791 9f17 2fbf 3d16 f70f c995 2626 d614
000003f0: d1dc c316 a6ec a517 ca12 3817 e30f f1a5

0.conv4.bias f4 [48]
-3.658225e-18 -4.360952e-06 -0.024999963 -0.0068043624 -0.0005293789 0.04277385 0.61686647 -0.0006226763
0.33486915 -0.02635736 0.5076474 0.26660395 -8.1568055e-17 -0.0018319864 -0.011302434 -0.029626623
2.2200264e-19 0.43087503 -0.0006947032 0.37363824 -0.019869901 0.3998986 -0.0008861651 -0.026155002
-0.00043655804 0.6325097 -0.010177472 -0.0025912067 -0.011554467 -0.0012844611 -9.837525e-18 0.008696332
0.00023378801 -0.012127174 0.23596917 -0.015305043 -0.0030295206 -0.0059081605 -0.022582242 -0.022634877
0.14413393 0.2837779 0.0023604147 -0.0040978636 -1.247658e-06 0.008810727 0.3695885 -0.03267603
00000000: f5f6 86a2 4b54 92b6 b9cc ccbc 21f7 debb
00000010: 04c6 0aba a233 2f3d f6ea 1d3f 193b 23ba
00000020: f873 ab3e 64eb d7bc 2ef5 013f 5080 883e
00000030: 4815 bca4 431f f0ba d82d 39bc 88b3 f2bc
00000040: 170c 8320 a79b dc3e be1c 36ba 834d bf3e
00000050: 34c6 a2bc 82bf cc3e 884d 68ba 0443 d6bc
00000060: d4e1 e4b9 28ec 213f 69bf 26bc 3cd1 29bb
00000070: f24e 3dbc 5d5b a8ba 6678 35a3 0f7b 0e3c
00000080: fe24 7539 0eb1 46bc e7a1 713e 01c2 7abc
00000090: ec8a 46bb 3e99 c1bb 65fe b8bc c76c b9bc
000000a0: d897 133e 564b 913e 30b1 1a3b 5f47 86bb
000000b0: 3475 a7b5 de5a 103c b43a bd3e 4dd7 05bd

0.conv5.weight f4 [96, 48, 3, 3]
-0.0344034 -0.04623867 -0.016844433 -0.0093075475 -0.028721768 1.0988538e-05 0.019943055 -0.0014356017
0.013492426 0.015483956 0.016521435 -0.007169152 -0.018416544 -0.026739132 -0.020054579 -0.03274489
-0.045210764 -0.023874545 0.023957986 0.03170921 0.0022750837 0.013476943 0.051318455 -0.02882766
-0.014356541 0.0019185175 -0.002717099 -0.008923591 -0.0005403204 -0.009735316 -0.0011493142 -0.0062819505
-0.0073271054 0.0025839894 0.0042326534 0.002086544 0.0023153091 0.0008955354 -0.010931135 -0.0039317687
-0.001197086 0.02163133 0.004951558 0.010973298 -0.002392498 0.044011336 0.023105199 0.04034314
0.07430272 0.06705436 -0.018890267 0.002049935 0.020527145 0.03622609 0.03435927 0.08902754
0.030977435 -0.031926233 -0.26158118 0.1544226 0.101325385 -0.04010623 -0.21874584 -0.0066430606
0.031886358 0.04329146 -0.11884391 0.06160953 0.023257975 -0.028145079 -0.05099159 -0.061623376
-0.037220635 -0.0044921627 -0.13610367 -0.0055751693 0.1599673 -0.016939757 -0.07967328 -0.1533701
0.037508436 0.006760977 0.041580554 0.02590643 0.041417338 0.017315548 0.00863384 -0.08828038
-0.041924287 -0.05690414 0.004925223 -0.17319657 0.058529608 -0.0016257936 -0.058410194 0.25002488
-0.0005795952 -0.279416 -0.047582213 -0.009080025 -0.08024265 0.0115323765 -0.055154614 0.20179263
0.001332831 -0.070945404 0.08024678 -0.1894627 -0.006106261 -0.03613184 -0.009598323 0.006347173
-0.024123192 -0.121121004 -0.05073353 0.00015566418 -0.04234323 -0.0007267984 -0.011822166 0.012743495
0.030633755 0.009104099 0.110243134 0.03874368 0.04395793 0.08068113 -0.003925193 0.0043549477
-0.007319612 0.0016939375 0.05367873 0.0010169685 -0.0072970847 -0.0016886712 -0.0072285505 0.02896564
0.0474364 0.03399994 0.036300845 0.042365722 0.043225702 0.031393964 0.0413974 0.02629647
-0.026461048 -0.26239318 0.019812223 -0.009428116 -0.065319 -0.017975837 -0.012854299 -0.0026318624
0.019862315 0.04502492 -0.047620364 -0.003955758 0.103170484 -0.1637557 0.08521779 -0.08382765
-0.08990747 0.22281691 -0.0016274571 0.057187293 0.010704098 -0.06216201 -0.012642035 -0.019407252
-0.17819698 -0.09827356 -0.0751566 -0.03011718 -0.04057052 -0.0997371 0.09394973 0.12846686
0.3804778 0.08088392 -0.112590745 0.017870981 0.00014609705 -0.001102306 0.0003507052 0.00025216883
-0.00028886122 0.001064401 0.004997257 -0.001477426 0.00031976448 -0.032046366 0.0027474437 -0.07552857
0.038609114 -0.00474681 -0.0140578905 0.050544143 -0.024038773 0.029836351 0.009108313 -0.033084713
0.0029128252 0.0056451643 -0.005134582 0.025862379 -0.038318884 -0.062051725 -0.018887132 -0.014081456
0.021754382 -0.00028469402 -0.009987837 0.019750096 0.008287578 -0.015366542 0.012035733 0.0013505701
0.031764075 0.033626795 0.04869091 0.02503735 0.09489988 -0.012337731 -0.33911029 -0.118688
-0.10802271 0.027912892 0.1013171 0.06452978 0.19408001 -0.31197006 -0.1240675 -0.06423605
-0.14571138 0.07556637 -0.052392483 0.08604157 -0.091083184 -0.0026506197 0.16420877 0.008465938
0.018248063 -0.1486812 0.25828317 0.0385588 0.091302656 -0.08459494 -0.029379593 -0.05692035
-0.0006209798 -0.0943185 -0.0067917085 -0.059788372 0.016951164 0.010774266 -0.009244913 0.0003144541
00000000: 94ea 0cbd c264 3dbd 56fd 89bc af7e 18bc
00000010: ea49 ebbc 695b 3837 9e5f a33c cd2a bcba
00000020: 560f 5d3c 6bb0 7d3c f657 873c 35eb eabb
00000030: 4bde 96bc 060c dbbc 8049 a4bc 811f 06bd
00000040: ec2e 39bd 8d94 c3bc 8a43 c43c 84e1 013d
00000050: 9219 153b 65ce 5c3c 4d33 523d fc27 ecbc
00000060: b337 6bbc c476 fb3a 5b11 32bb 4134 12bc
00000070: 4aa4 0dba e080 1fbc 96a4 96ba d2d8 cdbb
00000080: 3718 f0bb 2658 293b 12b2 8a3b 66be 083b
00000090: 71bc 173b 5dc2 6a3a 8118 33bc 11d6 80bb
000000a0: 8ae7 9cba 3034 b13c ae40 a23b 59c9 333c
000000b0: 75cb 1cbb 3b45 343d 1d47 bd3c d93e 253d
000000c0: 062c 983d cc53 893d c3bf 9abc 3458 063b
000000d0: 8b28 a83c cf61 143d 4ebc 0c3d 1254 b63d
000000e0: 64c4 fd3c 15c5 02bd f8ed 85be f520 1e3e
000000f0: af83 cf3d 6e46 24bd e9fe 5fbe 08ae d9bb
00000100: 459b 023d 6352 313d 7064 f3bd 465a 7c3d
00000110: 8287 be3c 8290 e6bc 8fdc 50bd cb68 7cbd
00000120: aa74 18bd fe32 93bb c35e 0bbe e9af b6bb
00000130: 78ce 233e 3fc5 8abc bf2b a3bd 0d0d 1dbe
00000140: 72a2 193d 308b dd3b 5f50 2a3d b939 d43c
00000150: 3aa5 293d 56d9 8d3c f374 0d3c 58cc b4bd
00000160: cdb8 2bbd 5114 69bd c463 a13b 715a 31be
00000170: bebc 6f3d 9518 d5ba 873f 6fbd 4303 803e
00000180: faef 17ba 9d0f 8fbe 91e5 42bd 63c4 14bc
00000190: 4256 a4bd 4bf2 3c3c cee9 61bd baa2 4e3e
000001a0: 63b2 ae3a d34b 91bd 6c58 a43d 8302 42be
000001b0: 0817 c8bb fbfe 13bd 4942 1dbc f2fb cf3b
000001c0: 009e c5bc 4a0e f8bd f6cd 4fbd c939 2339
000001d0: 1870 2dbd 9d86 3eba c2b1 41bc 18ca 503c
000001e0: a4f3 fa3c 5c29 153c 27c7 e13d b1b1 1e3d
000001f0: 3b0d 343d 263c a53d e89e 80bb f3b3 8e3b
00000200: 5bd9 efbb 1c07 de3a 3ade 5b3d cd4b 853a
00000210: 621c efbb 6756 ddba 7add ecbb 5a49 ed3c
00000220: ac4c 423d 8543 0b3d 32b0 143d ae87 2d3d
00000230: 6f0d 313d f596 003d 5290 293d b26b d73c
00000240: d7c4 d8bc 6658 86be 3e4d a23c 6278 1abc
00000250: f8c5 85bd 1042 93bc d69a 52bc 537b 2cbb
00000260: 4bb6 a23c 0d6c 383d 920d 43bd 4e9f 81bb
00000270: 0c4b d33d 93af 27be aa86 ae3d d5ad abbd
00000280: 6821 b8bd 1e2a 643e 6650 d5ba 393d 6a3d
00000290: 3e60 2f3c 989d 7ebd 8a20 4fbc f5fb 9ebc
000002a0: 4579 36be a643 c9bd b4eb 99bd 4eb8 f6bc
000002b0: 462d 26bd f742 ccbd b768 c03d d18c 033e
000002c0: fccd c23e 78a6 a53d fa95 e6bd 2a66 923c
000002d0: a131 1939 407b 90ba dbde b739 8735 8439
000002e0: 4c72 97b9 5f83 8b3a 08c0 a33b 31a6 c1ba
000002f0: 10a6 a739 0d43 03bd 750e 343b b9ae 9abd
00000300: 9724 1e3d 218b 9bbb 1153 66bc 6007 4f3d
00000310: f6ec c4bc 5d6b f43c 093b 153c d683 07bd
00000320: 19e5 3e3b 12fb b83b ff3f a8bb 57dd d33c
00000330: 43f4 1cbd f329 7ebd 30b9 9abc e8b5 66bc
00000340: 3f36 b23c fc42 95b9 06a4 23bc f4ca a13c
00000350: 9fc8 073c f3c3 7bbc 8631 453c 9d05 b13a
00000360: 0c1b 023d 40bc 093d 1f70 473d 211b cd3c
00000370: de5a c23d 3224 4abc dd9f adbe b212 f3bd
00000380: 033b ddbd 94a9 e43c 577f cf3d 3028 843d
00000390: e9bc 463e 8aba 9fbe 1a17 febd 318e 83bd
000003a0: 5d35 15be 8ac2 9a3d 8099 56bd 9036 b03d
000003b0: d289 babd 05b6 2dbb 5826 283e b8b4 0a3c
000003c0: f67c 953c e23f 18be b13d 843e d5ef 1d3d
000003d0: e3fc ba3d 1d40 adbd 79ad f0bc 5025 69bd
000003e0: 40c9 22ba 0f2a c1bd fb8c debb a7e4 74bd
000003f0: 2bdd 8a3c 8c86 303c fa77 17bc 51dd a439

0.conv5.bias f4 [96]
-0.018213732 0.43731263 0.05873556 -0.15391158 -0.06403137 -0.15612896 0.077396244 0.1284792
0.055718105 -0.0714745 0.0035257523 0.1076409 -0.15230142 -0.016308013 -0.10725998 0.20140684
-0.021518355 1.2458099 0.2376691 0.0398625 0.17068695 0.08720168 0.12226606 0.32384804
-0.074675195 -0.032314997 0.051692 0.15141526 0.2077661 0.24163276 0.2672599 0.07390289
0.19735594 -0.07486707 -0.22200184 -0.023976725 -0.0024663967 -0.07875837 -0.17920062 0.042226087
0.24433675 0.14493667 -0.104275696 0.063561566 0.22402915 0.11008613 0.034594618 -0.2067205
0.1231742 -0.15732789 0.0762749 -0.2495236 -0.24185528 -0.107587084 0.053172298 -0.23070405
0.03158761 -0.045374356 -0.62508726 0.008939905 0.025886742 0.06920764 0.022285497 0.068664715
-0.27554497 -0.42749608 0.12326396 0.06940034 -0.01414259 0.21032865 -0.11319941 0.18487315
0.12420199 -0.05241101 -0.1558811 0.2242281 0.15236259 0.00366653 -0.035382703 0.47629035
-0.089060545 0.3119688 0.13760553 -0.11870513 -0.02078976 0.061065637 -0.008134619 -0.29054493
-0.116930306 0.18123092 0.034299396 0.40429127 0.19588381 -0.024385279 0.105943605 -0.055069856
00000000: f734 95bc 71e7 df3e b394 703d ff9a 1dbe
00000010: e122 83bd 45e0 1fbe ec81 9e3d 0d90 033e
00000020: ab38 643d 3961 92bd 4f10 673b d572 dc3d
00000030: e7f4 1bbe 6298 85bc 1fab dbbd 983d 4e3e
00000040: 4347 b0bc b376 9f3f 875f 733e dc46 233d
00000050: 8fc8 2e3e cb96 b23d a166 fa3d 69cf a53e
00000060: 4fef 98bd bb5c 04bd feba 533d 9a0c 1b3e
00000070: a3c0 543e 946e 773e 4ad6 883e 665a 973d
00000080: ad17 4a3e e853 99bd 7354 63be d66a c4bc
00000090: 45a3 21bb 114c a1bd 5e80 37be 43f5 2c3d
000000a0: 6a33 7a3e 476a 143e 7f8e d5bd 912c 823d
000000b0: e667 653e d674 e13d 16b3 0d3d 8aae 53be
000000c0: c142 fc3d 901a 21be 0436 9c3d 1d83 7fbe
000000d0: e9a8 77be 9e56 dcbd 32cb 593d af3d 6cbe
000000e0: 0262 013d 76da 39bd b805 20bf ae78 123c
000000f0: 6f10 d43c bcbc 8d3d 1390 b63c 16a0 8c3d
00000100: 3b14 8dbe c4e0 dabe d171 fc3d c421 8e3d
00000110: 52b6 67bc 6560 573e 18d5 e7bd 634f 3d3e
00000120: 9d5d fe3d edac 56bd 4c9f 1fbe 0d9c 653e
00000130: f004 1c3e 2a4a 703b 74ed 10bd 54dc f33e
00000140: 6065 b6bd 60ba 9f3e 77e8 0c3e ad1b f3bd
00000150: 494f aabc f61f 7a3d 1147 05bc 4ec2 94be
00000160: 2879 efbd 9994 393e 867d 0c3d 44ff ce3e
00000170: c495 483e a3c3 c7bc f6f8 d83d ee90 61bd

0.res1.conv1.weight f4 [6, 6, 3, 3]
-0.025094192 -0.031564403 -0.03144346 -0.07008344 -0.27675802 -0.2163558 -0.24078393 -0.18041852
0.0006666159 -0.14748369 0.12720332 -0.07321823 0.09949001 0.33257136 -0.025630685 0.07956699
0.08346668 0.16965467 -0.040816404 -0.024357993 0.011158477 -0.09586413 -0.030785609 -0.009208538
-0.26566797 -0.13619854 0.024724606 0.05604282 -0.029736029 0.12997012 -0.07793355 -0.22187364
0.02855258 -0.20250525 -0.3367297 -0.0103555685 -0.12334471 0.072390616 -0.10479621 0.36246476
0.77543586 0.112775736 -0.0064449115 0.6358089 -0.31889698 -0.26058283 -0.1825164 -0.12107092
-0.13872476 -0.16720366 -0.07321449 -0.2040402 -0.15549366 -0.18351552 -0.28276598 -0.22594233
0.029517928 0.058814622 1.1343795 1.3870445 -0.10465584 0.059606846 -0.13020898 0.13344173
0.04398651 -0.27769816 -0.10563232 -0.22814298 -0.2787323 -0.13174644 -0.1445176 -0.07234671
-0.55593824 -0.35228726 -0.00934676 -0.25201905 -0.10335971 0.06707483 -0.005336186 0.052557595
0.22449449 -0.13726842 -0.1925427 -0.100934245 -0.22036135 -0.25330117 0.017463157 -0.1587375
-0.14490657 0.2587399 -0.1837446 0.59564555 -0.054816667 0.19649403 1.2527206 0.27589262
-0.21561825 0.004730772 -0.48634288 -0.031217353 0.14550477 0.078343906 0.18652086 0.32063177
0.070391715 0.069011554 0.10435574 -0.07120035 0.29296818 0.045668416 0.111086644 -0.009796911
-0.55691755 -0.44579396 0.17453429 -0.09245373 0.028954046 -0.094553664 -0.08673021 -0.08565519
-0.124957584 -0.05574496 -0.056442652 -0.060537275 -0.08354323 0.02374126 0.18886161 0.20531416
0.06751556 0.30023533 0.3851715 0.077530526 0.033776257 0.02532076 -0.05123787 -0.30113098
-0.24152339 -0.34731385 -0.4126201 -0.43567643 -0.49505457 -0.38440317 -0.3810271 -0.37388352
-0.27944157 -0.3591325 0.005546006 -0.29866242 -0.22804822 -0.13537575 -0.057071123 -0.19961059
-0.041346565 -0.07509748 0.001269787 0.025261823 -0.002885273 0.042725574 0.03283143 -0.013555379
-0.017936002 0.00046569548 0.4480516 0.08568314 0.1740557 0.25640762 0.13124618 0.29206932
0.24658504 0.1757948 0.2885591 0.048234455 0.009248847 0.019137107 0.011648198 -0.016537867
-0.030284496 -0.0027675536 -0.0118412385 -0.03678488 0.07957999 0.24204987 0.10087461 0.28946897
0.38071892 0.23486844 0.23364215 0.3875984 0.3375009 0.075419724 0.07261776 0.05644775
0.27988416 0.19436719 0.0048187403 0.27214035 0.3055814 0.24769865 -0.2513929 -0.3423059
-0.10764951 -0.13556916 -0.121373035 -0.014941177 -0.37064445 -0.33702838 -0.1825782 -0.013933234
0.06512808 0.026329048 0.021219453 0.11874038 0.14533125 -0.039018527 0.00077038055 0.068606935
-0.220707 -0.16559747 -0.12643558 -0.07012744 -0.07345842 -0.12076173 -0.074060515 0.026510153
0.13901597 -0.004490784 0.10594745 -0.024459394 0.026801165 0.29459217 0.04382109 -0.0066741407
0.020185184 0.029309325 0.04864802 0.21934171 -0.44178754 -0.015872473 0.107786626 -0.501348
0.12813167 0.38201427 0.06432679 0.11646515 0.20271109 0.05512811 -0.052532215 0.013426222
-0.46614435 0.027986864 0.19216011 0.010468031 -0.14875312 -0.07765886 -0.006284774 0.23904689
00000000: 5692 cdbc ad49 01bd dcca 00bd e887 8fbd
00000010: 3ab3 8dbe 608c 5dbe 1090 76be a2bf 38be
00000020: d6bf 2e3a f705 17be 9641 023e 70f3 95bd
00000030: 6bc1 cb3d cb46 aa3e 71f7 d1bc 05f4 a23d
00000040: 94f0 aa3d f4b9 2d3e 1a2f 27bd 6a8a c7bc
00000050: 0bd2 363c 6a54 c4bd 1a32 fcbc 68df 16bc
00000060: a205 88be a177 0bbe 428b ca3c 288d 653d
00000070: f998 f3bc e316 053e a09b 9fbd d832 63be
00000080: 1ae7 e93c 895d 4fbe d667 acbe 67aa 29bc
00000090: 279c fcbd 8841 943d 659f d6bd fb94 b93e
000000a0: f782 463f f7f6 e63d d62f d3bb 5fc4 223f
000000b0: 7746 a3be 1d6b 85be 94e5 3abe 08f4 f7bd
000000c0: dd0d 0ebe 7037 2bbe 7bf1 95bd eaef 50be
000000d0: bb39 1fbe 7eeb 3bbe b4c6 90be 6d5d 67be
000000e0: 95cf f13c 9ae7 703d 5933 913f ad8a b13f
000000f0: cd55 d6bd 4f26 743d 8155 05be f3a4 083e
00000100: 332b 343d 742e 8ebe c255 d8bd 509e 69be
00000110: 00b6 8ebe 8ae8 06be 6cfc 13be 832a 94bd
00000120: f851 0ebf ff5e b4be 2723 19bc a408 81be
00000130: 41ae d3bd 875e 893d 2cdb aebb a246 573d
00000140: e2e1 653e 1890 0cbe ea29 45be 9db6 cebd
00000150: 68a6 61be b1b0 81be e50e 8f3c 158c 22be
00000160: 6362 14be 8e79 843e 8b27 3cbe 3a7c 183f
00000170: 7187 60bd bb35 493e 2659 a03f cc41 8d3e
00000180: 08cb 5cbe 9804 9b3b ef01 f9be 89bb ffbc
00000190: 34ff 143e c572 a03d 53ff 3e3e d929 a43e
000001a0: 8829 903d ee55 8d3d 76b8 d53d 7dd1 91bd
000001b0: edff 953e ce0e 3b3d 6581 e33d 3983 20bc
000001c0: 2692 0ebf 1b3f e4be 1eb9 323e 6258 bdbd
000001d0: 0931 ed3c 5aa5 c1bd 9c9f b1bd fd6b afbd
000001e0: c3e9 ffbd d454 64bd 6930 67bd eff5 77bd
000001f0: b718 abbd 087d c23c f064 413e e03d 523e
00000200: 9945 8a3d 72b8 993e 3335 c53e 53c8 9e3d
00000210: f958 0a3d 7c6d cf3c cdde 51bd d72d 9abe
00000220: e851 77be 1fd3 b1be f142 d3be fb10 dfbe
00000230: cb77 fdbe 7ed0 c4be fc15 c3be a96d bfbe
00000240: f712 8fbe 37e0 b7be 45bb b53b 48ea 98be
00000250: 7985 69be f19f 0abe 69c3 69bd b866 4cbe
00000260: 045b 29bd b5cc 99bd fb6e a63a e2f1 ce3c
00000270: d916 3dbb 0301 2f3d 407a 063d 6117 5ebc
00000280: 86ee 92bc 9728 f439 0567 e53e a47a af3d
00000290: a83b 323e dc47 833e 6665 063e 1c8a 953e
000002a0: ca80 7c3e 8d03 343e 05be 933e 7e91 453d
000002b0: 7a88 173c 6cc5 9c3c 15d8 3e3c 6c7a 87bc
000002c0: 3117 f8bc d85f 35bb c101 42bc beab 16bd
000002d0: d5fa a23d ecdb 773e 5997 ce3d 4735 943e
000002e0: 97ed c23e 5a81 703e e33f 6f3e 4c73 c63e
000002f0: ebcc ac3e a875 9a3d 9fb8 943d c235 673d
00000300: fa4c 8f3e 3108 473e 86e6 9d3b fb55 8b3e
00000310: 2a75 9c3e b7a4 7d3e 92b6 80be b842 afbe
00000320: 5977 dcbd a4d2 0abe 6d92 f8bd d7cb 74bc
00000330: 1cc5 bdbe fc8e acbe c8f5 3abe 3848 64bc
00000340: df61 853d 04b0 d73c 6bd4 ad3c 282e f33d
00000350: b7d1 143e e4d1 1fbd 5df3 493a cb81 8c3d
00000360: 0401 62be 6292 29be 5478 01be fa9e 8fbd
00000370: 5e71 96bd ed51 f7bd 0aad 97bd d22b d93c
00000380: 345a 0e3e 6d27 93bb fafa d83d 115f c8bc
00000390: 1e8e db3c c9d4 963e be7d 333d c0b2 dabb
000003a0: 665b a53c 1c1a f03c 2543 473d 1d9b 603e
000003b0: fa31 e2be fd06 82bc 3cbf dc3d 5858 00bf
000003c0: f334 033e 6097 c33e c4bd 833d 4885 ee3d
000003d0: 7f93 4f3e 03ce 613d 052c 57bd a8f9 5b3c
000003e0: 79aa eebe b544 e53c 9fc5 443e 1b82 2b3c
000003f0: bd52 18be 9c0b 9fbd 81f0 cdbb b5c8 743e

0.res1.conv1.bias f4 [6]
6.48612e-06 -4.736737e-05 -7.75045e-06 -7.1614486e-06 -2.8207367e-05 3.8283756e-06
00000000: 59a3 d936 54ac 46b8 ee07 02b7 604c f0b6
00000010: dc9e ecb7 7f75 8036

0.res1.conv2.weight f4 [6, 6, 3, 3]
-0.13964377 -0.18473487 0.08248087 -0.19374591 -0.32411844 -0.16950873 -0.07842615 -0.14911255
0.084199905 -0.032127455 0.00921818 0.047591746 -0.6344844 -0.29303613 0.00012208462 -0.029902305
0.0913421 0.10855872 0.3746679 0.2715403 0.09069232 0.3512297 0.34896663 0.10861619
0.25524965 0.034195065 -0.031226816 -0.18469065 -0.061990492 -0.109942935 -0.08170139 -0.017204253
-0.079180874 -0.041028276 -0.01722878 -0.09571938 -0.23214991 -0.16483359 -0.050568353 -0.2029731
-0.1775614 -0.09482889 -0.19904807 -0.11362547 0.13215816 -0.4398614 -0.058785647 -0.3831588
-0.034934722 0.9105396 0.042944714 -0.5262168 -0.04995093 -0.3137766 0.24866325 0.14875212
0.28966323 -0.012064233 -0.2964486 -0.16659243 -0.0031685082 -0.22004732 -0.0039475556 0.26244974
0.18491471 0.24355657 0.12519845 -0.06051464 -0.09830092 0.065092795 -0.2296758 -0.25148982
-0.002971588 0.057195082 -0.034504592 -0.011571541 -0.01501581 -0.0028323918 -0.008288737 -0.012106082
-0.030601524 -0.00019199002 -0.0036362826 -0.03592443 -0.010976172 0.018655423 -0.09437638 0.13775225
0.17102982 0.062064018 0.2320565 -0.0109665925 0.23074865 -0.15958038 -0.55974686 -0.17420793
-0.15683448 -0.5571189 -0.26475742 -0.32564357 -0.057724033 -0.12480895 -0.051475424 0.40321273
0.48635197 -0.07200667 0.24076778 0.15453123 0.16619326 -0.32135627 -0.08370563 0.1511688
-0.9314131 -0.07905462 0.27963367 0.03209708 0.124373496 0.20662364 0.12631555 0.08772806
0.017240703 -0.53099966 0.011859848 0.14455596 -0.26520917 0.1669341 -0.05479508 0.043516204
-0.053572353 0.013537453 0.12253972 0.029265082 -0.18549109 0.034862593 -0.13313428 0.033310242
0.14637502 0.085830554 0.04888575 0.17920987 0.054867364 -0.017125817 0.02473652 -0.03374785
0.2148271 0.18521354 0.3797809 -0.31398448 -0.15691538 0.33445665 0.23135884 0.003712572
0.33789998 -0.052555896 0.1257276 -0.11143503 -0.025904315 0.40432447 -0.10633462 -0.13746151
0.07727466 -0.115266405 0.14072739 0.33435768 0.33578312 0.17065541 0.43727684 0.2795159
-0.32379702 0.24107224 -0.21202153 -0.102802865 -0.14287424 -0.14899117 -0.13373126 -0.5106771
-0.050605744 -0.1910398 -0.18498932 -0.07925759 -0.24602401 -0.2562728 -0.14188325 -0.33550304
-0.30468655 -0.17533985 -0.12910572 -0.17108136 -0.056542914 -0.65880173 -0.6523671 -0.3056217
-0.52145875 -0.45045698 -0.25994545 0.060482573 -0.0020604283 0.07746077 -0.1627017 -0.22551313
-0.1602547 0.3244514 0.16414933 0.11793701 -0.09514933 -0.19739811 -0.36322972 -0.085657954
-0.03836137 -0.05052824 -0.024567733 0.12251146 0.018795095 0.01994092 0.16365607 0.036236525
-0.21073093 -0.7014675 -0.25601655 -0.2491545 -0.5545116 -0.30959815 0.032820817 -0.083763234
0.040663168 0.127682 0.06133592 0.18773246 -0.34220994 -0.72075814 -0.13562302 -0.16868508
-0.38764924 0.026988138 0.04164139 -0.049842503 0.005167478 -0.06153627 -0.18655996 -0.047429815
-0.046452116 -0.07947309 -0.035408758 -0.031450495 -0.0089859255 0.22753058 -0.21669742 -0.2018204
-0.15297118 -0.020593664 -0.009442799 -0.017966384 0.055382036 -0.19375357 0.1304217 0.050957046
00000000: c7fe 0ebe 232b 3dbe bbeb a83d 5465 46be
00000010: daf2 a5be b293 2dbe e49d a0bd f6b0 18be
00000020: 0071 ac3d 1498 03bd d907 173c 90ef 423d
00000030: 926d 22bf d508 96be d703 0039 aef5 f4bc
00000040: 9111 bb3d 0954 de3d 79d4 bf3e 5507 8b3e
00000050: e5bc b93d 61d4 b33e c1ab b23e 2a72 de3d
00000060: 15b0 823e 2010 0c3d 61cf ffbc 8c1f 3dbe
00000070: bee9 7dbd c329 e1bd 0f53 a7bd efef 8cbc
00000080: 9529 a2bd 440d 28bd 5f23 8dbc 8608 c4bd
00000090: b5b8 6dbe 23ca 28be c320 4fbd 2ed8 4fbe
000000a0: a8d2 35be a635 c2bd 42d3 4bbe 78b4 e8bd
000000b0: 7854 073e 8335 e1be 38c9 70bd 642d c4be
000000c0: b617 0fbd 2019 693f cce6 2f3d 25b6 06bf
000000d0: 5999 4cbd 54a7 a0be 94a1 7e3e 7a52 183e
000000e0: bd4e 943e 10a9 45bc 1cc8 97be 3597 2abe
000000f0: bfa6 4fbb 1654 61be 7f5a 81bb d05f 863e
00000100: 485a 3d3e e566 793e 0634 003e 33de 77bd
00000110: fe51 c9bd 5f4f 853d 2230 6bbe 46c3 80be
00000120: f9be 42bb 6445 6a3d b054 0dbd 9096 3dbc
00000130: df04 76bc a69f 39bb 7ccd 07bc 9758 46bc
00000140: 0cb0 fabc ee50 49b9 b34e 6ebb 7f25 13bd
00000150: 67d5 33bc 42d3 983c 6748 c1bd ed0e 0d3e
00000160: 7122 2f3e d736 7e3d 38a0 6d3e 39ad 33bc
00000170: 6049 6c3e 0a69 23be 924b 0fbf 9063 32be
00000180: 3899 20be 589f 0ebf 498e 87be c1ba a6be
00000190: 0970 6cbd d69b ffbd e5d7 52bd e671 ce3e
000001a0: 2003 f93e 3c78 93bd d48b 763e 6f3d 1e3e
000001b0: 912e 2a3e cf88 a4be db6d abbd fecb 1a3e
000001c0: 1771 6ebf 63e7 a1bd 252c 8f3e 3a78 033d
000001d0: 88b7 fe3d 2695 533e dd58 013e c5aa b33d
000001e0: 603c 8d3c 98ef 07bf cf4f 423c 7a06 143e
000001f0: 7fc9 87be c6f0 2a3e ce70 60bd 0c3e 323d
00000200: af6e 5bbd 31cc 5d3c 1bf6 fa3d 53bd ef3c
00000210: 60f1 3dbe 14cc 0e3d 5a54 08be 5270 083d
00000220: 55e3 153e eec7 af3d 6d3c 483d cb82 373e
00000230: 9abc 603d 714b 8cbc 3ea4 ca3c 303b 0abd
00000240: a3fb 5b3e 9ea8 3d3e a472 c23e 93c2 a0be
00000250: 6dae 20be e73d ab3e 55e9 6c3e 9f4e 733b
00000260: 3a01 ad3e da44 57bd bcbe 003e 0d38 e4bd
00000270: 4935 d4bc 9e03 cf3e f7c5 d9bd b6c2 0cbe
00000280: 2d42 9e3d cb10 ecbd d71a 103e ee30 ab3e
00000290: c4eb ab3e 4bc0 2e3e c0e2 df3e b51c 8f3e
000002a0: b9c8 a5be a4db 763e 2c1c 59be 4f8a d2bd
000002b0: a04d 12be 2491 18be d9f0 08be bcbb 02bf
000002c0: f847 4fbd f09f 43be d76d 3dbe ce51 a2bd
000002d0: b8ed 7bbe 3036 83be d849 11be 0ec7 abbe
000002e0: e0ff 9bbe 4a8c 33be 4a34 04be f42f 2fbe
000002f0: 8b99 67bd 3ba7 28bf 8801 27bf 737a 9cbe
00000300: 527e 05bf 4ca2 e6be 9217 85be 93bc 773d
00000310: 4008 07bb c1a3 9e3d 469b 26be eaec 66be
00000320: cf19 24be 7e1e a63e c316 283e f688 f13d
00000330: a7dd c2bd bb22 4abe 3ff9 b9be 706d afbd
00000340: d020 1dbd b3f6 4ebd 4542 c9bc 4ae7 fa3d
00000350: 2cf8 993c 245b a33c 7595 273e c06c 143d
00000360: d9c9 57be 6093 33bf 9a14 83be 5b22 7fbe
00000370: 79f4 0dbf a683 9ebe 1f6f 063d 0f8c abbd
00000380: 6c8e 263d 12bf 023e 603b 7b3d f03c 403e
00000390: 2436 afbe 9b83 38bf c3e0 0abe c8bb 2cbe
000003a0: f679 c6be 3a16 dd3c 2a90 2a3d a727 4cbd
000003b0: f353 a93b 750d 7cbd 9309 3fbe c445 42bd
000003c0: 9344 3ebd cac2 a2bd c608 11bd 3cd2 00bd
000003d0: b439 13bc c7fd 683e eee5 5dbe 02aa 4ebe
000003e0: 7aa4 1cbe 0bb4 a8bc f8b5 1abc 3d2e 93bc
000003f0: 46d8 623d 5667 46be 448d 053e 56b8 503d

0.res1.conv2.bias f4 [6]
1.49363605e-05 -1.4658534e-05 1.9354744e-05 -8.24192e-06 4.7807916e-05 2.847281e-05
00000000: 2e97 7a37 eded 75b7 ff5b a237 c746 0ab7
00000010: 5c85 4838 e5d8 ee37

0.res1.batch_norm1.weight f4 [6]
1.1655626 1.1103786 0.66797245 0.42865527 1.1082984 0.56677043
00000000: 2831 953f e320 8e3f 3e00 2b3f b478 db3e
00000010: b9dc 8d3f de17 113f

0.res1.batch_norm1.bias f4 [6]
-0.07872834 0.033923328 -0.32863504 -0.04232185 -0.8591763 0.4471194
00000000: 533c a1bd 30f3 0a3d da42 a8be ad59 2dbd
00000010: faf2 5bbf d6ec e43e

0.res1.batch_norm1.running_mean f4 [6]
-0.034425598 0.7617033 -2.6598203 1.6495765 0.6507433 -1.9616603
00000000: db01 0dbd fdfe 423f 7f3a 2ac0 5325 d33f
00000010: 1d97 263f af17 fbbf

0.res1.batch_norm1.running_var f4 [6]
6.955996 12.57006 10.538012 17.788578 0.9369634 3.483811
00000000: 8597 de40 f71e 4941 b29b 2841 024f 8e41
00000010: d5dc 6f3f c2f6 5e40

0.res1.batch_norm2.weight f4 [6]
0.3069547 0.048328344 0.23591624 0.39783433 0.5431038 0.2720739
00000000: 2b29 9d3e f1f3 453d 0794 713e f1b0 cb3e
00000010: da08 0b3f 454d 8b3e

0.res1.batch_norm2.bias f4 [6]
-0.2722218 -0.06628129 0.35485348 -0.24507965 -0.050893772 -0.70507836
00000000: a860 8bbe 7cbe 87bd 5baf b53e 29f6 7abe
00000010: fd75 50bd 0480 34bf

0.res1.batch_norm2.running_mean f4 [6]
-1.2680724 0.274084 -0.11597726 -0.7211048 -1.1272787 0.8330723
00000000: 3250 a2bf bd54 8c3e 7c85 edbd 539a 38bf
00000010: ab4a 90bf 3a44 553f

0.res1.batch_norm2.running_var f4 [6]
1.4662284 0.97116345 0.64574283 1.1359613 6.3644686 2.6554756
00000000: 5fad bb3f 2b9e 783f 674f 253f 2e67 913f
00000010: baa9 cb40 50f3 2940
