autoencoder/checkpoints/small_classifier/frozen_encoder_classifier_5_epoch40.pth (torch, 971803 bytes, 68 tensors)

0.conv1.weight f4 [6, 3, 3, 3]
00000000: 1cc3 85bc f848 13be 408a c1bc bfaf 82be
00000010: 65e4 e0bd a7ea 22be a9cd ce3c 60f5 843b
00000020: f78c 1bbd c117 7c3e 65f0 283e 3216 453e
00000030: 2d00 053e 8b7b e03d d4a0 403e 38bf 403e
00000040: edca 963e ad72 ab3e af7c 90be 5896 38be
00000050: a690 83bd a26d 90be 0c11 b9be ded6 2ebd
00000060: 6340 fabd ba30 33bd 3c50 1ebe fa75 3cbc
00000070: 4033 323d c11e 863d fab5 c13d ba73 aa3d
00000080: b589 353e 1e3d 783d 115d 303e 3093 893e
00000090: 830e 063c 14d6 1e3e da28 2c3d 634e 3abd
000000a0: a394 bd3d 86b6 7ebd 7cbf 8b3d 67e5 64bd
000000b0: 0e40 933c 17a4 8fbd 405f 22be 49a7 73be
000000c0: edee b8bd 551d a4bd f8f8 30bd 9441 3fbe
000000d0: 3c1b a7bc 3d08 94be 32b9 523d d518 23bd
000000e0: 673f fd3d 8868 4d3d 002e f83d c86d 223d
000000f0: 650a 0fbd 6109 173e 46c6 73bc a939 80bd
00000100: d61c a03d 6257 13be 6cad 76bd 7dcd 383d
00000110: 7027 6e3e d72c aabc 11ad 1a3e 3abe 1c3d
00000120: 73ce 9abd e494 de3d 6ff3 f53d afca 403d
00000130: 0133 8e3e 05ae fd3c 92dc b83d 68ab 843d
00000140: 9de3 653e 38ce 0c3d ae5e 883e a317 2b3e
00000150: 5b3d 563e dc65 3a3e f581 493e 7f48 483e
00000160: 01c2 ffb9 822e 0d3e 68b7 eebd 09f4 b7bd
00000170: 8e47 98be 5061 0cbe 425c fd3d 3e9c e7bd
00000180: 4633 4ebe c810 fabd c5ff a6be 78e7 68bd
00000190: 91fc 413d cc7d 74bd 41cd 133e f379 c93c
000001a0: e7b5 2a3d 17d2 61bd 2725 123d b08e fe3c
000001b0: 70a6 f7ba c92a 6bbd 2a8c bebd 3d9a c7bd
000001c0: 8d74 fcbd fc92 60bd b387 f83b e0d9 7bbd
000001d0: 2c5f eebc 7641 ccbc b51b f93c f262 863d
000001e0: 1e17 ba3d 8566 36be ea5b 4cbe 5ca7 b5bd
000001f0: 9c16 0fbe 866d 20be eed5 8b3d 32d8 07be
00000200: 8557 21be 761d 02be ca1d 31be 157f 2abe
00000210: fddb 63bd 2ad6 2fbe bea3 60be fccc 9fbd
00000220: 41e9 06bd c6ad 6cbd 70ac 86bd bdd6 ab3d
00000230: a382 4fbe fe93 0ebe 7eb7 13be 68f2 95be
00000240: 16d4 4e3d d6cb 093d 8c49 3d3d 5518 c23d
00000250: 26b7 bcbb fc09 49bd 7f13 c3bc a714 efbd
00000260: a5b6 96bd 9162 723e 7f6a ad3e 5a2f 523e
00000270: bdef c33d a50d 4fbe 767a 993d e34d 143e
00000280: 4612 2c3e 5d10 163e
-0.016328387 -0.14383304 -0.023625493 -0.2552471 -0.10981063 -0.15909825 0.02524455 0.0040575713
-0.03797623 0.24618436 0.16497953 0.19246748 0.12988348 0.10961064 0.18811351 0.18822944
0.29451695 0.33485928 -0.28220126 -0.18026102 -0.06424074 -0.28208643 -0.36145818 -0.042685382
-0.12219312 -0.04374764 -0.15460294 -0.011502737 0.043505907 0.065488346 0.094585374 0.08322854
0.17728312 0.06060516 0.17223002 0.26870108 0.008182171 0.15511352 0.042031147 -0.04548491
0.09256866 -0.062185787 0.06823632 -0.055882838 0.01797488 -0.070137195 -0.15856647 -0.23794283
-0.090299465 -0.08013407 -0.043206185 -0.1867736 -0.020398729 -0.28912535 0.051446147 -0.039818604
0.12365609 0.050148517 0.12118149 0.039655477 -0.034922022 0.14749672 -0.014878815 -0.06260998
0.07818 -0.14388803 -0.06022398 0.045117844 0.23257232 -0.020773334 0.15105082 0.03826735
-0.07558908 0.108682424 0.12009322 0.047068294 0.27773288 0.030966768 0.090264454 0.06478006
0.22450109 0.034376353 0.26634735 0.16708235 0.20921843 0.18202919 0.19678481 0.19558905
-0.00048781934 0.13787273 -0.11656076 -0.08982093 -0.29742092 -0.13708997 0.123711124 -0.11309098
-0.20136747 -0.12210232 -0.32617012 -0.05686137 0.047360007 -0.05969028 0.14433767 0.024594283
0.04167738 -0.055131998 0.035679962 0.031073898 -0.0018894207 -0.05741385 -0.09304078 -0.097462155
-0.12326918 -0.054827675 0.007584536 -0.06148708 -0.029098116 -0.024933558 0.03040872 0.06561841
0.090864405 -0.17812546 -0.19956937 -0.08869812 -0.13973469 -0.1566678 0.06827913 -0.13266066
-0.15756042 -0.12706551 -0.1729652 -0.1665004 -0.05562972 -0.17171541 -0.21937463 -0.078027695
-0.032937292 -0.05778291 -0.065758586 0.083905675 -0.20264678 -0.13923642 -0.14425465 -0.29286504
0.05049523 0.03364166 0.046212718 0.09477297 -0.0057591377 -0.049081787 -0.023813007 -0.11673861
-0.073590554 0.23670413 0.33870313 0.20525876 0.09567211 -0.20220049 0.07494061 0.14482836
0.16803846 0.1465468

0.conv1.bias f4 [6]
00000000: 794f 8ebc 43ab 133f c557 c83e a77e b73e
00000010: f314 1abf c01b 9b3e
-0.01737188 0.576832 0.39129463 0.35838816 -0.60188216 0.3029461

0.conv2.weight f4 [12, 6, 3, 3]
00000000: 9cfa 8307 07c6 8da4 d160 5bab 2569 a19e
00000010: 5943 ada1 af68 b1a7 5b06 19ad 3dc5 deb2
00000020: 9702 1fb0 3852 0080 145c 0000 6379 0080
00000030: 1ca0 1e00 066d 0080 5d71 0080 ebc8 0000
00000040: add5 bc8e 7901 898d aa45 a3bc 3227 a7bc
00000050: 6b94 a9bc ed83 9dbc 98ec 9ebc ca6a a1bc
00000060: 796e 8ebc 63ec 90bc fa1a 92bc 4f99 0000
00000070: 7b28 8d14 e42c 8326 7e2a 0000 e04a 0080
00000080: ac4e 0700 11a4 0504 012a 0080 60d5 0880
00000090: 2427 8fb9 da1c 10b8 44c7 bbb7 4819 1db9
000000a0: 4245 beb8 d507 00b8 a2e1 6cba 73c6 bfba
000000b0: a11d 8cba 5666 05ba e0b0 f5ba bec0 74bb
000000c0: b2fc d0ba 3a3b 4cbb 00e7 8cbb 0aad 9dba
000000d0: 01ca 2abb 4535 5fbb 608e d7bc 03d5 4c3a
000000e0: d1dd cbbc b1f6 12be 6d73 17be 2a89 24be
000000f0: b13d 3dbe 8cf3 39be b11f 14be fe4e 123e
00000100: f536 423c f545 d33d 0720 133d b6ea 1abd
00000110: 6785 843c 22a0 acbb a34d 7bbc a891 a13d
00000120: 8539 4b3c 3d75 c5bd 8893 2b3e d470 68be
00000130: 7e4b c0bd cfa9 513e 4034 c0bd 859e 48bc
00000140: 1b8e 973e 1b46 da3c 04d5 73bd 2833 39bd
00000150: 65ce cebc 0311 f4bd 2685 a8bd 9aa8 cfbd
00000160: b6a4 aabd 4894 70bd 9b00 063d 0122 f43d
00000170: dd6f 00bd 78bf 3b3e a43f ce3d ace5 20be
00000180: 8b7b 9d3d 071e 3a3d 6c1f 35be 0391 b83b
00000190: 4fe6 80bd 8c95 f2ba 5faf 98bc 04e3 f83c
000001a0: 71a2 00bd 16bd 813d c561 5fbd b267 153d
000001b0: 9b0d 78bd 2f99 bbbc 1550 e6bc eee2 d2bb
000001c0: 9963 2a3d cc8a 1c3d 9aa2 d83b 3705 743d
000001d0: 14cc 5e3c af95 30bd fb28 213d 5fdd 503d
000001e0: e3b1 a03d 8788 793e ff33 493e 7a88 4d3d
000001f0: 7527 683e 0b07 fd3d d9c7 8c3c 831a c43d
00000200: 0901 623d 7329 ca3d 8da6 453d fc91 37bd
00000210: 8fbe 993d 88ef 07be 9cfa 12be cbce 523b
00000220: 26a7 193d 540e 743d 2d99 603d 83e6 d53d
00000230: 72c0 b03d e738 21bc 20f9 7d3d e1b9 d83d
00000240: 7750 97bd 8852 61bd 8272 f8bc 5bee abbd
00000250: 69d8 ac3c 8e4c 563d 188f f7bc 395e 093e
00000260: 5539 a13d f396 e1bd 0998 c9bd 8550 0abe
00000270: 54f9 85bd 2948 e2bd c7b4 2bbe 26a1 d8bd
00000280: 5a7a 4bbe c4e7 21be bd1f 553c 2c44 1fbd
00000290: 40d2 30bd fa3b 443b f029 83bc 9eda 19bb
000002a0: 2aed 60bd 90ad 3ebd 068b 34bc f38f d63c
000002b0: de37 d7bb c65f 84bd 0bb3 94bc 8fd6 64bd
000002c0: a007 c8bd 8c9c 5ebc 1aa8 39bd e113 74bc
000002d0: 45ce f6bb b8c3 583d e91a c13c d542 f83c
000002e0: 9fee 3b3e 0677 e93d 7149 233c f739 423e
000002f0: 5186 fd3d f3a8 bd39 0fd9 e8bc fa3f 8e3c
00000300: 23b5 37bd a384 54bd 1182 a5bc 2d24 423c
00000310: b939 b6bc 2e79 abbb 5041 65bd 2983 88bd
00000320: 6fd9 b8bd 6da7 a6bd b80f 33be 75da a2bd
00000330: 1aaa 853c 495a e6bd d025 69bd a331 633b
00000340: 26d2 013d 581f 2c3d 2525 9b3d 4c8d 393d
00000350: e03e 743d 0c30 943c a59e af3c 55e7 363d
00000360: 08a8 f33a 4b22 92bc d298 49bd 6271 3e3d
00000370: bc95 943c c3b8 543d d9bf f13c 0172 b23d
00000380: d525 463d 6d98 cb3c c679 d2bb ea03 19be
00000390: 12c4 82bd 5a6d 3abe 6b5e 43be 7025 15be
000003a0: 3cec 23be 6a73 60be f801 7e3c 8e4e 99bd
000003b0: 86ce 8c3d 4d00 0abd bb75 73bd bc9e d33d
000003c0: dee7 c6bc 0939 13be 052c 4d3d a9b9 013e
000003d0: 9d7d 243e ed5b d53d 9a1c f13d ea5d 243e
000003e0: 88e2 e83d 46c3 41bc eb6d 3bbb 0acc d23c
000003f0: 4f8e 08bc 5cb1 e43d fe09 91bc 434d a83c
1.9857984e-34 -6.1484474e-17 -7.793879e-13 -1.7090025e-20 -1.1740763e-18 -4.9240867e-15 -8.698454e-12 -2.5933895e-08
-5.7847543e-10 -2.9495e-41 3.3031e-41 -4.3545e-41 2.812501e-39 -3.911e-41 -4.0667e-41 7.2076e-41
-4.655134e-30 -8.443631e-31 -0.01993068 -0.020404432 -0.020700654 -0.019227946 -0.019399926 -0.019704241
-0.017386662 -0.017690843 -0.017835129 5.4997e-41 1.4253328e-26 9.102119e-16 1.5243e-41 -2.686e-41
6.7107e-40 1.570941e-36 -1.5068e-41 -8.11228e-40 -0.00027304247 -3.4359146e-05 -2.2384927e-05 -0.00014982105
-9.072806e-05 -3.0524872e-05 -0.00090363075 -0.0014631286 -0.0010689982 -0.00050887966 -0.001874473 -0.0037346329
-0.001594445 -0.0031163231 -0.0042999983 -0.0012029719 -0.0026060345 -0.003405885 -0.026313007 0.00078137236
-0.024886044 -0.14351918 -0.14790125 -0.16067949 -0.18480565 -0.18159312 -0.14465214 0.14287946
0.011853923 0.103160776 0.035919216 -0.037821494 0.016176892 -0.0052681128 -0.015338334 0.0788911
0.01240385 -0.09641502 0.16755497 -0.2269929 -0.09389399 0.20474933 -0.09384966 -0.012244825
0.29600605 0.026644757 -0.05952932 -0.045214802 -0.025244901 -0.11917307 -0.08228521 -0.1013958
-0.08332197 -0.058735162 0.03271542 0.11920548 -0.03135668 0.18334758 0.10070732 -0.15712613
0.076895796 0.045438793 -0.17687768 0.005632521 -0.06293928 -0.0018507703 -0.018638311 0.030381687
-0.031404916 0.063348934 -0.0545366 0.036475845 -0.06055985 -0.022900192 -0.028114358 -0.0064357435
0.04159889 0.038218305 0.0066111805 0.059575286 0.013598461 -0.0431115 0.039345723 0.050992366
0.07846429 0.24368487 0.19648741 0.050178982 0.22671302 0.12354859 0.017185139 0.09575369
0.05517677 0.09871187 0.04825454 -0.044816956 0.07507049 -0.13274968 -0.14353412 0.0032166715
0.03751292 0.059583977 0.05483358 0.10444357 0.08630456 -0.009840227 0.062005162 0.105823286
-0.07388394 -0.05501035 -0.03032804 -0.08395072 0.021099286 0.052319102 -0.0302196 0.1341485
0.07872263 -0.110151194 -0.098434515 -0.13507278 -0.06541696 -0.1104892 -0.1676818 -0.105776116
-0.19870892 -0.15811068 0.013008055 -0.038883373 -0.04316926 0.0029942975 -0.016011208 -0.0023476253
-0.054913677 -0.04655224 -0.011019474 0.026191687 -0.006567939 -0.0646358 -0.01815178 -0.05586868
-0.09767079 -0.013587128 -0.04532633 -0.014897318 -0.0075319135 0.052921027 0.023572402 0.030305305
0.18352745 0.11399655 0.00996624 0.18967424 0.123791344 0.00036174766 -0.028423814 0.01736449
-0.04485048 -0.051884305 -0.020203622 0.011849445 -0.022244321 -0.0052329516 -0.05597049 -0.06665642
-0.09025847 -0.08137403 -0.17486465 -0.079518236 0.016316462 -0.11247689 -0.056920826 0.0034667037
0.031694554 0.04202208 0.07575444 0.045300767 0.059630275 0.018089317 0.021437952 0.04465421
0.0018589506 -0.017838618 -0.049218006 0.04649485 0.018137805 0.051934015 0.029510425 0.08713151
0.048375923 0.024852956 -0.006423208 -0.149429 -0.06385054 -0.18205777 -0.19078986 -0.14565063
-0.16008085 -0.21919027 0.015503399 -0.07485686 0.06875329 -0.033691693 -0.05943845 0.103330106
-0.024280485 -0.14377226 0.05009081 0.1266848 0.16063543 0.10417924 0.117730334 0.1605145
0.113713324 -0.011826342 -0.0028599452 0.025732059 -0.00833471 0.11166641 -0.01770496 0.020544654

0.conv2.bias f4 [12]
00000000: c0a3 d9bb 0350 263f 2359 423f 6f64 253f
00000010: b7a8 023f a718 03bc 3489 093f 4207 14be
00000020: 396a de3c d392 2dbe ddd6 3bbd fdf2 d3bd
-0.006641835 0.6496584 0.7591726 0.64606375 0.5103869 -0.008001483 0.5372498 -0.14455894
0.02715026 -0.1695054 -0.045859206 -0.10349081

0.conv3.weight f4 [24, 12, 3, 3]
00000000: df2e a3bc e815 06bd a0cb 0cbc 6b15 adbc
00000010: 8a12 5ebc acf8 93ba ea93 babc e2e2 bbbc
00000020: 19cd 3bbc f113 07bd 6f3d 88bc d199 72bc
00000030: 3caf 1dbd 9244 cbbc 4f94 e9bc 5c6f 0dbd
00000040: b589 abbc 0881 dfbc 5974 abbc e55d c2bc
00000050: 88b9 91bc c5ab 0fbd e9b5 24bd ae3c 0fbd
00000060: 7338 3dbd 22aa 36bd cb2b 2ebd 7e71 f3bb
00000070: 8b41 82bb a373 4dba c217 d2bc 3a10 51bc
00000080: b8d8 7abc d5aa ebbc eac8 2cbc 155e 61bc
00000090: 82e1 adbc 2dfe dcb9 b116 24bc 23c1 43bc
000000a0: 97a3 04bc e88d cdbb 0724 5f3c ac82 693c
000000b0: f7e9 b13c 4eb6 cebb 19f5 82bc 14d9 b4bb
000000c0: db69 28bd 8267 debc a708 753b ea62 0cbd
000000d0: d776 01bd ea41 9abc 61f0 e53a 1cf0 23bb
000000e0: b302 b2bc 51d7 b93c aab2 dc3c 01f0 463c
000000f0: 2c6a 023d c098 223d b252 ab3c 4d4a ddbb
00000100: 8157 b9bc 9d98 8939 c93e 8abb 3d93 cabb
00000110: d324 543c 1ebd 803c 6505 143c 4edb 593c
00000120: 8755 babc 1e57 afbc 5e1a 57bd 3c2b 143c
00000130: 227a 3d3c 2ba3 0ebd cc7f 3e3c e4a0 203a
00000140: fa12 01bd f340 85bc c798 b3bc 71ec 28bd
00000150: e406 e83b 8820 0bbd 1f1a fbbc 95fe bd3b
00000160: 391c 81bc 62aa 98bc 361e 01bd 9f7b 7fbc
00000170: 46e7 57bc fc97 1bbd c610 d8bc 5133 98bc
00000180: 3c8c 04bd e1e8 9ebc 291c 2ebc b41f 30bd
00000190: cf65 0bbd 95b5 1dbd 0523 2cbd 859f 323a
000001a0: 6c64 cc3c 708f 59bd 0644 07bd a86a 49bd
000001b0: 397b 0000 bc49 0000 dba3 0080 ce8d 0080
000001c0: 1424 0080 da21 0080 e5a7 0480 028c 0080
000001d0: c19f 0280 fb37 6eb1 6b59 b7b1 0f5c feb0
000001e0: 61ad 27b1 9473 8ab3 3a6f 2db1 946a 28b2
000001f0: 3013 02b3 1016 89b1 c1dd c3b9 f2ea c5b9
00000200: af37 c4b9 ab96 a5b9 8d17 61b9 19dd 9eb9
00000210: cd03 a4b9 e49e 87b9 c22c b1b9 c762 9fbb
00000220: ba81 28bb 2dec 3bbb d49e abbb be91 b5ba
00000230: 88d6 35bb 1127 95bb 63da 68bb 669a 2fbb
00000240: 5589 b4ae a7b1 85ae 5ff4 94af 5000 82ae
00000250: 8cc7 8eae 23f7 52af 3ab1 3bae 4d38 3dad
00000260: 02e6 61ae 1665 0100 9ca7 0180 fae9 0000
00000270: 5bbb 0000 bd4c 0100 7729 0380 e59a 0080
00000280: e2e0 0000 ff68 0000 050b 8198 43ba e4a2
00000290: f3b3 939f e0b5 fd84 afcc 1f10 876a ed8a
000002a0: 51ab 0000 49c3 d384 8c82 7793 c05e 0080
000002b0: 8954 0080 9e18 0080 7172 0000 29c4 0080
000002c0: 1e8d 0000 d231 0000 3f15 0080 a0b2 0000
000002d0: 5079 0000 d235 0080 0625 0000 246e 0080
000002e0: 3b2e 0080 8b1b 0180 5141 0080 d181 0080
000002f0: bab3 0000 a829 0080 6545 0000 8254 0080
00000300: 1877 0080 38ae 0000 bd4a 0000 048d 0b0c
00000310: 2f68 0000 3322 0000 7319 d6b4 0cc5 ebb4
00000320: 15d0 94b4 4dc1 67b5 8f88 5db5 f7f7 29b5
00000330: 3902 73b5 f42d 4bb5 6b88 26b5 5220 429c
00000340: fa15 0000 725e ec8b 5bb8 c005 be11 0000
00000350: 802e 4484 7936 3897 2555 0000 0138 8708
00000360: b5db 9b3d 80a9 5a3d 271c 273e 70e3 b33c
00000370: b4ec 2c3d 9c32 883d ce35 c73d c5e6 e03d
00000380: 2126 a33e a54c 823d c392 f8bc 3b82 853d
00000390: 4c96 aaba 062d 573e e260 9f3c ec9a b3bc
000003a0: c3c7 843d 1a8a 01bc 7627 ba3c 8fe7 c93d
000003b0: 07de fbbd 3440 4b3d 34a2 873e b74a 093e
000003c0: 0dc2 623d 3dec 13bd 615f 2cbe fdd3 5e3d
000003d0: c68c cfbd 274c 4f3b 503b 023e 2ade 80be
000003e0: c1c0 b2be d2a2 6d3e d834 8bbe 2aef b1ba
000003f0: 8f7e aa3d 3d64 fb3d bb1a 903d ed0b 113e
-0.01991981 -0.032735735 -0.00859347 -0.021128377 -0.013554225 -0.001128932 -0.022775609 -0.022935335
-0.011462473 -0.032978002 -0.016630856 -0.0148071805 -0.038497195 -0.02481297 -0.028513102 -0.03453003
-0.020939687 -0.027283207 -0.020929502 -0.023726413 -0.017788664 -0.03507592 -0.040212546 -0.034969978
-0.046196412 -0.044595845 -0.042522233 -0.007429301 -0.0039750985 -0.00078373606 -0.025646094 -0.012760216
-0.015310459 -0.028767982 -0.0105459485 -0.013755341 -0.021225695 -0.00042151046 -0.010015176 -0.011947903
-0.0080956435 -0.00627302 0.013619429 0.014252346 0.021718008 -0.0063083535 -0.015986012 -0.005519042
-0.041116577 -0.027148966 0.003738919 -0.03427402 -0.031607475 -0.018830258 0.0017542952 -0.0025014943
-0.021729803 0.022685679 0.026940662 0.012142182 0.031839535 0.039696455 0.020913456 -0.006753242
-0.022624733 0.00026244382 -0.0042189104 -0.006182103 0.012948233 0.015715178 0.009034489 0.013296915
-0.02274586 -0.021403845 -0.05251538 0.009043511 0.011564763 -0.034823578 0.011627149 0.000612749
-0.031512238 -0.016266322 -0.021923436 -0.041241113 0.0070808996 -0.03396657 -0.030652104 0.005798171
-0.015760528 -0.018635932 -0.031522952 -0.015593438 -0.0131776985 -0.03798674 -0.026375186 -0.018579157
-0.0323603 -0.019398155 -0.010626831 -0.042998984 -0.03403264 -0.03850325 -0.042025585 0.00068139314
0.024950229 -0.05311531 -0.033023857 -0.04917398 4.4204e-41 2.6451e-41 -5.878e-41 -5.087e-41
-1.2942e-41 -1.2144e-41 -4.27571e-40 -5.0225e-41 -2.4098e-40 -3.466538e-09 -5.3361666e-09 -1.8507097e-09
-2.4400253e-09 -6.447149e-08 -2.5238038e-09 -9.80312e-09 -3.0285435e-08 -3.989733e-09 -0.00037358518 -0.00037749816
-0.0003742552 -0.0003158351 -0.00021466445 -0.0003030084 -0.0003128335 -0.0002586759 -0.00033793418 -0.00486407
-0.0025712089 -0.0028674707 -0.0052374396 -0.0013852639 -0.0027746279 -0.004551776 -0.003553056 -0.002679491
-8.2098474e-11 -6.079697e-11 -2.709468e-10 -5.911771e-11 -6.492859e-11 -1.918719e-10 -4.2676286e-11 -1.07559074e-11
-5.1363365e-11 1.28098e-40 -1.51962e-40 8.3935e-41 6.721e-41 1.19364e-40 -2.90381e-40 -5.5566e-41
8.0673e-41 3.7666e-41 -3.3356845e-24 -6.1996736e-18 -6.255462e-20 -5.964704e-36 3.1514903e-29 -2.2862341e-32
6.1457e-41 -4.9785203e-36 -3.1240148e-27 -3.399e-41 -3.0326e-41 -8.831e-42 4.1054e-41 -7.0369e-41
5.0623e-41 1.7872e-41 -7.622e-42 6.4079e-41 4.3519e-41 -1.9307e-41 1.3282e-41 -3.9511e-41
-1.6584e-41 -1.01716e-40 -2.3431e-41 -4.657e-41 6.4474e-41 -1.4943e-41 2.4894e-41 -3.0316e-41
-4.2723e-41 6.2498e-41 2.6811e-41 1.0750606e-31 3.7374e-41 1.2268e-41 -3.9879123e-07 -4.3915531e-07
-2.7718548e-07 -8.6335496e-07 -8.2527635e-07 -6.331824e-07 -9.052779e-07 -7.5690264e-07 -6.2038333e-07 -6.423099e-22
7.884e-42 -9.1046e-32 1.8123315e-35 6.365e-42 -2.3061041e-36 -5.952236e-25 3.0544e-41 8.138183e-34
0.07610265 0.053384304 0.16319333 0.021959037 0.042217925 0.06650278 0.09727059 0.10981516
0.31865028 0.06362275 -0.030343419 0.0651898 -0.0013014763 0.21013269 0.019455377 -0.021924458
0.06483414 -0.007906461 0.022723895 0.098586194 -0.12298208 0.049621776 0.2649094 0.13407408
0.055360842 -0.036113966 -0.16833259 0.054401387 -0.10134272 0.0031631084 0.12717938 -0.25169498
-0.34912685 0.23206642 -0.27188754 -0.0013575305 0.083249204 0.12274978 0.070363484 0.14164706

0.conv3.bias f4 [24]
00000000: 5b35 e4bc eb59 d6b9 93ca e1be e986 3293
00000010: 0005 763f 5672 323f e894 33bb 6595 c6bb
00000020: 4f69 85bc 7a7f fc3e 4e38 013f 13a0 10af
00000030: b298 0ebd 5d90 223f d0f6 993f c6c1 15af
00000040: ef3c 463e 2d3b 77be f3c0 93bc 23ad 96be
00000050: 0700 e83e 87a7 733f c214 66bb 576f 313f
-0.027857473 -0.00040884255 -0.44099864 -2.2533274e-27 0.9610138 0.6970571 -0.0027401987 -0.0060602897
-0.016285567 0.49316007 0.5047654 -1.3153593e-10 -0.03481359 0.6350153 1.2028446 -1.3620313e-10
0.19359182 -0.24143668 -0.018036341 -0.29428968 0.4531252 0.951775 -0.0035107587 0.69310516

0.conv4.weight f4 [48, 24, 3, 3]
00000000: e3da 4038 70f9 45ba 6e9e a437 5d3c 28b9
00000010: af50 9aba b605 6ab8 ccf3 c1b9 8126 70ba
00000020: 0963 91ba cac3 0080 31d3 0000 6bed 0180
00000030: bfe9 0180 f104 0180 0467 0080 8b6f 0100
00000040: 6acf 0080 3073 0000 d2cf e1bc 022b cebc
00000050: ccb9 cdbc b3f7 e2bc 6f27 debc ec6b d2bc
00000060: b73c d6bc 558d cebc 2b79 d1bc a965 80ba
00000070: c471 81ba 3f5d f8ba cc1c 0eba 7efa 38bb
00000080: 1e00 e6ba 2d25 4bb9 7d1e bcba 7daa bdba
00000090: 7f77 163b ae96 58ba 1586 a0bb aa3a f239
000000a0: 9162 31b9 a9c6 38bb 3634 1abb 075a 7dbb
000000b0: 72d9 04bc 773b 0bbc 29ac a5bb 35ea 1cbc
000000c0: c338 6cbc 353c 0fbc 62c2 52bc 231e 42bc
000000d0: 8073 1bbc 7d2b 43bc 2ef4 66b9 5b48 cbb6
000000e0: 8827 80b9 fefe 76b8 1263 b0b6 c60e b3b8
000000f0: 2f6a 64b9 d56e b9b7 61e7 13b9 8427 69b6
00000100: ac2b 48b7 bbad 36b8 e081 a0b3 cfa9 21b6
00000110: 7b5b 48b8 5b3d 36b7 9375 9bb8 2b6d 1cb9
00000120: b3c7 6eb8 53ff e3b8 cc5d 8eb8 7dd7 3b39
00000130: 7074 7838 e579 8039 9c1c 1839 0b2c 4db7
00000140: 60b7 69b7 2bad 0dbc 69ea 24bc fa8f 0bbc
00000150: f782 dfbb d4d0 03bc 91a0 12bc 99e8 1ebc
00000160: 3b19 21bc e86c 3dbc 9c44 80b9 e092 0dbc
00000170: f0e5 a5bb 6500 b9bb c4a8 45bc 42b1 29bc
00000180: e661 93ba 9ff5 2cbc 18c5 09bc d6a8 3cbb
00000190: 9d2f 74bb 7d79 6bbb 0426 3cbb 1ffa 9abb
000001a0: feee 95bb ac8b 55bb c132 94bb a124 b2bb
000001b0: efdb bfb4 3dab b1b7 4a91 8eb7 f6ef 71b7
000001c0: 1155 29b9 a029 16b9 e233 7bb7 3803 b7b9
000001d0: d476 83b9 15ce f3b8 0672 2fbb 5b4b acb9
000001e0: 7a29 f138 bc49 dcb9 0640 50ba 8c0f 00ba
000001f0: c33d 6dbb 78a2 aeba ef9b feb9 7ff8 5bb9
00000200: aa8d cbba d5f9 0c3b 7ca2 863a 757d 033a
00000210: 4557 85ba fc59 c6ba 60b2 22bb 2be9 e4ba
00000220: e37e 05bb f56f 9cba 32db 2bbb fc60 e3ba
00000230: 5b6d 6bba 87a2 10bb 77eb 24bb c240 a7ba
00000240: 3eeb 9cbb 1653 37bc 0075 6fbc a185 20bc
00000250: 5431 7cbc 54ef 7ebc dce1 67bc 94a0 9ebc
00000260: 98ed acbc f8af c8ba bbb0 3dbb f0b0 16bb
00000270: d7d0 30bb f2fe 86bb 422d 09bb c5a0 83bb
00000280: c254 a1bb 96b0 afbb f168 20bb bd93 12bb
00000290: c779 16bb 635a 35bb eae8 58bb bce4 4abb
000002a0: 0e64 19bb dbbe 20bb d692 44bb 8ae2 6bbb
000002b0: 22f1 4cb6 fe35 e2b9 4930 9bbb 0d46 c1b8
000002c0: 765d 00ba 9fff 1cbb 550a f4b1 eec4 eeb9
000002d0: cdfb dcbc 6ad7 eabc 5cf5 e4bc 83e4 eebc
000002e0: feb7 f5bc ee67 f2bc f80e e9bc fc42 f5bc
000002f0: 9d8c f2bc 12b2 82b8 91ff 3aba 5e4e f5b7
00000300: 65f4 d9ba f0cd 5bb9 6d70 f2ba 7a31 0cba
00000310: 100c 21bb 37a2 7dba e472 36b8 dd6f bcb8
00000320: ccb8 11b8 7b6c 0fb8 528d 2bb9 adb8 77b8
00000330: 00c7 aeb8 659b 21b9 d3f5 86b8 05f2 0fbb
00000340: 8e06 4dbb fea4 04bb a010 f8ba 1602 26bb
00000350: 9231 12bb 0733 98bb a25f 60bb cb2a 07bb
00000360: ed44 0100 0ffc 0080 2403 0100 76ee 0080
00000370: 2163 0000 7496 0000 6a92 0000 4e90 0000
00000380: 5ee1 0080 3d42 0000 e4a9 0000 d103 0000
00000390: 2391 0500 163c 0180 edcf 0380 3aaf 0380
000003a0: 95a0 0000 64a8 0000 ffc5 8b85 6a4e 3dab
000003b0: 9e43 0d89 ee36 1100 2046 b7ae 5f63 83a3
000003c0: 2a44 0000 1cda b4ad c4ed 80ad bc9c 0180
000003d0: a81e 0180 6996 0000 f2eb 0280 2482 0180
000003e0: f6de 0000 1714 0080 b50e 0080 1631 0080
000003f0: 97af 0000 5e31 0080 cfea 0000 674b 0000
4.598022e-05 -0.00075521227 1.9624098e-05 -0.00016044216 -0.0011773313 -5.5795266e-05 -0.0003699347 -0.0009161011
-0.0011092137 -7.0236e-41 7.5761e-41 -1.77005e-40 -1.75688e-40 -9.3608e-41 -3.6955e-41 1.3185e-40
-7.4406e-41 4.1321e-41 -0.027564917 -0.025166992 -0.025113009 -0.027706003 -0.027118413 -0.025686227
-0.026151998 -0.025213877 -0.025570473 -0.0009795922 -0.0009875824 -0.0018948688 -0.0005421161 -0.0028225477
-0.0017547642 -0.00019373438 -0.0014352348 -0.0014470365 0.0022959409 -0.0008262199 -0.0048987963 0.00046201545
-0.00016916754 -0.0028194583 -0.0023529655 -0.0038658397 -0.008108484 -0.008498064 -0.0050559235 -0.009577324
-0.01441783 -0.008742382 -0.012863727 -0.0118480055 -0.009487987 -0.011912224 -0.00022025473 -6.0582947e-06
-0.00024443516 -5.888845e-05 -5.256742e-06 -8.538137e-05 -0.00021783331 -2.2105329e-05 -0.00014105208 -3.4742707e-06
-1.1931097e-05 -4.355398e-05 -7.474205e-08 -2.408971e-06 -4.7768914e-05 -1.0862331e-05 -7.412876e-05 -0.00014917988
-5.6929606e-05 -0.00010871761 -6.788559e-05 0.00017913985 5.923625e-05 0.0002450488 0.00014506507 -1.2229207e-05
-1.3930578e-05 -0.0086472435 -0.010065653 -0.008518213 -0.006821032 -0.008045394 -0.008949415 -0.00969901
-0.009832676 -0.01156161 -0.0002446518 -0.008640975 -0.005062811 -0.005645799 -0.012064163 -0.010357203
-0.0011244386 -0.0105566075 -0.008408807 -0.0028787157 -0.0037259825 -0.0035930567 -0.0028709183 -0.004729524
-0.004575609 -0.0032584472 -0.004522652 -0.0054364954 -3.5736545e-07 -2.1179783e-05 -1.6995375e-05 -1.442059e-05
-0.00016148786 -0.00014320621 -1.4972846e-05 -0.00034906878 -0.000250748 -0.00011625529 -0.0026770844 -0.0003286254
0.00011499501 -0.00042016606 -0.00079441105 -0.0004885129 -0.0036200143 -0.0013323566 -0.00048562835 -0.0002097804
-0.001552989 0.0021511216 0.0010271813 0.0005015948 -0.0010173103 -0.0015133019 -0.0024825558 -0.0017464509
-0.002036982 -0.0011935221 -0.002622318 -0.0017347629 -0.0008980834 -0.002206953 -0.0025164762 -0.0012760388
-0.0047887852 -0.011189243 -0.014615297 -0.009797485 -0.01539262 -0.01555999 -0.01415297 -0.019363679
-0.021109387 -0.0015311232 -0.002894445 -0.0022993647 -0.0026979947 -0.0041197473 -0.0020931517 -0.004016968
-0.004923434 -0.005361627 -0.0024476612 -0.002236589 -0.0022960769 -0.0027672283 -0.0033097812 -0.003095909
-0.0023405585 -0.0024527821 -0.0029994748 -0.0035993182 -3.0538727e-06 -0.00043146306 -0.0047359806 -9.216005e-05
-0.0004896739 -0.0023956073 -7.1025092e-09 -0.00045541622 -0.026975537 -0.02866717 -0.027949028 -0.029161697
-0.02999496 -0.029590573 -0.02844952 -0.029939167 -0.029608065 -6.232051e-05 -0.0007133419 -2.9242769e-05
-0.0016628621 -0.00020962185 -0.001849664 -0.0005347949 -0.002457384 -0.0009675356 -4.349918e-05 -8.985375e-05
-3.47428e-05 -3.4194887e-05 -0.00016360477 -5.906138e-05 -8.334033e-05 -0.00015412045 -6.435406e-05 -0.0021964323
-0.0031284424 -0.0020239945 -0.0018925853 -0.0025330833 -0.0022307378 -0.004644755 -0.003423669 -0.0020624872
1.16561e-40 -9.0422e-41 9.2962e-41 -8.5544e-41 3.5561e-41 5.3972e-41 5.2523e-41 5.1767e-41
-8.0847e-41 2.3762e-41 6.0945e-41 1.369e-42 5.11243e-40 -1.1339e-40 -3.50096e-40 -3.38366e-40
5.7606e-41 6.0407e-41 -1.314423e-35 -6.725511e-13 -1.7004051e-33 1.580908e-39 -8.334333e-11 -1.4245134e-17
2.4453e-41 -2.056049e-11 -1.4657504e-11 -1.48061e-40 -1.02833e-40 5.3957e-41 -2.68312e-40 -1.38521e-40
7.9983e-41 -7.207e-42 -5.276e-42 -1.7609e-41 6.299e-41 -1.771e-41 8.4233e-41 2.7049e-41

0.conv4.bias f4 [48]
00000000: 1a17 9abc b9fc 738c ef22 d5bb 90be c7ba
00000010: bdf2 d7b0 7206 8f3d 2c72 1e3f c795 a6b1
00000020: 989e af3e 6444 80bc 6630 003f 98c2 893e
00000030: d139 36bc d845 a4ba a30f 94b7 70fc b3bc
00000040: a863 22ab f92b e13e a1cf dbbc 4274 ba3e
00000050: f262 2dbb 56d9 ca3e 95b7 45b2 7a33 94bc
00000060: dcc5 82ab c081 233f 8a5f 5db9 e365 01b6
00000070: 4497 c7bc 44ec 07b3 0839 bcb9 a11f 233c
00000080: d6a8 c137 dc2b d9ba 4dbe 6c3e 3e6e 6bbc
00000090: b641 e9b6 9934 4ab6 0dd4 89bb c5fb 55bc
000000a0: cf12 113e 0e3c 923e d0d0 7d3c 11a8 9db5
000000b0: c873 3f0e 8034 3a3c b504 b73e 1ca7 a2bc
-0.018809844 -1.879609e-31 -0.0065044085 -0.0015239287 -1.5712299e-09 0.06983651 0.6189296 -4.8482636e-09
0.34300685 -0.015657611 0.5007385 0.26906276 -0.011122183 -0.0012533022 -1.7650256e-05 -0.021970958
-5.769226e-13 0.4397886 -0.026832404 0.36416823 -0.002645668 0.3961894 -1.1508651e-08 -0.018090952
-9.291973e-13 0.6386986 -0.00021111793 -1.9281804e-06 -0.024364121 -3.164702e-08 -0.00035900646 0.009956271
2.3086013e-05 -0.0016568857 0.23119469 -0.0143695455 -6.951591e-06 -3.0130961e-06 -0.0042061866 -0.013060515
0.14167331 0.28561443 0.015491679 -1.1746325e-06 2.3598314e-30 0.011365056 0.3574578 -0.019855075

0.conv5.weight f4 [96, 48, 3, 3]
00000000: cd8d 09be 2066 1abe e332 ccbc b2fa b7bd
00000010: 458f 1fbe 664f b0bd bac5 4dbd a362 82bd
00000020: ea11 5abd 17ba 623d d679 c53c aa56 ba3c
00000030: 3584 eebb 949f 3fbd c6fe d2bb 4c2f 6dbd
00000040: 71bf c0bd 47ef 49bd 19e2 843d 791d f53c
00000050: 6373 87bd b818 5e3c 0322 963d 4b56 cbbc
00000060: 5266 b7bc b626 cdbc 6a85 3b3d 68e1 06bc
00000070: 538f e0b8 6431 a0bb 5e2c 8ebb 0766 eab9
00000080: bc08 07bb 04f2 ebba 5632 6abb f5f1 7db9
00000090: fb4d 38bd c7a7 1a3c 4216 793c 7dcd 1dbc
000000a0: 7bc0 443d b660 213d b583 b3bc 2b63 493d
000000b0: 937e 453d 2bcd 44bc af0d 88bc 762a 0bbd
000000c0: 01ff 6d3c 389a d93a 3db1 e3bd 4721 4fbc
000000d0: eedb 00bd f6a6 59ba 96d5 a33c 3271 313d
000000e0: 9c87 ac3d 83eb 15bd 5eaf acbe 78ab 0e3e
000000f0: 8c9a c83d b82e 3dbd 89d9 20be fb84 ba3c
00000100: a947 cc3d 9152 d23d 0882 83bd 72c0 df3d
00000110: 4440 e23d 3e30 38bc 626b 273c 6cad 24bd
00000120: 5b49 3abc a09a cd3c 4995 02be 3e48 05bd
00000130: 48e8 113e 39cb b2ba 6947 c2bd 8836 2dbe
00000140: 3e4f 483d 54dd b93d 2168 1b3e 6b0f cd3d
00000150: 2b3a 853c 7fde 573d 5ce8 783d a022 ba3c
00000160: 6e1d a7bd 25b2 21bd 02b0 11bd 2ad2 39be
00000170: 0969 ea3d 4029 4abd ef86 7ebd c0fb 8f3e
00000180: ead5 62bd 1bf1 a2be 25b1 e2bc 31bb fdbc
00000190: 0ab2 b0bd 4e07 493d ec8f abbc f1a0 303e
000001a0: eb27 243b e0f9 9abd f186 bc3d b1f3 4dbe
000001b0: 4624 d73c 6d3e 05bc 92de 1cbc 3961 fb3d
000001c0: 2880 6cbc c696 08bd e25f b33d 49c7 26bc
000001d0: 1ca7 3e3d 75ed 57bd 5e5a 36bd 7d8f 98ba
000001e0: 87a1 c8bb 17fe 18bd ee06 1d3d 3918 d33c
000001f0: 09c1 1f3c 9ba2 633d aaf1 2abc 4f0a fc3c
00000200: 8e0a 84bc 3e5f 9f3c f5e9 793c 2a06 f1bb
00000210: 4036 ac3c d647 c8ba e18d 003c c3d7 373d
00000220: 0c9a 563d 733b cf3c 8a35 e63c 659f 1a3d
00000230: 6adb 48bc 0f06 593d b41e b03c 67de f03a
00000240: feac 643d 2312 ffbd b536 833d 0c46 01be
00000250: 1f7d 03be 55dd dd3c 3dd9 53bd 68d5 043b
00000260: 8276 fd3c 00d4 363d cd7e 4dbd 9d0e 2d3d
00000270: 20cc a13d 09f7 28be fbc6 d33d 76c2 a8bd
00000280: 492b afbd 3189 5b3e 9c2d e73d a852 f43d
00000290: 3260 4b3d ab43 f9bd 28fe 43bd 80fc ddbd
000002a0: 716e 4ebe 3339 2abe 8720 89bd 5539 39bd
000002b0: e4fe 08bd 1fb7 efbd cd5d c83d 90c9 1c3e
000002c0: e1bd ac3e 258b bb3d c466 eabd b5ef 7e3c
000002d0: 502f 27ac abeb d6b0 06d7 baab 2551 2f2c
000002e0: 3f04 9230 9f0a 43b1 5072 4daf 2003 99b1
000002f0: 4502 ad30 527e acbc c256 ac3d a3b4 0dbe
00000300: 2eef 083c 7eec 23bc cf87 d03c e414 bb3d
00000310: 39f9 2fbc 92fd e93b f89a 43bc 56b6 9fbc
00000320: 4013 7b3d f8bc 14bd 123b 9dbc 8924 9d3d
00000330: 4c12 febd 051b 0ebe 1c56 edbc 4719 16bd
00000340: 069d 9a3c 217a 273c c62e 26bd d2b8 d8bb
00000350: 5861 41bc b303 e43b 47dd 87bc 5a9d fabc
00000360: 8469 053b e4ee 5e3d df8d 073d 1726 9c3c
00000370: 98b4 5c3d 021c dcbc 5848 9abe 6d3a 22be
00000380: 3e50 b1bd 4843 973d c9ca f83d 452d ba3d
00000390: 6b2f 513e 29b9 8abe 7d99 babd c026 6fbd
000003a0: 0789 2cbe 8ebb b33d 259d 8fbd 99b4 c93d
000003b0: 34f0 96bd b168 c6bc 2d13 1d3e 454b 0bbc
000003c0: f14f 2a3c aa07 09be 6a5e 5a3e 9f77 023d
000003d0: ae23 da3d 01db 00be 8645 10bd a7ca 3dbd
000003e0: cfeb ad3d b1ef 0ebe 9508 863c 30d8 5bbd
000003f0: ca01 ee3d aaea 973c c3fc 1ebb 2b36 323d
-0.13432999 -0.1507802 -0.024926608 -0.08983363 -0.15581997 -0.08608894 -0.050237395 -0.0636647
-0.05323974 0.05535325 0.024105947 0.022746403 -0.007278944 -0.046783045 -0.0064390628 -0.057906434
-0.094115146 -0.04930046 0.06488437 0.02992128 -0.06613805 0.013555698 0.07330706 -0.024821421
-0.022387657 -0.025042873 0.04578153 -0.008232452 -0.000107078486 -0.0048887003 -0.004338785 -0.00044707974
-0.0020604571 -0.0018001203 -0.003573557 -0.00024218096 -0.044996243 0.009439415 0.015203061 -0.009631512
0.048035126 0.03939887 -0.021913389 0.04916684 0.048216414 -0.0120118065 -0.016608087 -0.03397604
0.01452613 0.0016601747 -0.1111779 -0.012642211 -0.03145974 -0.0008302772 0.019999307 0.043320842
0.08424303 -0.036601555 -0.33727545 0.13932598 0.097951025 -0.046187133 -0.15707983 0.022768488
0.099746056 0.102696545 -0.06421286 0.10925378 0.11047414 -0.011241971 0.010218473 -0.04020445
-0.011370028 0.025098145 -0.1275226 -0.0325396 0.14248765 -0.0013640887 -0.09486277 -0.16915333
0.048903696 0.09075418 0.15176441 0.10012706 0.016263088 0.052702423 0.06076847 0.022721589
-0.0815991 -0.039476532 -0.035568245 -0.18146577 0.11445815 -0.049355745 -0.0621404 0.28121758
-0.055379786 -0.31824574 -0.02767236 -0.030973049 -0.08627708 0.049079232 -0.02094265 0.17248894
0.0025048207 -0.07567191 0.092054255 -0.20112492 0.026262414 -0.008132559 -0.009574549 0.12274403
-0.014434852 -0.033346914 0.087585226 -0.010179349 0.046546087 -0.05271669 -0.044519775 -0.0011639443
-0.006122771 -0.037351694 0.038336687 0.025768386 0.009750613 0.055574995 -0.010433594 0.030766634
-0.016118314 0.019454595 0.015253534 -0.007355471 0.021021962 -0.0015280198 0.007846327 0.0448835
0.052393004 0.025296902 0.028101701 0.037749667 -0.012259344 0.052984294 0.021499015 0.0018376828
0.05582904 -0.12454631 0.06406919 -0.12624377 -0.12840699 0.027083078 -0.051720846 0.0020268802
0.030940298 0.044635773 -0.050169755 0.042250264 0.07900262 -0.16500486 0.10340687 -0.082402155
-0.08553178 0.21439053 0.11287996 0.11929828 0.049652286 -0.1217111 -0.047849804 -0.10839176
-0.20159318 -0.16623382 -0.06695657 -0.04522069 -0.033446208 -0.117048495 0.09783516 0.15311265
0.33738616 0.09157399 -0.11445382 0.01556008 -2.3758391e-12 -1.563753e-09 -1.3275776e-12 2.491404e-12
1.0624105e-09 -2.8382272e-09 -1.8685253e-10 -4.4532413e-09 1.2588052e-09 -0.021056328 0.08414985 -0.13838439
0.008357806 -0.010005115 0.025455384 0.09134844 -0.010740572 0.0071408236 -0.011938803 -0.019496124
0.061297655 -0.036313027 -0.019193206 0.07672984 -0.124058336 -0.13877495 -0.028971724 -0.0366452
0.018873703 0.010221989 -0.04057195 -0.006613829 -0.011802994 0.006958449 -0.016585005 -0.03059261
0.0020357082 0.054427043 0.033094283 0.019061131 0.053883165 -0.026868824 -0.3013332 -0.158426
-0.08657883 0.0738588 0.12148053 0.09090666 0.20428245 -0.2709439 -0.09111307 -0.058386564
-0.16849147 0.087760076 -0.07012395 0.098488994 -0.07370034 -0.024219843 0.15339346 -0.008501832
0.010395036 -0.1338183 0.21325079 0.03185236 0.106513366 -0.12583543 -0.035222553 -0.046335842
0.084922425 -0.13958623 0.016361514 -0.05367297 0.11621435 0.018544514 -0.0024259544 0.04350869

0.conv5.bias f4 [96]
00000000: 1283 d2ba f06e e03e bde6 3d3d ff5b 32be
00000010: 7fa5 89bd 993f 20be c55a d03d e55d e03d
00000020: 0d37 793d 2454 8ebd 2988 4f3c f412 d73d
00000030: 9466 0bbe 7c2e 38bc 8b96 efbd 9b92 5d3e
00000040: fe16 2cbc 42e9 983f df01 763e 3d76 4e3d
00000050: e68b 4c3e 12ce d63d cc26 d03d 563c ac3e
00000060: fdba 6fbd 3e56 2fbd ba1e 553d 0cb4 133e
00000070: 7af7 473e e3eb 773e 7c67 8b3e 48c1 973d
00000080: fea2 343e d469 88bd 68dd 5cbe d9e9 97bc
00000090: fd12 973c 1a25 95bd 8a82 23be 83e2 753d
000000a0: f839 7e3e c3c1 283e 50eb dbbd 1ea3 483d
000000b0: 8613 5e3e 42b9 a63d 8dd3 653d 2815 72be
000000c0: 746d 183e eb1c 17be 84f4 c33d 50da 5ebe
000000d0: 1e86 82be 0766 b7bd 4e52 0f3d f6cd 6dbe
000000e0: 69dc e43c 479f a6bd a829 19bf 845b 1b3c
000000f0: 1ccd 423d 1d8b 773d 238c 283c b97e 583d
00000100: 21a0 84be 0056 dcbe aa10 e93d 5001 7b3d
00000110: e270 b1bc 2f45 4a3e 4ac1 e9bd 37ce 3f3e
00000120: 78a4 163e aa94 78bd 8e09 19be e00e 4f3e
00000130: 640b 0b3e c1df 4b3a 620a 64bd da80 ed3e
00000140: 2b00 b8bd 4913 9d3e 05ad 153e 1021 02be
00000150: 5a62 7fbc 87cf 8e3d b49a 82bc 62a7 9ebe
00000160: e4b6 cdbd 1d1e 3d3e 8ae3 313d 485c cd3e
00000170: 58fd 4c3e a120 f0bc 5cf5 e73d 1e7c 4fbd
-0.001606079 0.4383464 0.046362627 -0.17417906 -0.06721019 -0.1564926 0.10173563 0.10955409
0.060843516 -0.06949642 0.01266674 0.10501662 -0.13613349 -0.0112415515 -0.11698636 0.21637957
-0.010503529 1.1946185 0.24024151 0.05040573 0.19975242 0.104885235 0.1016365 0.33639783
-0.058527935 -0.042806856 0.052031256 0.14424151 0.19527999 0.24211077 0.2722739 0.07409912
0.17640302 -0.0666081 -0.21568835 -0.018544124 0.018441672 -0.07282467 -0.15967765 0.06003047
0.24826801 0.16480164 -0.10738242 0.048983686 0.21687135 0.08140804 0.056109954 -0.23640883
0.14885503 -0.14757125 0.09568122 -0.21762967 -0.25492948 -0.08955007 0.0349906 -0.23223099
0.027937131 -0.081358485 -0.5982919 0.009482268 0.04755889 0.060435403 0.010287317 0.052855227
-0.2590342 -0.43034363 0.113801315 0.06128055 -0.021660272 0.19752954 -0.1141382 0.18731008
0.14711177 -0.060688652 -0.14945051 0.20220518 0.13578564 0.00077771774 -0.055673964 0.46387368
-0.08984407 0.30678776 0.14616783 -0.12707925 -0.015587414 0.069731764 -0.015942909 -0.30987078
-0.10044649 0.18468519 0.04342989 0.40109468 0.20018518 -0.029312434 0.113260955 -0.050655477

0.res1.conv1.weight f4 [6, 6, 3, 3]
00000000: 77b6 c83c 6c9b 51bd 87ed a6bd 86e3 fbbc
00000010: 2952 91be c5d8 76be 20b3 35be 1627 2abe
00000020: f46d b9bc b5b8 2cbe 6405 cd3d 891c 2ebe
00000030: c398 df3d 78df b03e 9eb2 a0bd c170 ac3d
00000040: 6d10 e43d 533d 063e 4dc6 18bd 3c24 04bd
00000050: d9a9 103d 6498 09be 7cc3 a6bd e4c4 f6bc
00000060: 157f 97be 4fc4 3abe 6781 e0bb 1edd 13bc
00000070: ec54 1fbd 3a68 9c3d b228 e7bd 01c8 4cbe
00000080: 2bdf 923b c7ea 67be 01fc 99be df16 96bc
00000090: 00cf 30be c2e4 093c c327 a6bd 1685 a53e
000000a0: b54b 3f3f 6707 223e b92b e7bc 826a 1a3f
000000b0: f9db 88be 7c97 2ebe 89f5 ecbd cbd7 74bd
000000c0: 8ce9 0bbe c1ab 5bbe 7835 09be 1142 73be
000000d0: 51e6 74be 5632 81be 9902 7dbe 27d2 7bbe
000000e0: f364 c6bc 614d 973d f7cd 863f a1e9 a13f
000000f0: 6f99 b8bd 6182 013d b640 36be 45e6 ed3d
00000100: be8e 29bc bb08 acbe 02bb e6bd 2d0b 88be
00000110: 8572 b0be 1f39 babd d0ed 0cbe ab70 dabd
00000120: 526d 01bf 730f bdbe 03aa 32bc 8929 86be
00000130: 6079 1abe 9b7e 843d 21e9 683c 1aa7 973d
00000140: 99f4 9f3e 1759 cabd 2042 3bbe 4cae 07be
00000150: 8559 65be ebb4 8ebe 7935 2cbd fe87 febd
00000160: 5bec f1bd 072d 683e 2c8d 36be c041 113f
00000170: 6c4e dcbc 8a31 303e 19de 963f c93d 873e
00000180: fc39 66be 82f9 32bd 54c8 f6be e9d5 a33d
00000190: b192 703e 248c ef3d 7755 763e 939b ae3e
000001a0: a284 a83d 5059 bc3d 870d d33d b0a6 93bd
000001b0: f65d 8b3e abce 793d cdfb a83d 8ca7 ba3d
000001c0: 285d c2be d567 afbe ea24 743e f088 e8bc
000001d0: 3fa7 e93b 154d 57be cfd3 35be c2e3 2abe
000001e0: 6d0f 47be d1ea f1bd c7b2 05be dffc 7fbd
000001f0: 3a95 acbd 0801 d0bc 8a6e dd3d 5939 153e
00000200: 4504 e63c 9563 673e 54d5 b03e 35f0 5f3d
00000210: 578e cc3b e580 023d 367f 7fbd 9052 85be
00000220: 1d51 6bbe 7f98 a4be e6b8 c0be 0da7 cbbe
00000230: 7e7e e6be ac99 a0be 079d 97be 5380 99be
00000240: 4da9 68be fcf0 a0be 33fc 17bd 0f91 82be
00000250: 3510 60be 6eae 0cbe 4a0a 03be 3364 8fbe
00000260: 9350 02be 76d7 78bd b730 ef3b f127 113d
00000270: bd31 57bd 359f d53a 8933 5d3c 5442 d8bd
00000280: 2502 8dbd b492 b4bc 1fc8 e43e 0996 0e3e
00000290: 41a2 5b3e c097 903e 4228 353e bc6e a03e
000002a0: 1a84 8c3e ebb4 583e 0e98 9d3e f11d e43d
000002b0: 1c1e 853d df6d 803d 740a 2b3d ed8b 8bbb
000002c0: 9143 e4bc b5be 863c 3527 97bc 603d 47bd
000002d0: b060 b53c 474f 393e 2fb9 a23d 0275 5e3e
000002e0: c898 b23e 6110 5d3e 969b 163e c04c a93e
000002f0: 89b6 873e 7609 ef3d 2362 cc3d 0971 b33d
00000300: 8ecc 8b3e a895 353e 5fa1 8c3a 3061 833e
00000310: c070 8a3e cda9 563e 2a3d 5cbe 8455 93be
00000320: 3e73 b0bd da87 d0bd 810b b4bd 82ea 123c
00000330: 4f83 a1be ffe5 8dbe 56f4 ffbd 6d08 bebc
00000340: f6a7 1e3d c415 cabb 6991 e23c 61a0 ed3d
00000350: c7cd 083e 0a0a 3fbc e5a5 2c3d 0215 c93d
00000360: f975 56be 1892 4bbe 2504 48be 562c 64bd
00000370: d9eb 6bbd 1684 fbbd 7d7f 89bd b155 013d
00000380: 6e6b c73d 4268 4abc 9db9 c43d 368a d9bc
00000390: 025d 183c 8ec0 8e3e 3256 5e3d 2d0d 86bc
000003a0: 0d1a ee3c d670 673d b7c5 b83d 8c98 7f3e
000003b0: 5069 d4be cde5 c3bb e380 d23d a675 01bf
000003c0: 1314 063e c24b c33e 9160 9c3d 5bf5 c33d
000003d0: 8df5 4e3e ca26 7b3d 6043 9dbd 1e7a 13bb
000003e0: b226 eabe ad77 583c d4f1 473e 80b2 293d
000003f0: abd3 22be c624 a0bd 38e2 6cba 95c3 6b3e
0.024501069 -0.051173612 -0.081507735 -0.03074814 -0.28382996 -0.24106129 -0.17744112 -0.16616473
-0.022635438 -0.16867335 0.10010794 -0.17003073 0.10917809 0.34545493 -0.078465685 0.084199436
0.111359455 0.13109331 -0.03729849 -0.03226112 0.03531823 -0.13437039 -0.081427544 -0.030123182
-0.29589143 -0.18238948 -0.0068513635 -0.009024886 -0.038899347 0.07637067 -0.11287059 -0.1999817
0.00448217 -0.22648154 -0.30075076 -0.018321453 -0.17266464 0.0084163565 -0.08113053 0.323281
0.74724895 0.15823136 -0.02821909 0.6031877 -0.26730326 -0.17049974 -0.115702696 -0.05977611
-0.1366331 -0.21452238 -0.13399303 -0.23755671 -0.23915984 -0.25233716 -0.24708022 -0.24591886
-0.024218058 0.07387806 1.0531605 1.2649423 -0.0901364 0.03161848 -0.17798123 0.11616186
-0.010348974 -0.3360041 -0.11266138 -0.26571026 -0.3446237 -0.09092926 -0.13762593 -0.10666021
-0.50557435 -0.3692585 -0.010904792 -0.26203564 -0.15085363 0.064694606 0.0142157385 0.07404919
0.312413 -0.09880274 -0.18286943 -0.13250083 -0.2239743 -0.27872404 -0.042043183 -0.12428282
-0.11812659 0.22673427 -0.1782729 0.5674095 -0.026892863 0.17206398 1.1786529 0.26414326
-0.22483057 -0.04369498 -0.48199713 0.079997845 0.23493458 0.116966516 0.2405604 0.3410307
0.08228423 0.091967225 0.103053145 -0.072095275 0.27220124 0.06098811 0.08251152 0.09113988
-0.37961698 -0.34258905 0.23842207 -0.02838561 0.007130533 -0.21025498 -0.1775658 -0.16688445
-0.19439478 -0.11812366 -0.1305648 -0.062497016 -0.084269 -0.025391117 0.10812099 0.14572658
0.028078208 0.22596581 0.34537756 0.05467244 0.006242554 0.031861205 -0.062377177 -0.26039553
-0.22980161 -0.32147595 -0.37641066 -0.39775887 -0.4501838 -0.31367242 -0.2961199 -0.29980716
-0.22720833 -0.31433856 -0.03710575 -0.25501296 -0.21881182 -0.13738415 -0.12796894 -0.28006133
-0.12726049 -0.060752355 0.0072995084 0.03543848 -0.05253767 0.0016298058 0.0135010565 -0.10559526
-0.06885175 -0.02204261 0.4468393 0.13924421 0.21448614 0.28240776 0.17691138 0.31334484
0.27444535 0.21162765 0.3078007 0.11138523 0.064998835 0.06270956 0.041758016 -0.004258624
-0.02786425 0.016448358 -0.018451313 -0.048642516 0.02214083 0.18096648 0.07945477 0.21724322
0.34882188 0.2158828 0.14707789 0.33066368 0.2650645 0.116717264 0.099796556 0.08761794
0.273045 0.1773287 0.0010729245 0.25660086 0.27039146 0.20963211 -0.21507707 -0.2877618
-0.08615731 -0.10182162 -0.08791257 0.008967044 -0.31545493 -0.27714536 -0.12497775 -0.023197377
0.0387344 -0.0061671454 0.027657228 0.116028555 0.13359748 -0.011660108 0.042150397 0.0981846
-0.2094344 -0.19879949 -0.19532831 -0.055706345 -0.05759797 -0.12281053 -0.067137696 0.031575862
0.097372875 -0.012353959 0.096057154 -0.026555162 0.009299519 0.27881283 0.05428142 -0.016363705
0.029065156 0.056504093 0.09022086 0.24960536 -0.41486597 -0.005978322 0.102784894 -0.5057014
0.13093595 0.38143736 0.07635606 0.09568282 0.20210858 0.06131629 -0.076788664 -0.0022503207
-0.45732647 0.013212127 0.19525844 0.041429996 -0.15901057 -0.07819514 -0.0009036395 0.23023827

0.res1.conv1.bias f4 [6]
00000000: 8dfc 5a38 2b56 0a38 b8d9 87b6 6779 c8b7
00000010: 632f 5d38 cd85 9d37
5.2210456e-05 3.2982014e-05 -4.0486593e-06 -2.389839e-05 5.273464e-05 1.8778164e-05

0.res1.conv2.weight f4 [6, 6, 3, 3]
00000000: 4285 d4bd 3fa0 42be 8003 e23c ad85 0ebe
00000010: cfb6 a4be 9d51 4abe 0800 a8bc 4a08 05be
00000020: 46d4 af3d afaa 013d b389 1f3d c9db 5a3d
00000030: 8cd6 0bbf 1db6 90be 880f 04bd cceb f43c
00000040: b543 d43d d203 e83d 155a b63e 1813 923e
00000050: 7947 e43d e539 b93e 525f c43e 85bf 0d3e
00000060: b06a 853e 4482 913d 8350 a2bc 6b8a 2cbe
00000070: e41c 4abd 13a5 b4bd 92e1 70bd 84d8 143c
00000080: 4e30 61bd 3e1b babc e30f fd3a 6c90 b7bd
00000090: 3046 87be 3a0e 3fbe bdc9 d7bd e1fc 74be
000000a0: 1be1 62be cc60 0abe a3e4 55be d35d febd
000000b0: ee4e 153e a440 e0be 736e 2dbd aee8 a1be
000000c0: eecf 79bd f6aa 593f a63b 193d af37 0dbf
000000d0: 3558 d4bd 9c57 b9be a5e0 933e adc8 413e
000000e0: 781d 9f3e 1d49 ff3c 51ae 71be 205f fdbd
000000f0: 3205 ba3c beb0 2ebe 8edc bd3c 1f00 823e
00000100: 6ae4 283e 88cd 4d3e 31a1 cc3d c507 adbd
00000110: efa8 00be e94e 373c 9999 83be ebbd 8dbe
00000120: e24e bf3d 5c71 f53d d073 633d f91d 4b3d
00000130: 716d 573c 060d b23c 4f6a 333d cf94 383c
00000140: 7282 30bc d660 0f3d 9e4a ec3c 1f7b 793c
00000150: 5287 0c3d ebb5 563d e87e dcbc 6215 1d3e
00000160: 5ff5 3d3e 836b e83d 4288 2a3e b3c4 56bd
00000170: 0538 1f3e 690d fdbd 9ff5 d7be fb3a bdbd
00000180: fa89 c8bd c474 c9be 0f99 37be 14a5 9cbe
00000190: 0a9c 70bd 7519 e9bd 9715 a3bd 1a72 b23e
000001a0: 8b66 dc3e 0073 79bd ef6d 7d3e a1e0 2e3e
000001b0: 7210 7e3e 3f24 7cbe e953 90bd 65f0 323e
000001c0: a4bc 6bbf 0cfa babd 72f2 903e 481a 3f3d
000001d0: 4d6c 1f3e a2e8 963e a367 643e cd84 d33d
000001e0: 5b0d 913d 2c06 04bf bcaf 32bd 5d9b c63d
000001f0: 87ec b5be 6653 913d fb36 acbd 77d0 b93c
00000200: 3d04 90bd 678b bdbc 5e4b e73d f60e 173d
00000210: c6f2 5cbe b042 133d 91bd d5bd 503b 0c3c
00000220: bdda 233e 11fe c73d e408 563d bad9 493e
00000230: ecd3 423d 6606 e5bb 0833 dc3c c7f2 96bd
00000240: ebbb 6d3e cc32 163e 0155 3a3e 8fb5 a9be
00000250: ec09 0ebe 9922 853e b624 0d3e 193d a5bb
00000260: 0556 413e ba0a 31bd 784c 1b3e 9141 ddbd
00000270: 744f d6bc 69c6 c43e 6f4c 02be 73da 31be
00000280: 592b 143d 9d30 00be 8927 183e 7946 a73e
00000290: 8a42 a43e e7e0 2b3e f320 d73e e495 813e
000002a0: e638 abbe a15a 5f3e 241f 78be 4812 9abd
000002b0: 1f39 fabd a727 fabd 5082 f8bd 9cf9 ffbe
000002c0: a35d 09bd d2ae 47be 6c52 4cbe c9fd b6bd
000002d0: c071 f4bd 06a8 3abe 5b57 8abd c458 7cbe
000002e0: d822 98be 9cf0 23be 40dd 26bd b03c 0fbe
000002f0: a27a 98bc 15bb 1dbf 48c1 16bf 5612 8ebe
00000300: 0d26 e5be f511 bcbe 8855 3ebe 81e3 ac3d
00000310: 2e8e 643d c5ed 163e fe18 5bbe 2c7a 82be
00000320: dc30 08be 7e33 8e3e f415 1d3e 9912 0d3e
00000330: 8c18 67be f970 8fbe b1a9 c3be a3eb dabd
00000340: 937e f0bd 3515 1bbe 09d4 4ebc a344 ce3d
00000350: 5456 c2bc a9f1 c23d 37e5 6b3e ad79 aa3d
00000360: cc05 69be c0c0 28bf 03f6 4abe 7013 48be
00000370: 6ee6 e3be a093 92be ce98 353d 2992 03be
00000380: 1a58 c2bd 019a 4f3d e48e 16bc 0871 4b3e
00000390: 52b7 bcbe dde7 30bf 22cf abbd c64e 1abe
000003a0: 6265 a5be e622 4c3d 63dd c53d 9e14 a03b
000003b0: f017 693d a7c3 5cbc 1e4a 1cbe 39c3 c7bc
000003c0: 6e9e dd3b 19f3 7abd 0db9 c3bc 955a d4bc
000003d0: 053d 0fbd b7a7 493e 6562 54be fe35 52be
000003e0: 0dbd f2bd 65c0 04bd da3b 3fbc 9c4f e33c
000003f0: 832c 08bc 2c43 40be 246d 513e 8196 d33c
-0.103769794 -0.19006442 0.02758956 -0.13918181 -0.32170722 -0.19757695 -0.020507827 -0.12991443
0.0858541 0.031656917 0.03894968 0.05343226 -0.5462425 -0.2826394 -0.032241374 0.029897593
0.103644766 0.11328854 0.35615602 0.28530192 0.11146445 0.36176983 0.38353974 0.1384259
0.2605796 0.07104924 -0.019813782 -0.16849677 -0.04934396 -0.08820548 -0.05880887 0.0090848245
-0.054977708 -0.022718068 0.0019307103 -0.08963093 -0.26420736 -0.18657771 -0.105365254 -0.2392459
-0.22156183 -0.13513488 -0.20887999 -0.12420239 0.1458089 -0.43799317 -0.04234166 -0.31622833
-0.060989313 0.8502649 0.0374104 -0.5516309 -0.10368387 -0.36199653 0.28882328 0.18924208
0.3107717 0.031162793 -0.23601653 -0.12371659 0.022707555 -0.1705961 0.023176458 0.25390717
0.16493383 0.20097935 0.09991682 -0.084487475 -0.12564443 0.011188247 -0.25703123 -0.27683958
0.093412176 0.11984512 0.05553037 0.04958913 0.013148651 0.021734726 0.043802556 0.0112659475
-0.010773288 0.03500446 0.028844174 0.015227108 0.03430874 0.052419584 -0.026915982 0.15340188
0.18550633 0.11348631 0.1665354 -0.05243368 0.15548714 -0.123560734 -0.42179582 -0.09239765
-0.09791942 -0.39346898 -0.17929481 -0.30594695 -0.05874256 -0.11381809 -0.07963102 0.34852678
0.43046984 -0.06090069 0.24748968 0.17077877 0.24810961 -0.24623202 -0.070472546 0.17474516
-0.9208472 -0.09129724 0.2830997 0.046655923 0.15568657 0.2947436 0.2230516 0.10328064
0.070826255 -0.5157192 -0.043624625 0.09697602 -0.3553202 0.07095985 -0.08408924 0.022682412
-0.070320584 -0.023137761 0.11293672 0.036879502 -0.21576986 0.03595227 -0.104365475 0.008559063
0.16001411 0.09765256 0.052254573 0.19711962 0.047565386 -0.006989288 0.026879802 -0.07370525
0.23216216 0.14667815 0.18196489 -0.3314633 -0.13870972 0.26002958 0.13783535 -0.005042684
0.1888047 -0.04322312 0.1516589 -0.108035214 -0.026160933 0.38432625 -0.1272447 -0.17368488
0.036174152 -0.12518544 0.14858831 0.32670954 0.32082015 0.16785012 0.42017326 0.2530967
-0.33441848 0.21811916 -0.24230629 -0.07523018 -0.12217926 -0.12214594 -0.1213423 -0.49995124
-0.033536565 -0.19500282 -0.19953316 -0.089351244 -0.119357586 -0.18228158 -0.06754943 -0.24643236
-0.29714084 -0.16009754 -0.040738344 -0.13987994 -0.018613163 -0.6161359 -0.58888674 -0.27748364
-0.44755593 -0.3673245 -0.18587315 0.084418304 0.055799656 0.1473914 -0.21396253 -0.25483835
-0.13299888 0.2777366 0.15340406 0.13776626 -0.22567958 -0.2801588 -0.38215402 -0.106894754
-0.11742892 -0.15144809 -0.012623795 0.10071685 -0.023722805 0.09518749 0.23036657 0.08323989
-0.22756118 -0.65919113 -0.19820409 -0.19538665 -0.4451174 -0.28628254 0.04433518 -0.12848724
-0.0948946 0.05068398 -0.009189341 0.19867337 -0.36858612 -0.69103795 -0.08389117 -0.15069112
-0.3230391 0.04983797 0.09661367 0.0048852703 0.056907594 -0.0134743815 -0.15262648 -0.024385082
0.006763271 -0.061266992 -0.02389195 -0.0259221 -0.034970302 0.19692884 -0.2074066 -0.20528409
-0.11852465 -0.032410044 -0.011671985 0.027747922 -0.008311394 -0.18775624 0.2045179 0.025828602

0.res1.conv2.bias f4 [6]
00000000: 4c02 a2b8 605b 75b7 c9a3 bd38 7da5 ac37
00000010: d60e a2b7 b89e d4b7
-7.72519e-05 -1.4624413e-05 9.04273e-05 2.058106e-05 -1.9318813e-05 -2.5346279e-05

0.res1.batch_norm1.weight f4 [6]
00000000: 9d6e 923f f702 8b3f c7c4 333f 74cb d63e
00000010: 6831 883f af8f 233f
1.1440006 1.086028 0.70222133 0.41952097 1.0640078 0.6389112

0.res1.batch_norm1.bias f4 [6]
00000000: 129b d2bc 187f 5a3d be38 8abe 3deb 84bd
00000010: 90e1 5cbf 73fd d33e
-0.025708709 0.053343862 -0.26996416 -0.06490181 -0.8628168 0.41404304

0.res1.batch_norm1.running_mean f4 [6]
00000000: 9fe5 29bf a242 dc3e 37a4 45c0 56b3 fe3f
00000010: c691 243f 4b0e 85bf
-0.66366 0.43019587 -3.0881479 1.9898479 0.6428493 -1.0394987

0.res1.batch_norm1.running_var f4 [6]
00000000: 3cec ea40 0209 1d41 4f45 1441 b925 4b41
00000010: e6da 763f 79e0 0540
7.341337 9.814699 9.266921 12.69671 0.9642776 2.0918257

0.res1.batch_norm2.weight f4 [6]
00000000: 3484 8f3e c615 543d 95b1 763e a855 b53e
00000010: 5c28 0c3f 17f6 513e
0.2803055 0.051778577 0.2409118 0.35416913 0.54749084 0.20504032

0.res1.batch_norm2.bias f4 [6]
00000000: bc55 6bbe bd70 96bd f06e a03e 88fa 86be
00000010: 4d74 31bd 1049 36bf
-0.22981924 -0.07345722 0.3133464 -0.26363015 -0.043323804 -0.71205235

0.res1.batch_norm2.running_mean f4 [6]
00000000: 5b94 8fbf c863 e13e 924d 2ebe 025b 24bf
00000010: 860f 82bf f04d 0f3f
-1.121715 0.4402144 -0.17021778 -0.64201367 -1.0160987 0.559783

0.res1.batch_norm2.running_var f4 [6]
00000000: 83cc 9a3f c721 373f 72a4 ec3e b7a9 6b3f
00000010: 86f2 b540 058e f93f
1.2093662 0.71535915 0.46219212 0.9205584 5.685855 1.9496466
