autoencoder/checkpoints/encoder_small_3ep.pth (torch, 9143 bytes, 8 tensors)

conv1.weight f4 [3, 3, 3, 3]
00000000: e345 523e 76c7 db3d 45cb ecbd 813b 5dbc
00000010: c390 ff3d 50d7 e63d 70f0 fdbd cc0c 393e
00000020: 18fe 3c3c f9b1 863d 1070 6fbd 9d3d 023e
00000030: 333a 15bc a721 e7bb 32a3 14bc 6714 253e
00000040: c9af f93b fbfe d63d 91c9 c53d 3574 e2bd
00000050: 2860 bb3d 4111 003e a4ae 6ebd 641a 05bd
00000060: d194 223e b380 333e 7402 babc 53eb b83d
00000070: 3d90 923d db93 0a3e 0a2e 11be e773 b83d
00000080: 8357 05be 1e78 803d d6f8 b0bd 8137 243e
00000090: a13f 4c3d 9324 ffbd 69d6 283e a973 06be
000000a0: 9e52 103e 4655 7f3c 18ee c6bd 549e f23c
000000b0: 7dc9 123e 74c1 33bd 693f 92bd f669 5e3e
000000c0: ca08 5a3d 1516 d5bc 8cf6 ecbd dc07 cdbc
000000d0: d511 3f3d 8a13 4e3e 2b51 a1bc 7745 aabd
000000e0: 46bd bebd 9a6c 043d b0c1 213e 46d4 eabd
000000f0: 4a35 0f3d 6aeb 39be 49bd 003b 1632 fcbd
00000100: dff1 203d 44b5 b9bd a228 b9bc 2a39 253c
00000110: c526 183e c515 44be e2c3 3f3d d125 c2bc
00000120: dbfb bd3c d9ea 24be 563b b63c 1d29 113e
00000130: 0890 a3ba f0a0 ac3d 7785 2bbd c5e8 c0bd
00000140: 1d73 4fbe
0.20534472 0.107314035 -0.11562208 -0.013502956 0.12478783 0.11271536 -0.123993754 0.18071288
0.01153519 0.06576914 -0.05845648 0.12718816 -0.009108114 -0.007053572 -0.009072112 0.16121064
0.007619832 0.104978524 0.09657586 -0.11057321 0.091492 0.12506582 -0.05827202 -0.03249587
0.15877081 0.17529564 -0.022706248 0.090292595 0.071564175 0.13532965 -0.14177719 0.090064816
-0.13021664 0.062729105 -0.08641212 0.16036798 0.04986537 -0.12458148 0.16488041 -0.13130058
0.14094016 0.015584296 -0.097133815 0.029616512 0.14334674 -0.043885663 -0.07141001 0.21720108
0.05323104 -0.026011506 -0.115704626 -0.025028162 0.046647865 0.20124641 -0.019692024 -0.083140306
-0.09313445 0.032330133 0.15796542 -0.11466269 0.03496293 -0.1815621 0.0019644073 -0.12314241
0.039293166 -0.09067777 -0.022602383 0.01008443 0.1485854 -0.1914893 0.046817668 -0.023699673
0.023191383 -0.16105212 0.02224509 0.1417584 -0.0012478838 0.08429134 -0.04187533 -0.09419397
-0.20258756

conv1.bias f4 [3]
00000000: 93c0 083e e1ab fcbd 0d62 3bbd
0.13354711 -0.12337471 -0.045747805

conv2.weight f4 [10, 3, 3, 3]
00000000: f971 1abe e116 923d 4623 c3bc 60a0 0cbe
00000010: cb37 b9bc fb0a ec3d 8f04 113c 7907 e03d
00000020: ddef 16ba d2fc 71be 9221 ae3d 5039 323d
00000030: 8147 a93c 443e d1bd 88c1 04bd 1df3 883d
00000040: 16e8 a5bd bc45 33be a723 c8bb a82b eb3d
00000050: a61e 96bd 068a cdbd 0ead b7bd 26bb 88bd
00000060: 5fac 4cbd 3720 8c3d 7b4c d83d c9e4 7bbb
00000070: 817b 783e 3b08 183e 870b 993d f244 7c3a
00000080: da9b 943e adc4 87bc 2dc2 82bc d121 833e
00000090: d86e 363d 1cac 00bd eae6 383e 6769 903e
000000a0: c91c 963e 84e2 0b3e 7262 133d 403f 2abd
000000b0: b28c 143e f146 a63e e84b 8d3e fce1 a63e
000000c0: e0fd ae3e 686d 993e 24a6 973e e9f8 933e
000000d0: 32ad 943e 5628 063e c52b c2bd daf3 f0bd
000000e0: 1513 093d da82 3abe 4fbf 04be 6802 14be
000000f0: 00e0 7dbe 8ffa 1dbe 43f6 69be e7ce 003e
00000100: d3a0 893e e9da e43d 139b 2c3c c619 703d
00000110: d5c7 a83e 6eb8 b13b 2653 99bc 8eba fe3d
00000120: fa8d e7be 9fda 1abf 94ac c0be 972c 0ebf
00000130: 918e d3be 2eaa 01bf d2f0 cabe 8f2d 03bf
00000140: 144a 08bf 5600 ff3d ce38 d7bd c24f 5d3c
00000150: 927f 19bd da68 fdbd 7797 15bd 2ba7 263d
00000160: 5e03 83bc 1f34 f1bd 375a 123d a4b8 ecbd
00000170: 1842 3e3e 601c 7b3e 942e 363d 0888 473e
00000180: e654 d5bd 434d 113d 51e1 8fbd 40a3 5dbe
00000190: 9a31 32be 9e0c ce3d 2668 e33d e208 07be
000001a0: c57d 423d 7a81 ce3c 44d2 a13d bed2 4ebe
000001b0: 8844 ffbd c5ec b83d 77c7 bf3d 6b33 06be
000001c0: 2400 5d3e 1270 fb3c a585 613e b893 f2bd
000001d0: 5221 08be 3863 c7b9 6f1f 19bd 70f9 8a3d
000001e0: c773 eabd 789b 75bd fc9c c03c 9727 89be
000001f0: 6c4f 6dbe cebb 973d 0e69 35bd 476b 31be
00000200: 94d8 41be 2ca6 1a3e 39d6 813d 7bce 93bc
00000210: 4e79 59be abcc ef3d 7947 abbd 63f8 1ebe
00000220: 6d59 27be 6d05 afbb 6e51 16bd fe3e cbbd
00000230: e82a 97bb bd0f c9bd 8d31 6fbe 8315 773d
00000240: f2d3 33bd f207 b43c 495a 01be a5df 983d
00000250: 7714 1dbc bf7a b93c f9f2 003e 19d5 6bbe
00000260: fb54 51bc 5d97 4fbe ab27 b4bd 17f9 ccbd
00000270: 049a 35bd 7635 5dbe 67c3 09be e5d2 143d
00000280: de09 3dbd 36ec 47be f6b2 173e e267 1fbe
00000290: 3069 ee3d 9e3a 133e 3082 f03d f812 43be
000002a0: 9533 0dbe 2cef 183e aebc f33c 1265 7ebe
000002b0: dbe2 23be 96f5 89be a61f 82be da7a 61be
000002c0: 5d36 a8bd 9c25 d43b aaea 60bc 79a9 09be
000002d0: b279 433d 5d98 25be 81be c63d 0881 6c3d
000002e0: 6471 27be 228e 32be 3985 9ebd 2402 d03d
000002f0: 5643 6fbe 14f3 da3d 898c ff3d 722c d73c
00000300: 1d26 ef3c 96d9 b4bd 6ff1 f6bd 951a 0bbc
00000310: 8c1e fd3d af7b 723e 9571 97bd 979f 59be
00000320: 8ca8 593d d68d 73bd 93cb c9bd 91a2 383d
00000330: 5382 07be ed83 f2bd 7763 63be 1d1e 35be
00000340: 7529 bb3d 3aba 02be c558 4fbe db38 83be
00000350: 9683 2cbd ae8e 5f3c 9e8d b8bc f51c 943d
00000360: f14c 6f3e 4d88 f43d f93c 3d3e c2c3 753e
00000370: a423 7c3d 22f1 8d3e d0fc d23e b979 043e
00000380: 85c9 9d3e 1d9b 76bd 3ba1 40bd 95f1 9d3e
00000390: ad4d 423c e2b8 193e 3da6 20bc d9d8 973b
000003a0: 71f7 623e 871e c33b 6fc1 143f a9a6 dd3e
000003b0: 9182 c83e d694 f83e 32a1 eb3e 6ae4 0e3f
000003c0: fa0f 073f 6d5e 303f 16ed f43e b7bf 233e
000003d0: 90f2 9dbd 587f 473e d741 df3d ece6 fdbd
000003e0: bdd7 f23c f831 2fbd 7b27 0b3d 010f cebd
000003f0: 54a9 4a3e 9278 e33d 9053 1e3c 1d61 723e
-0.1508254 0.0713327 -0.02382053 -0.13733053 -0.022609612 0.11525532 0.0088511845 0.10938925
-0.00057577883 -0.236316 0.08502497 0.04351169 0.020663979 -0.10216954 -0.03241113 0.06686995
-0.081009075 -0.1750707 -0.0061077657 0.11482936 -0.073300645 -0.100360915 -0.089685544 -0.06676321
-0.049969073 0.06842082 0.105614625 -0.0038435927 0.24265863 0.1484689 0.07472902 0.0009623311
0.29025155 -0.016573275 -0.01596173 0.25611737 0.044539303 -0.031414136 0.18056837 0.28205416
0.29318836 0.13660628 0.035982557 -0.041564226 0.14506796 0.32476 0.27596974 0.32594287
0.34178066 0.29966283 0.29618943 0.2890084 0.29038388 0.13101324 -0.094810046 -0.11765261
0.033465464 -0.18213978 -0.12963603 -0.14454043 -0.2479248 -0.15427612 -0.22847848 0.12578927
0.26880512 0.11174566 0.010535019 0.05861833 0.3296496 0.005423597 -0.018716406 0.12437926
-0.45225507 -0.6048984 -0.37631667 -0.5553679 -0.41319707 -0.506503 -0.39636856 -0.5124139
-0.53238034 0.12451236 -0.105088815 0.013507785 -0.037475176 -0.123735145 -0.0365214 0.040686768
-0.015992817 -0.117775194 0.035730567 -0.11558655 0.185799 0.24522543 0.044478014 0.19485486
-0.10416584 0.035474073 -0.070253976 -0.21644306 -0.17401734 0.10061 0.11103849 -0.13186982
0.047483224 0.025208224 0.07901433 -0.2019758 -0.12464243 0.09029535 0.09364217 -0.13105552
0.21582085 0.030693088 0.22023638 -0.11844581 -0.1329396 -0.00038030162 -0.037383493 0.06785858
-0.11447864 -0.05996272 0.023512356 -0.26788017 -0.23174828 0.07408868 -0.04428964 -0.1732608
-0.18930274 0.15102452 0.06339688 -0.018042793 -0.2123768 0.11708959 -0.08363242 -0.1552444
-0.16342707 -0.005341223 -0.03669875 -0.09924124 -0.004613269 -0.09817455 -0.23358746 0.06032325
-0.0439033 0.021976445 -0.12632097 0.07464532 -0.009587399 0.022641538 0.12592687 -0.23030509
-0.012776609 -0.20272584 -0.087966286 -0.100084476 -0.044336334 -0.21602425 -0.13453446 0.036333937
-0.04615199 -0.19523701 0.14814362 -0.15566972 0.11641157 0.1437783 0.11743581 -0.19050205
-0.13789208 0.14934987 0.029753055 -0.24843243 -0.16004507 -0.2694518 -0.2541477 -0.2201952
-0.08213494 0.00647421 -0.013727823 -0.13443555 0.04772348 -0.16171403 0.097043045 0.05774024
-0.16351849 -0.17437032 -0.07740254 0.10156658 -0.2336553 0.10690895 0.12477977 0.02626631
0.029192979 -0.08830564 -0.120577686 -0.008490224 0.12359342 0.23679994 -0.07394711 -0.21252285
0.053139254 -0.059461437 -0.09853282 0.04507691 -0.13233308 -0.11841569 -0.22205912 -0.17687269
0.09138767 -0.12766352 -0.20248707 -0.25629315 -0.042117678 0.013644857 -0.022528466 0.072320856
0.23369195 0.1194006 0.1848029 0.24000457 0.061557427 0.27723032 0.41208506 0.12937059
0.3081781 -0.06020652 -0.04702876 0.30848375 0.01185934 0.15011933 -0.009805259 0.0046340046
0.22164704 0.005954567 0.58107656 0.43291214 0.39162114 0.48551053 0.4602142 0.5581728
0.52758753 0.6889408 0.47837132 0.15991102 -0.07712281 0.19482172 0.1090123 -0.123975605
0.029643888 -0.042772263 0.0339732 -0.100614555 0.19791156 0.11106981 0.009663478 0.23669858

conv2.bias f4 [10]
00000000: b4a3 e0bd 3d97 a53e eb5c 73be a340 04bd
00000010: 566d 11bf d1cb 97be 1bf1 52bf cbb5 6dbf
00000020: f032 093f 937a c73e
-0.10968724 0.32341948 -0.23765914 -0.032288205 -0.5680746 -0.29647687 -0.8239915 -0.9285552
0.5359335 0.38960704

conv3.weight f4 [10, 10, 3, 3]
00000000: 45cc fcbd b4f8 94be cc35 22be f95d 74be
00000010: 84ff 8cbe 439d edbd 7635 8dbe edd6 13be
00000020: f696 87be a397 183f ee3b 023f 6e79 1b3f
00000030: 37ab d13e b324 e13e 5a9d d13e a0e6 e53e
00000040: c2d5 143f f38c 043f 0cfb e4bb d10e fabc
00000050: 7b94 87bd 0fb4 b0bd db0f a53d 5015 49bc
00000060: ccea cdbd 4ae9 e0bd c7b2 0f3d f179 273e
00000070: be13 ae3e 5f78 593e e605 343e 513b 823e
00000080: 9d4d 5a3e ee45 5d3e 026e ae3e 42fa 393e
00000090: d503 35bd a671 7bbe f2bc a0bd 5988 29be
000000a0: 5ade 3ebe 3a34 0dbe 82f5 9bbd ddf2 98bd
000000b0: 5f45 aabd 05b4 98be 643d 9cbe ec71 3ebe
000000c0: a84b 80be ba22 82be d731 43be e02e a2be
000000d0: dbbc 63be b835 a8be 87e8 4c3e fe06 3d3e
000000e0: fd99 8e3e c04d 313e 2806 813e dbf1 783e
000000f0: 5818 b23e de9b b73e 7c3a 573e df49 dabd
00000100: ef7c ecbd 4a78 10be 6bb5 b6bc 7c29 1ebe
00000110: 8284 34bd 4811 0abe 3faa 39be f52b abbd
00000120: d14f 30bd a2b1 d6bd 00ea 99be 67aa 8abd
00000130: 7e4b fabd 17bc 52be ef63 51be a32a b7be
00000140: 87f4 92be 3131 51be 5da3 7dbe 84df 12be
00000150: 6499 6ebd c1ae aabd ec2a 43be 2dbf 2dbe
00000160: 8a81 7dbe 3745 fdbd 8162 14bf feb5 07bf
00000170: 5577 f7be 8c22 1fbf a6da ecbe 6fa3 1dbf
00000180: f8d1 d2be 40da eabe 46ae e3be 6fbc fc3d
00000190: 8e99 443e cbe9 853d 2de0 c53d a430 dc3d
000001a0: 3167 473e 02ff 873e e1f1 873e 73fe eb3d
000001b0: 14df 89bc 0a13 3abe 2f1a 39bd a2dd 91bd
000001c0: 0fe5 f0bc 1ec8 9cbd e242 2cbe 7e2c b7bd
000001d0: 246e c9bd e915 cc3e f2e2 f73e 668d eb3e
000001e0: 45f2 fb3e 60c2 e93e f0c9 c63e 972e 003f
000001f0: 5efb bf3e 49d6 c93e ce69 27bf d1dc 12bf
00000200: 93d5 1ebf 6221 01bf 2b9e 00bf 23a6 1fbf
00000210: fe71 f7be a7f8 e7be 2b8a 15bf d1be 1f3e
00000220: af3e 223e e40e 163d f16b 0bbb 1d82 8e3c
00000230: d057 073e a99d 053e b285 16bc d84f 243c
00000240: 6f73 0f3f 9df0 163f 1252 fd3e 569f 0d3f
00000250: af50 123f efe3 023f cf61 0c3f f28b 0a3f
00000260: 0efc fb3e cb08 febe b46b 0abf 8480 efbe
00000270: abb1 ffbe 4e46 e6be a906 09bf 1c8d d9be
00000280: 3382 09bf 511a c0be 61ba 1fbe 97c3 35be
00000290: 4269 a5be 378d 84be 7c59 f9bc 603c 81be
000002a0: eed5 8bbe cb19 3fbe 107a 96be d5d3 d5be
000002b0: 6f92 d6be 5b0f e0be 1a1b ffbe 580d cebe
000002c0: ca2c e4be b2e2 03bf 778f bcbe 5241 c5be
000002d0: 93d5 e73e 7d5c bc3e 5fee d03e 00c1 b43e
000002e0: 39fa eb3e ce55 ce3e 443f c03e 7421 db3e
000002f0: 9c4d 0a3f 4653 e7be 8e72 1cbf 751f d5be
00000300: 3176 0cbf 890f 14bf 7396 10bf f379 e2be
00000310: 5ff2 dfbe 05d1 cbbe 9507 ccbd 48c1 5bbd
00000320: fed8 6dbd 361b 2ebe da24 2dbd 6456 3abe
00000330: b143 64bd 3827 bdbd cc9b 20be 963e f4be
00000340: 3c95 09bf c931 bcbe 919e e7be 6e79 e6be
00000350: 004d fdbe 9bee c0be 0e2a d3be ffaa 02bf
00000360: 56ac ae3e a10c 9e3e 8df6 013f 42fc d13e
00000370: e377 b83e 181b d03e cba4 b63e 2452 e73e
00000380: 6c96 043f 1200 163e 4f89 8b3d bb18 3f3d
00000390: e11c 8e3d ea2a 05bc 28ff 003d afaa f33d
000003a0: 6a14 073e 2b96 273d e8e8 f0be 0ed0 ebbe
000003b0: 9afb e8be 03f6 e1be 1f3f e2be 7873 07bf
000003c0: 78a7 04bf f23c 15bf e27b debe 9dd7 a53e
000003d0: e7bc 8b3e ca83 ca3e f27e ba3e a52e b73e
000003e0: 6251 843e 6e40 a93e 658c b33e 0e72 693e
000003f0: 71f5 953e dc24 903e b8e6 d63d 171b 663e
-0.12343649 -0.29095995 -0.15840834 -0.23863973 -0.27538693 -0.11602261 -0.2757985 -0.14437456
-0.26482362 0.5960638 0.50872695 0.6073216 0.4095094 0.43973312 0.40940362 0.44902515
0.5813867 0.5177757 -0.006987935 -0.030524643 -0.06620117 -0.086280935 0.08059665 -0.012273148
-0.100545496 -0.10981996 0.035082605 0.1635511 0.33999437 0.21237324 0.17580375 0.2543588
0.2131867 0.21608707 0.34068304 0.18161872 -0.044193108 -0.24555072 -0.078485385 -0.16555919
-0.18639508 -0.13789454 -0.07615186 -0.074681975 -0.08314013 -0.29824844 -0.30515587 -0.18598145
-0.2505772 -0.2541712 -0.19061981 -0.31676388 -0.22240011 -0.32853484 0.20010577 0.18459699
0.2785186 0.17314816 0.2520001 0.2431101 0.34784198 0.35861105 0.21018404 -0.10658621
-0.11547267 -0.14108387 -0.022303304 -0.15445513 -0.04407168 -0.13483155 -0.1813135 -0.083579935
-0.04304487 -0.104830995 -0.3006134 -0.06770783 -0.1222143 -0.20579563 -0.20448278 -0.35774717
-0.28702185 -0.20428921 -0.2476935 -0.14343077 -0.058251753 -0.08334113 -0.19059342 -0.16967459
-0.24756446 -0.12366717 -0.57962805 -0.53012073 -0.4833323 -0.6216209 -0.46260566 -0.61577505
-0.41175818 -0.45869637 -0.44468898 0.12340628 0.19199201 0.06538733 0.09661899 0.10751465
0.19472958 0.26561743 0.26551726 0.11523142 -0.016830005 -0.18171325 -0.045190986 -0.07122351
-0.029406099 -0.07655357 -0.16822389 -0.08944033 -0.09835461 0.39860466 0.48415333 0.46006316
0.49208274 0.4565611 0.3882594 0.5007109 0.37496465 0.394213 -0.6539582 -0.5736819
-0.6204464 -0.50441563 -0.50241345 -0.6236288 -0.48329157 -0.45306894 -0.5841395 0.15600134
0.15844224 0.036635295 -0.0021274055 0.017396027 0.13217092 0.13048424 -0.009187149 0.010028802
0.5603551 0.58960897 0.49476677 0.5532125 0.57154363 0.5112905 0.54836744 0.5411979
0.4921574 -0.49616084 -0.5407059 -0.46777737 -0.49940237 -0.44975513 -0.5352579 -0.4249047
-0.53714293 -0.37520078 -0.15598442 -0.17750393 -0.32306868 -0.25888988 -0.030438177 -0.25241375
-0.27311653 -0.18662183 -0.2939 -0.41763178 -0.41908595 -0.43761715 -0.49825364 -0.40244555
-0.4456542 -0.51517785 -0.36828205 -0.38526398 0.45280132 0.36789313 0.40806863 0.35303497
0.46089342 0.4029984 0.37548268 0.4279896 0.5402467 -0.4518072 -0.61112297 -0.41625562
-0.54867846 -0.57836205 -0.5647957 -0.44233665 -0.43739602 -0.39807907 -0.09962384 -0.053651124
-0.058068268 -0.17002568 -0.042271473 -0.18197018 -0.055728618 -0.09235996 -0.15684432 -0.47704
-0.5374334 -0.36756733 -0.45238164 -0.45014518 -0.4947281 -0.37682042 -0.41243023 -0.5104217
0.34115857 0.3086901 0.5076683 0.4101277 0.36028966 0.4064567 0.35672602 0.45179856
0.51792026 0.14648464 0.06813299 0.046654444 0.06939102 -0.008127907 0.031493336 0.1189779
0.13191381 0.040914696 -0.47052693 -0.4605717 -0.45504457 -0.44133005 -0.44188783 -0.52910566
-0.5181804 -0.5829612 -0.4345389 0.32391062 0.2729256 0.39553672 0.36424977 0.35777774
0.2584334 0.33056968 0.3506805 0.22797415 0.2928882 0.2815312 0.10493225 0.22471271

conv3.bias f4 [10]
00000000: a674 81bd 1af1 9abe cce4 b7be 34d1 5dbe
00000010: 18df 6cbe 1db3 debe a726 b1be dd41 c6be
00000020: 1714 8c3e 9bd8 3b3e
-0.06321077 -0.3026207 -0.35916746 -0.21661836 -0.23131979 -0.43496028 -0.34599802 -0.38722125
0.27359077 0.18344347

conv4.weight f4 [3, 10, 3, 3]
00000000: b466 ef3e 9c7d eb3e a454 b23e 1b83 9f3e
00000010: 3967 8a3e 9aec f53e 1ad8 d73e 96e8 ab3e
00000020: 1d24 a33e 80ad 633e eaa3 883e 1cfe cf3e
00000030: 6677 083e a065 8a3e 0b28 a33e e8f2 b33e
00000040: 99b1 aa3e 4c99 e63e 4de3 01bf bbb1 ccbe
00000050: beb3 f5be 6d2f 0abf 8c6a f9be 7369 c6be
00000060: 3d59 dabe c2c9 fcbe 045b c7be 57dc 7d3e
00000070: ddff 1d3e 730f a73e 17d5 933e f4c7 973e
00000080: 0dee 9d3e 03c1 943e 360f 663e 6125 553e
00000090: 282c 08bf 97e2 d0be 6ef1 ebbe 172b e4be
000000a0: 825f 00bf 2aff 0cbf 7ad0 f9be d35f d5be
000000b0: 4896 03bf fe74 913e fee2 7a3e 3f8c ce3e
000000c0: 9e8c ab3e 9e8b be3e 0ef6 a93e 987e 8d3e
000000d0: b03a cd3e 6ea7 c63e b2a0 3abe 256f 49be
000000e0: 63c1 15be 8504 10be 2603 04bc 4cfc 2dbd
000000f0: faa0 e0bd eb30 08be 7894 35be 7fc9 8b3e
00000100: 0963 b53e 04b0 b73e 585f c53e 7791 b63e
00000110: 21bb 623e 34e5 573e 4355 5b3e e594 ab3e
00000120: 5fbe 4e3e 92b2 1b3e a69d 793e 698f 8a3e
00000130: 8c2c 8a3e f37f a73e 34a4 8c3e 7a1f 793e
00000140: ab60 1f3e 253f 91be 5025 9cbe ed97 30be
00000150: 4f4f 8ebe 8634 7ebe 65ac 81be f199 a1be
00000160: 6cde 7dbe b949 2dbe 73d5 673e 41dc 813d
00000170: 3d17 283d 4145 ae3d fd66 393e b3db 143d
00000180: 4b8e 253d 15c1 373e 1de6 0e3e c15d 2ebd
00000190: 975b dfbb 9f6a 9fbd cd4e afbc d810 92bd
000001a0: 85da e33c bd37 f1bc ee0f bebd dbeb 7fbc
000001b0: e7f1 fbbc 0f52 dd3b 36d4 13be e3b6 31bd
000001c0: e67f 723c e641 d7b9 1ce1 2bbe ac81 a6bc
000001d0: e997 c1bc 25e4 d93d 2055 f83d 46a8 503c
000001e0: 6cd9 6abd baa6 233d 61b8 15bd fdf6 6b3d
000001f0: f9e8 d03b 0d49 1ebb 68ed 923e 7a3d 253e
00000200: eb70 a83e 726f b43e c3d9 b33e 17f7 813e
00000210: 0f36 483e 496b ac3e d7e2 5f3e 9b01 273e
00000220: 6f7a 8f3e 10ba e43d 3c18 363e 7292 253e
00000230: b30c 2b3e b18c 633e 51b4 7e3e a4a4 1f3e
00000240: 628e ab3d 69de 0c3c ec27 3f3d f4e7 8e3e
00000250: 91b1 fd3d b66b 813e 5024 183d b2e4 1fbc
00000260: 56db 283d 542d 9a3c fcea 21bd c350 c93c
00000270: 4736 e0bd b6ed 1a3d 42f6 54bd b854 f8bc
00000280: e0f4 04be 8fd2 a6bd 764c dabc fa89 dc3b
00000290: eede 13be aef6 19be 3e65 c2bd 0c0e 1abe
000002a0: da84 3bbd 3549 24be 7778 bfbd 210f 29bd
000002b0: 13fc c3bb 90c7 b8bc 4b44 5cbc ddd2 a1bd
000002c0: f54c 35bd a820 a6bd da58 6ebc d1db bbbc
000002d0: 1a14 64bb 5090 033e ee9a 983d f540 3cbd
000002e0: f1be a13d d65a 383e a2d9 c1bd bdaf 033d
000002f0: 1672 4a3e a587 62be 3642 7fbe 69b6 52be
00000300: d5ff a9be 035c 00bf a866 98be 49fc d4be
00000310: 7f5d a1be baf4 65be c54e 193d fcd6 473d
00000320: 90f4 313e cb9a 26bd 6e2b 073e 5af2 c13d
00000330: 0b40 c03d c7f5 443d 6a1e aa3d df3f cdbe
00000340: 8c52 c1be 3a0d c9be b713 fcbe d0f5 b2be
00000350: 3c26 f0be 0292 d7be 70c0 c6be 3ec5 05bf
00000360: 99c3 bb3e 38be b63e 77e7 a63e 0d7f 3d3e
00000370: ea9e 9e3e 71ce 9f3e e31b a43e 3a82 873e
00000380: d34d 853e d44c 3fbd 415c e73d f132 06bd
00000390: c565 2ebb c26f ba3b 2f03 553d 0731 c63d
000003a0: 471c ed3d 1cbe 0d3e 3501 c53e 72f2 293e
000003b0: 1874 8f3e d89e 503e 5b52 173e 6e15 de3e
000003c0: 50d8 f23d 7943 ef3d 6e9c a03e b20f 0bbf
000003d0: ffad b8be e8d0 b2be d371 b9be 044b 03bf
000003e0: e115 cfbe cd74 d0be c059 c6be ac4e c1be
000003f0: 9a85 8fbe 4854 84be 7273 82be 9d0c 89be
0.46758044 0.4599427 0.348302 0.31154713 0.27031878 0.48032075 0.4215706 0.33575886
0.3186349 0.22234154 0.26687557 0.40623558 0.13326797 0.2703066 0.31866488 0.3514626
0.3333862 0.4503883 -0.5073746 -0.39979348 -0.47988695 -0.53978616 -0.487141 -0.38752326
-0.42646208 -0.4937268 -0.38936627 0.24791084 0.15429635 0.32628974 0.28873512 0.2964474
0.3084568 0.29053506 0.2246674 0.2081504 -0.5319238 -0.40797874 -0.46082634 -0.44564125
-0.50145733 -0.5507685 -0.48791867 -0.4167467 -0.51401186 0.2840957 0.24500653 0.40341374
0.3350572 0.37215894 0.33195537 0.27635646 0.40083838 0.38799614 -0.18225363 -0.19671305
-0.14624552 -0.14064224 -0.008057391 -0.042476937 -0.10968204 -0.1329991 -0.17732418 0.27302167
0.3542712 0.35876477 0.38549304 0.35657856 0.22141697 0.21083528 0.21419244 0.33512035
0.20189808 0.15204838 0.24376544 0.27062538 0.26987112 0.32714805 0.27469027 0.24328414
0.1556422 -0.28368488 -0.30497217 -0.17245455 -0.27794883 -0.24824724 -0.2532684 -0.3156276
-0.24791878 -0.16922654 0.22640018 0.06340838 0.041037787 0.08509303 0.18105693 0.036342334
0.040418904 0.17944749 0.13954969 -0.04256988 -0.0068163383 -0.07784008 -0.02139988 -0.07132119
0.02781416 -0.029445523 -0.09280382 -0.015620197 -0.030754996 0.006754167 -0.14436421 -0.043387305
0.014801001 -0.00041057094 -0.16785091 -0.020325504 -0.023632007 0.10639218 0.12125611 0.012735432
-0.057336256 0.039953925 -0.03655279 0.057608593 0.0063754288 -0.0024152428 0.28696752 0.16136733
0.3289865 0.35241276 0.35127077 0.25383827 0.19551872 0.33675602 0.21863876 0.16309206
0.28023097 0.11168301 0.17782682 0.16169146 0.16704063 0.22221638 0.24873473 0.15590149
0.08376767 0.008597949 0.04666893 0.2791134 0.12387384 0.2527749 0.037144005 -0.009759115
0.0412248 0.018820442 -0.03953074 0.024574643 -0.109478526 0.037824355 -0.051992662 -0.030313835
-0.12984037 -0.081456296 -0.026647788 0.0067303153 -0.1444051 -0.15035507 -0.09491967 -0.15044421
-0.045780994 -0.16043551 -0.09349149 -0.041274194 -0.0059809773 -0.022556096 -0.013444017 -0.07901547
-0.044262845 -0.081116974 -0.014547551 -0.022931965 -0.003480202 0.1284802 0.074514255 -0.045960385
0.07897747 0.18003401 -0.09465338 0.03215002 0.19770083 -0.22122057 -0.24927601 -0.20577396
-0.33202997 -0.501404 -0.2976582 -0.41598728 -0.31516644 -0.22456637 0.037428636 0.04878901
0.1737845 -0.040674966 0.13200161 0.09470053 0.09387215 0.048085954 0.08306582 -0.40087792
-0.3775829 -0.39267904 -0.4923379 -0.34953165 -0.4690417 -0.42103583 -0.38818693 -0.5225409
0.36672667 0.35692 0.3259847 0.18505497 0.30980617 0.3121219 0.32052526 0.26466542
0.26035938 -0.04670413 0.11296893 -0.032763425 -0.0026610952 0.005689592 0.05200499 0.0967732
0.11577659 0.13842052 0.38477483 0.16596392 0.2801826 0.20373094 0.1477751 0.43375725
0.118576646 0.11682791 0.31369346 -0.54320824 -0.36070248 -0.34925008 -0.36219653 -0.5128634
-0.4044638 -0.40714112 -0.3874035 -0.37755334 -0.28031617 -0.25845551 -0.25478703 -0.26767436

conv4.bias f4 [3]
00000000: a4b2 7abf 1bcc 793e 09b0 35bf
-0.97928834 0.24394266 -0.70971733
