autoencoder/checkpoints/encoder_big.pth (torch, 208585 bytes, 10 tensors)

conv1.weight f4 [10, 3, 3, 3]
00000000: b96c 043e 4b1e e63c 6b62 793e 86fa 933e
00000010: 1230 9a3e 630f 2a3d 7427 273e 671c aa3e
00000020: 3315 0c3e 2157 483e d2c8 5c3e 71fe 983e
00000030: 2b0a 743e 6079 e13d b84d 173e 39a5 1f3d
00000040: 47e8 123d 1ab6 5b3e d689 103e d5b9 a6bc
00000050: 3f34 743e a4b5 19bd e2a6 4b3e a669 8f3c
00000060: 5cab 493e 4ff1 173e bb7e 273d aa12 0a3e
00000070: a87d 0f3e b5e0 003e 687f 91bd ed84 e23b
00000080: 0d25 e8bd 6d50 03bc 498e 1a3e d729 2ebe
00000090: b3b0 4abe 06c2 90bd aaad 08be 1b85 c53d
000000a0: 408a 51be 959d 9f3d 2b4f 99bd bcc8 79bd
000000b0: bf0d 19be baa8 293b bbeb f33d 399d 99bd
000000c0: 51bb 65bc fa1b ad3d c15f 22be 6686 18be
000000d0: 5273 e13d 717a c8bd 8723 383c d68a 263e
000000e0: c97e ccbd 7287 a13d ca7b 473c 40f0 333c
000000f0: 8f26 8cbd e5e3 443e 271a d2bc c386 733d
00000100: 60d2 4b3d 3596 8b3d 92ca 263e b608 243e
00000110: 4882 533e b8e6 793e e6ff 153e 5c90 513e
00000120: 504d 2e3e bf1b fcbc cfa6 ccbc 732a 783e
00000130: 3b44 633d a2fb a1bd 4f9f 1f3e f48d b6bc
00000140: f477 5abd e5e3 e03d c590 4abd 08be 90bc
00000150: f5e4 c6bc b311 cf3d 2643 043d e8ae 8d3e
00000160: d252 043e 7b3d 833e 25ad ed3d 1425 583d
00000170: 590b 123d d33b ce3d 44e7 4e3d c28a 8dbd
00000180: c2be 153e 0a6a 9a3e c076 eb3d eef5 adbd
00000190: 9797 953d 0fcd 5b3e e6db 153e 7c0f d13d
000001a0: 93db 0cbd b29a dd3c ccf1 093d f42f 6f3d
000001b0: 373d 37be 187c 15bd 6fb8 3abd df99 7cbd
000001c0: e68c 79bd f63c 53be d472 a13d 58f0 3e3d
000001d0: 1534 2b3e 6e83 843d cf84 29be 6c13 2bbe
000001e0: 997b a5bd cfaa c6bd c073 0abe 1351 083d
000001f0: 2611 b43d 83d7 933c f082 4fbe fb37 cf3d
00000200: f1e5 42be 123f 6dbe 9b08 e6bc 0089 87be
00000210: 924f 74be 2080 24be 7e5c 78be 7c68 543d
00000220: 2a59 893d 30b3 14bd 154f 00be 3b29 16be
00000230: 93fb eebd 0fa1 f03d 2639 283e 3b4c 0b3e
00000240: 7306 1cbd bc2e 4e3e 52a1 143d 9f8f d03d
00000250: 3f4e 5d3e fdbd 253e 0ddd e9bd f692 10be
00000260: 0ea5 573e 5ee3 37bc b5aa 9f3c 22c6 3a3e
00000270: bdd4 663e 855c 76bd d435 483e 9792 93bd
00000280: 39cf 0b3e bc30 6a3e 3a2a 0dbd cf62 ff3d
00000290: 7d9a e7bd 2f64 bf3d d8b0 10be ab60 803d
000002a0: 526a 283d 635f 633d c65e 94bd 720d 903d
000002b0: 4736 45bd 40e1 e1bd f758 93bd 8ef1 d1bc
000002c0: 1762 af3d e12c 37be 70eb 2e3e 281b 1b3e
000002d0: 3001 013d 7bda a13d 29b8 e93d e480 fe3d
000002e0: 7782 943d 3192 37be 9564 193e ee01 edbd
000002f0: ab74 a33c c3af 5f3d 5b80 333e 3ce9 7b3e
00000300: a6aa ecbc 46bf 483e ae87 553d 1fba ddbc
00000310: 40ab 4e3e 0194 a43c 162a 41be 0dbc 523d
00000320: c857 f6bd 85cc 1fbe 0376 5ebe 4e83 e7bd
00000330: 7431 e63d c2b5 dbbc 056e f3bd 8bac 03be
00000340: 51b4 fa3d 3244 a9bc a59b 043e 9c69 5ebc
00000350: 8231 5dbe c388 3bba d023 ea3d 0e3f b7bd
00000360: 7bda 303e f55a 023e 3caf 18be f773 a8bd
00000370: 3d47 fc3d 0992 49bb 223a ccbc 1dee 1b3e
00000380: 2b69 fe3d fb88 ae3d 72c4 043e 07c8 e5bd
00000390: bcf1 8bbd b788 fc3d 2ae3 c73d 4ac8 333a
000003a0: 19f9 b6bb cb82 89bd aa1f 04be 1d04 20bd
000003b0: 1199 b43b 90bf b0bd 9b78 aabc b7c3 8a3d
000003c0: a3da 0a3e f6b4 f8bc 7f44 123e 7a27 d43d
000003d0: 6c11 09be dfcb 493c 0f79 0fbe 38cb fd3c
000003e0: c3c3 9f3d b769 4bbe 0116 bdbc a3ae 26be
000003f0: 2f25 07be 210e 39be e7c7 6bbe db88 7ebd
0.129321 0.028090617 0.2435395 0.28902072 0.301148 0.04151858 0.16323644 0.33224794
0.13679962 0.19564487 0.21560982 0.29881623 0.23832004 0.110094786 0.14775741 0.038975928
0.03586605 0.21456185 0.1411508 -0.020352283 0.23848055 -0.03752674 0.1988788 0.017506432
0.19694275 0.14838146 0.040892344 0.13483682 0.14012778 0.12585719 -0.07104379 0.0069128186
-0.11335192 -0.0080147805 0.1509334 -0.17008148 -0.19793968 -0.07068257 -0.13347498 0.096445285
-0.20462894 0.07793728 -0.07485803 -0.06098245 -0.1494665 0.0025887922 0.119101964 -0.07500691
-0.0140217105 0.08452602 -0.1585684 -0.14895019 0.11008324 -0.09788979 0.011238939 0.16263899
-0.0998512 0.07887162 0.01217551 0.010982573 -0.06843292 0.1922756 -0.025647236 0.05945469
0.049761176 0.06815759 0.16288212 0.16018948 0.20655167 0.24404418 0.14648399 0.20465225
0.1702168 -0.03077495 -0.024981884 0.24234943 0.05548499 -0.07909323 0.15588115 -0.022284485
-0.053337052 0.109809674 -0.04945447 -0.017668739 -0.024279097 0.10110798 0.0322906 0.27672505
0.12922218 0.25632843 0.1160529 0.052769735 0.035655353 0.10070004 0.05051352 -0.069112316
0.1462355 0.30159026 0.11497259 -0.08494173 0.07304304 0.21464942 0.14634666 0.102080315
-0.03438909 0.027051304 0.03367786 0.05839534 -0.17894445 -0.0364953 -0.045586046 -0.06167018
-0.060925387 -0.20628724 0.0788323 0.04661593 0.16719086 0.06470381 -0.16554569 -0.16706628
-0.08080215 -0.09700548 -0.13520718 0.033280443 0.08792333 0.0180471 -0.20264792 0.10118099
-0.19033028 -0.2316859 -0.028080275 -0.2647171 -0.23858479 -0.16064501 -0.24254033 0.051857457
0.0670646 -0.0363037 -0.12530167 -0.14664166 -0.11669078 0.117494695 0.1642805 0.13603298
-0.038092088 0.20135015 0.03628666 0.101836435 0.2161188 0.16185756 -0.11419115 -0.14118561
0.21059057 -0.011223642 0.01949058 0.18239644 0.2254209 -0.060146827 0.19551784 -0.07205694
0.13653268 0.22870153 -0.0344641 0.12470018 -0.11308763 0.093452804 -0.1412996 0.06268438
0.04111702 0.05551089 -0.07244639 0.070338145 -0.048147466 -0.11029291 -0.07194703 -0.025627878
0.08563631 -0.17888214 0.17082 0.15147078 0.031495273 0.07903 0.11412079 0.12426928
0.07251447 -0.17926861 0.14979775 -0.11572634 0.019953093 0.05461098 0.17529432 0.2460069
-0.028889965 0.19604215 0.052131347 -0.027066289 0.20182514 0.020090105 -0.18863711 0.05144887
-0.12028462 -0.15605362 -0.21724705 -0.11304341 0.11239901 -0.026820067 -0.11886219 -0.12858789
0.12241424 -0.0206624 0.12949999 -0.013574984 -0.21600917 -0.0007153863 0.11432612 -0.089475736
0.17270844 0.1273001 -0.14910597 -0.082252435 0.12318275 -0.003075721 -0.024930064 0.15227552
0.12422403 0.08522221 0.12965563 -0.11219793 -0.068332165 0.12330764 0.09760125 0.00068581535
-0.005583894 -0.067144 -0.12902704 -0.039066423 0.005511411 -0.08630288 -0.020809462 0.06775611
0.13559966 -0.030359726 0.14283942 0.10359092 -0.13385552 0.012316673 -0.14011024 0.030980691
0.078010105 -0.19864546 -0.023081781 -0.16277556 -0.13197778 -0.18071796 -0.23025475 -0.062142234

conv1.bias f4 [10]
00000000: a9d8 4e3d 69f8 0abe f0b1 a7bd 160b a7bd
00000010: 3b00 97be 8110 063e 03db b8bd ab73 21be
00000020: 50f0 2b3e 0b4a 93be
0.050499592 -0.13571323 -0.08188236 -0.08156411 -0.29492363 0.13092233 -0.09026148 -0.1576678
0.1679089 -0.28767428

conv2.weight f4 [50, 10, 3, 3]
00000000: 30c3 10bd 05d8 6bbd 8b21 913d a734 0c3d
00000010: 98ec f93d 4460 3e3b 208e 053e 38e0 ae3d
00000020: e493 013e 5320 aebe bba0 99be bfdf 99be
00000030: 25f6 bbbe b3a9 a3be 5d6d b2be 8d01 f3be
00000040: 47e9 a0be 0963 afbe 0980 0cbe 8061 23be
00000050: 732c e5bd c60b 69be 7417 7abe b9e7 1ebe
00000060: 0584 d4bd 2aba 61be 9491 dfbd 240c c83e
00000070: 4be1 ac3e 9d72 df3e 8597 d23e 0f0d f63e
00000080: 79a2 cb3e 65c8 e93e cf02 eb3e 4f2f e03e
00000090: d4a0 cbbc 707e 473c 9a45 e2bc f522 2ebd
000000a0: 6e3c 59bd 75d5 2d3d 1cc4 08be 5bd1 01be
000000b0: d61f 13be 08c5 85be 1ca5 a7be 9dbe cebe
000000c0: 3425 81be 033e c5be 4423 86be 9737 adbe
000000d0: 7a3b adbe 9177 8fbe 285d a7be cb28 eabe
000000e0: 5a28 debe 356d fcbe 9858 a3be 8a1d a4be
000000f0: f5b2 efbe 2ee9 9cbe 4d60 96be d00c da3c
00000100: 9fb2 d8ba c9cc b3bc 504b 36bd b6d0 913d
00000110: 320b 1abd 6d17 8fbd be7d 423c ec66 f3bd
00000120: e1c7 cdbe 4dc0 b9be 331c d4be c4bb ebbe
00000130: a5a9 95be 3724 94be c7c8 b8be 53c7 c0be
00000140: 821e c7be 135d 543e d4ef a73e 1aa8 8e3e
00000150: 1fdd 923e c412 7a3e a0e6 a23e d7d7 813e
00000160: 5dc9 5f3e b6fb c53e cf49 913e 9d24 343e
00000170: 6467 903e 3559 9d3e 185d 6c3e e32c 4d3e
00000180: 8eb8 a03e 341c 623e 3b63 a03e 2473 86be
00000190: 30ce afbe 35d3 89be d8a0 aabe d896 74be
000001a0: 5ed5 8abe 81ea b9be 015d acbe 66ed b0be
000001b0: 301d af3e 628c a33e 95ea 8a3e 4904 9e3e
000001c0: 6ac8 4e3e e066 c93e be8b ca3e e59f 9d3e
000001d0: 4b59 633e 5cfa d33e bab8 9b3e f673 8d3e
000001e0: bdc8 6d3e fa17 8b3e 3f69 933e ad57 af3e
000001f0: a770 653e 3e1b cb3e ae7e c3be 0715 babe
00000200: 6081 adbe 671c b8be 0466 e4be 15df 9abe
00000210: bedf cebe 2e51 afbe ad6d cfbe ff52 7abe
00000220: c365 33be d60d 67be 27ad 67be 20ca aabe
00000230: d5cf 8cbe 738a adbe a496 b2be a4c5 acbe
00000240: 4e44 c1be dd32 6fbe 2d0b 7abe 85b3 84be
00000250: cfb3 bfbe ab3b 97be 2199 57be 852d b8be
00000260: 80e6 5bbe 5558 ec3e 99a0 c33e 31fe ad3e
00000270: 5f8a cd3e 574d cb3e ea3e b73e 0d5b c13e
00000280: d507 bc3e 5c53 ac3e 80ae bcbe 7c5a 62be
00000290: b5ea b5be bcf5 8bbe 775a aebe 4211 98be
000002a0: d7ea a9be 54bd 9cbe 92f3 a5be f0d0 823e
000002b0: db99 7b3e a640 283e afd1 453e e3c9 a33e
000002c0: 1f9a 0f3e b4f7 323e d8d0 af3e aae2 723e
000002d0: fb56 6b3e 507c 333e 0dbb 173e cda3 7d3d
000002e0: 657c 293e 95f5 233e 0a49 6e3e 2912 303e
000002f0: b32d c93d 651a 90be 1a72 91be 9cb0 dabd
00000300: 39a8 74be 7940 68be 65dd 55be 0400 efbd
00000310: cd1f 92be 2f38 47be 3324 85bd 5e2d 00be
00000320: 2f6c ffbd 4b99 4abe 5113 57be 5946 2ebe
00000330: 3d56 25be e6cd 75be 45d6 d0bd de2c 4bbb
00000340: c081 94bc 3374 91bc f196 963d 6d6a df3d
00000350: 41c0 013d 9d5e fe3c 9ef8 0d3e 5dc7 f03d
00000360: 3d25 67bd bf02 68be 77a8 47be db66 76be
00000370: 79f7 67be 7278 67be 8abb 90bd ea4a cabd
00000380: 8f92 67be fb0c a93d 29d6 c63c 80f8 c2bb
00000390: 0e6a 19bd 742d ad3d ee8d 99bd 3c05 283d
000003a0: 4589 3b3d 6551 4a3d a086 213d e6ab 8bbd
000003b0: 7955 cebb b7ac 883d da38 22bb 1042 c83c
000003c0: 3694 243d 52fb 4d3d 52ab d83c f52a f83d
000003d0: a30b 1a3d dca6 203d 405c 763d ed01 05bc
000003e0: 33b9 af3d 04a4 363e a281 733c 9771 8b3b
000003f0: 339d 7e3d 9998 8a3d 37d0 b0bc 3740 14bc
-0.035342395 -0.05757906 0.07086476 0.0342299 0.1220333 0.0029049078 0.13042498 0.0853886
0.12654072 -0.34009036 -0.3000544 -0.30053517 -0.3671123 -0.31965408 -0.34849063 -0.4746212
-0.31427976 -0.34255245 -0.13720717 -0.15955162 -0.11190119 -0.22758397 -0.24423009 -0.15518083
-0.10376743 -0.22043672 -0.10916439 0.39071763 0.33765635 0.4364213 0.41131225 0.48056838
0.39772394 0.456607 0.4590058 0.43786094 -0.024856962 0.012176141 -0.02762108 -0.042513806
-0.053036146 0.042439897 -0.1335606 -0.12677519 -0.14367613 -0.26126885 -0.32743156 -0.403798
-0.25223696 -0.38523874 -0.2619878 -0.33831474 -0.3383444 -0.2802091 -0.3268826 -0.45734248
-0.4339016 -0.49302068 -0.3190353 -0.32053787 -0.4681622 -0.30646652 -0.29370347 0.026617438
-0.0016532725 -0.021948235 -0.044505417 0.071198866 -0.037608333 -0.0698689 0.0118708 -0.11884865
-0.40191558 -0.36279526 -0.41427764 -0.4604169 -0.2923099 -0.2893388 -0.3609068 -0.37652072
-0.38890463 0.2073863 0.32800162 0.27862626 0.28684327 0.24421221 0.31816578 0.25359985
0.21854158 0.38668603 0.28376624 0.17592092 0.2820388 0.30732122 0.23082387 0.20036654
0.31390804 0.22081071 0.31325707 -0.2625972 -0.34336996 -0.2691895 -0.3332584 -0.23885667
-0.2711591 -0.36311725 -0.33664706 -0.3455612 0.34201956 0.3194304 0.27132097 0.30862644
0.2019364 0.393363 0.3955974 0.30786052 0.22202031 0.41401947 0.30414373 0.27627534
0.23221107 0.2716673 0.28791234 0.3424658 0.22406255 0.39669222 -0.38182586 -0.36344168
-0.33887768 -0.3595917 -0.44609082 -0.30248323 -0.40405077 -0.34241623 -0.40513363 -0.24445723
-0.17519288 -0.22563872 -0.22624646 -0.33357334 -0.27502313 -0.3389469 -0.34880555 -0.33744538
-0.37747425 -0.23359247 -0.24418326 -0.25918213 -0.3744187 -0.2953771 -0.21054508 -0.3597223
-0.21474648 0.46161142 0.38208464 0.33982995 0.4014463 0.39707443 0.35790187 0.3776478
0.36724725 0.33657348 -0.36851883 -0.2210483 -0.3553063 -0.27335918 -0.34053394 -0.29700667
-0.3318698 -0.30613196 -0.32412392 0.25550032 0.2457041 0.16430911 0.19318269 0.31989965
0.14023636 0.17477304 0.34339023 0.23719278 0.22982399 0.1752789 0.14817448 0.06192379
0.16551359 0.16011651 0.2327005 0.17194428 0.098231696 -0.28145137 -0.28407365 -0.10678217
-0.23892297 -0.22680844 -0.20885237 -0.11669925 -0.28539887 -0.19455026 -0.06501045 -0.12517306
-0.12471806 -0.19785039 -0.21003462 -0.17019023 -0.16146179 -0.24004325 -0.10197119 -0.0031002085
-0.018128276 -0.017755603 0.073530085 0.10908971 0.03167749 0.031050975 0.13864371 0.117567755
-0.056431998 -0.22657298 -0.19497858 -0.24062674 -0.22652997 -0.2260454 -0.0706702 -0.0987757
-0.22614501 0.08254429 0.024272041 -0.0059500337 -0.037454657 0.08455935 -0.07497774 0.041020617
0.045785207 0.04939403 0.03943503 -0.068198964 -0.00629681 0.06673568 -0.0024753124 0.024445564
0.040180407 0.050288506 0.02644888 0.121175684 0.037608754 0.03922163 0.06014657 -0.008118135
0.08580246 0.17836004 0.01486245 0.0042554843 0.062161636 0.06767387 -0.02158366 -0.009048513

conv2.bias f4 [50]
00000000: 8f7c 8bbd 4213 013f d467 aabe b701 36bf
00000010: 612d ce3e f9af 33be dbc7 6bbe 346f 213e
00000020: d075 74bd 9d67 8b3e 2f09 803e cfb0 8b3e
00000030: dc0a 9e3e d6a0 9abe 8096 9a3e 6428 913e
00000040: 2276 de3d a8a1 79be 2486 123e c801 e93e
00000050: da39 6abd 25b6 7bbe cf1e 44be 1112 223f
00000060: 15e4 ad3e 5335 123e 3137 cfbe 56ce a03e
00000070: 17e2 b5bd eed8 c2be 91a6 5bbe 85ea b43e
00000080: 92dd b6be 397e 8bbd 37a8 763e 3ffb 933e
00000090: ddaf 263f a9a3 93be c2b8 09bf 2aa1 d23c
000000a0: bd9f 973e acc5 15be be33 0cbf d64f a5be
000000b0: 9845 85be 2a95 273f 48a0 ac3e f172 42be
000000c0: 160d 153f 9073 963d
-0.06810867 0.5042001 -0.3328234 -0.71096367 0.40268996 -0.17547597 -0.23025458 0.15765077
-0.059682667 0.27227488 0.25007007 0.27283332 0.3086766 -0.30200833 0.30192947 0.28351128
0.10862376 -0.24378073 0.14308983 0.4550917 -0.057184078 -0.24581201 -0.19152378 0.6330882
0.33963075 0.14278154 -0.40471795 0.31407422 -0.08881014 -0.3805613 -0.21450259 0.35335174
-0.3571592 -0.068111844 0.24087606 0.28902623 0.65112096 -0.288358 -0.53797543 0.025711615
0.29614058 -0.14626187 -0.5476645 -0.32287472 -0.26029658 0.6546198 0.33716035 -0.18989159
0.5822309 0.073462605

conv3.weight f4 [50, 50, 3, 3]
00000000: 871f d1bd 110f bbbd 79bd 0bbe 07bd 9dbd
00000010: 40da c5bd 7761 e5bd b2fd 83bd e155 97bd
00000020: 4742 abbd ace1 a73d 507e 6f3d 6894 a83c
00000030: 26c0 da3d 5a2b c43d 1c32 cc3d f8d9 153d
00000040: e1b1 c23d c22d 923c 3275 49bd 5d5f 84bd
00000050: ce0c fcbd 3551 4ebd e4af 8bbd 42b5 76bd
00000060: bd14 fbbd b051 fdbd 3f44 50bd 1d63 97bc
00000070: 577e 32bd a64c a3bb c3af e7bc 8483 0fbd
00000080: 1220 303c 5a6a 44bd c4ec 283c 9e4c 42bd
00000090: c0f9 533e 4510 403e b6a1 273e 3e82 1e3e
000000a0: 57df 483e 41e5 393e a732 0e3e ebae 4c3e
000000b0: 27b9 503e 5750 b2bd b577 b6bd 1d5f 04be
000000c0: ef93 f2bd 1251 b0bd 0aa0 d2bd 4072 16be
000000d0: 981c d5bd f91d a5bd 0249 f33d 218f 66bd
000000e0: 4a98 cebd 9fa7 c13d a4e8 0cbe 3162 d8bd
000000f0: 3a0a 433d 7c08 c6bd dd35 11be 38ac bb3d
00000100: a948 b23d d04f f23d 996c 253e febd 023e
00000110: bab8 133e 8f39 073e a002 1a3e 9b88 b13d
00000120: ec1a 243e cfb9 333c 94ca 6b3e 4b64 4d3e
00000130: 5c02 1f3d 505d 5d3e 8279 5e3e 8468 1e3d
00000140: 6dba 183e 4266 7f3d 85a3 a83c ff5e 8b3c
00000150: c163 843d e6ce 553d beb4 893d db9d 403d
00000160: 7b29 a53d a544 9c3d 23c0 113e 237a e53d
00000170: 1d7f 173e d2c0 0b3e 292d 373e 2f76 df3d
00000180: 73ab d23d f33b e03d f78e 253e 4e3d 8d3d
00000190: 6fc3 ba3d a9e8 b23d 1d6d cebd e033 cf3d
000001a0: 8483 fe3d 40cb 9d3d 7852 153e f6a9 0f3e
000001b0: ea08 0b3e 3e36 093e 8359 8a3d bfa4 823d
000001c0: 1e79 6d3d 819b 733d b467 f23d addb ae3d
000001d0: b7fe d93d dba7 ad3d 6960 ddbd c11c 9cbd
000001e0: a174 873d fd4b 95bd 003a 18be 3dd8 8a3d
000001f0: ccc3 15be 3b47 1dbe a9c7 453d a2a6 453d
00000200: a00c 973d 8c8e 113d 26cb c63d 5a61 793d
00000210: c681 e93d 9df9 a03d d1e1 323d 8708 123e
00000220: 1ab0 1f3e 1501 4d3e 262e 493e 548c 4f3e
00000230: 4de1 6b3e 2b6c 323e 0dff 213e 09f4 4c3e
00000240: abee 1bbd 9432 edbd e036 31bd d1bb 37bd
00000250: 09ef 9fbd 4c09 cebd 6d5d a2bd ea3b f9bc
00000260: 2a25 d6bd efae 01be ca59 2cbe 43f1 0ebe
00000270: 7b45 fbbc d547 34be 239d 5ebe 9cda 36be
00000280: 9563 3abe 0d49 16be e917 c93c 358a 0a3e
00000290: ec0e fb3d daae 8abd b2ff f53d 4d8f c33d
000002a0: 0655 043e a1cb 093e f350 913d e2f3 333d
000002b0: b3f8 6f3d eb01 d53d 974c f23d d77c 543d
000002c0: f735 d73d cbc9 c83d 2ead bf3d 6485 0b3e
000002d0: b2b8 bdbd 5e4a 183e d6dd 1e3e 6b85 cebd
000002e0: 3619 bc3d 6581 003e 2bfb 17bd bca5 023e
000002f0: 4afc 1d3e 5ac2 ddbc e35c d7bd 6fb8 cdbd
00000300: f4ad a0bc e7db b1bd 3ff4 f5bc 4f8c 36bd
00000310: 87aa 8dbd 1de3 42bd 6206 b7bd eca9 cbbd
00000320: ce60 aabd 04ba 96bd d88f b5bd cd2c ecbd
00000330: e26d bebd 4a69 04be 2e39 72bd 1842 873d
00000340: 015b 0c3e 2f6d 133e 9855 123e 3e0f 0e3e
00000350: 1501 1d3e ffee 013e ed67 b93d 6c94 f33d
00000360: 28c2 efbd 7bf2 4fbd d548 f1bd bb16 febc
00000370: 2426 85bd 862b aabd 146b babd 740a 87bd
00000380: cf5e 1fbd c76a 3c3e 9c5e 553e f550 0d3e
00000390: 191e 413e 6aa4 533e 1efe 463e 5553 2c3e
000003a0: 3bd3 363e 8330 263e 3bbb 97bd f23a 4abd
000003b0: ee36 6bbd de91 55bd a9d0 f4bd 5e0d f5bd
000003c0: 50a7 0abe 2912 e0bd e801 3bbd d262 db3c
000003d0: cd97 f4bc ccdc 5cba 5ba8 05bb e067 593c
000003e0: 1ed8 91bc 5967 3e3d cf12 e73c c212 4d3d
000003f0: 8d3b 23be 5bc5 3fbe 1824 0fbe d5c8 23be
-0.102110915 -0.09133733 -0.13646497 -0.0770207 -0.096607685 -0.112002306 -0.06444873 -0.07389427
-0.08362251 0.0819734 0.05847007 0.020578578 0.10681181 0.09578581 0.09970495 0.036584824
0.09506584 0.017844085 -0.04918403 -0.064635016 -0.1230713 -0.050370414 -0.06820658 -0.060231455
-0.12259815 -0.12369096 -0.050846335 -0.018479878 -0.04357752 -0.0049835024 -0.028282052 -0.035037532
0.010749834 -0.047952987 0.010310356 -0.04743635 0.20700741 0.18756206 0.16370282 0.15479371
0.19616447 0.1815386 0.1388651 0.19988601 0.2038313 -0.0870673 -0.08909551 -0.12926908
-0.11844622 -0.08609213 -0.10284431 -0.1469202 -0.104058444 -0.080623575 0.118791595 -0.056288842
-0.100876406 0.09455799 -0.1376062 -0.105656035 0.047617175 -0.09669587 -0.14180703 0.091637075
0.08705265 0.11831629 0.16154708 0.12767789 0.14425936 0.1320555 0.15040064 0.086686336
0.16025895 0.010969593 0.23026496 0.2005779 0.03882061 0.21617627 0.21726039 0.038673893
0.14914866 0.06235338 0.020585785 0.017013071 0.06464339 0.052199267 0.06723927 0.047025543
0.080645524 0.076302804 0.1423345 0.11204936 0.14794584 0.13647774 0.17888321 0.109112136
0.102866076 0.109489344 0.16167818 0.068964586 0.09119307 0.08735783 -0.100794055 0.10117316
0.12427428 0.077047825 0.1458224 0.14029679 0.13577619 0.13399598 0.06755354 0.06379079
0.057976834 0.059474472 0.11836186 0.085379936 0.10644286 0.084792815 -0.108094044 -0.07622672
0.06614042 -0.07289884 -0.14865875 0.067795254 -0.14625472 -0.15359204 0.048286114 0.048254617
0.07375455 0.035536334 0.09706716 0.060883857 0.114017054 0.0786011 0.043672387 0.14261065
0.15594521 0.20019944 0.1964651 0.20268375 0.23035164 0.17424075 0.1581995 0.20014967
-0.03806941 -0.11581913 -0.043265224 -0.04485685 -0.07809264 -0.10060367 -0.07927976 -0.030424077
-0.10456307 -0.12664388 -0.16831127 -0.13959222 -0.03067278 -0.17605527 -0.2173963 -0.1785683
-0.1820205 -0.14676304 0.024547534 0.13529284 0.122587055 -0.067716315 0.12011661 0.09548817
0.12923059 0.13456585 0.07095518 0.043933757 0.058586787 0.104007564 0.118310146 0.05187687
0.1050834 0.09804114 0.09359203 0.13625103 -0.092637435 0.14872119 0.15514311 -0.10084041
0.09184496 0.1254936 -0.037104767 0.12758535 0.15428272 -0.027070213 -0.105157636 -0.100449435
-0.019614197 -0.08684521 -0.030023692 -0.044567402 -0.06917291 -0.047579873 -0.08936764 -0.099445194
-0.08319245 -0.073596984 -0.08865327 -0.115319826 -0.09298302 -0.1293079 -0.059136562 0.06604403
0.1370659 0.14397119 0.14290464 0.13873002 0.15332444 0.12688826 0.090530254 0.118935436
-0.11706954 -0.050768357 -0.1178147 -0.031016698 -0.06501415 -0.08309083 -0.09102455 -0.06593791
-0.038908776 0.18400107 0.20836872 0.13800414 0.18859138 0.20668188 0.19432876 0.16828664
0.17854016 0.16229443 -0.07408758 -0.04937262 -0.057425432 -0.052141063 -0.11953861 -0.1196544
-0.13540387 -0.10940964 -0.045656115 0.02678052 -0.02985754 -0.0008425235 -0.0020394537 0.013269395
-0.017803248 0.04648528 0.02820721 0.050066717 -0.15940686 -0.18727629 -0.13978612 -0.1599458

conv3.bias f4 [50]
00000000: 94b2 643f d720 903e 02ed 313f 0ac7 abbe
00000010: 359d 3ebf a86d a8be 50b7 0ebe 4255 93be
00000020: 1ffb 733f fdc2 e23d 87ee 09bf 9616 213e
00000030: 815a 9bbe b0d8 9a3e 5847 153f 26d3 b6be
00000040: 3362 353f 84b9 a13e 4564 35bf 118f c53e
00000050: d1fc a23f dcd9 973e bea3 03bf a83a 09bf
00000060: fd30 a2be 7edb d83e 9418 dd3e eb24 c43e
00000070: 3753 e5be b0f1 f83e dd81 70be 735b 503f
00000080: 4af2 0ebf a6ed cabe 2561 12bf 3167 c93e
00000090: 0294 483f a5ec 53bf 95bf 2abf 28e1 c33d
000000a0: faba 493f e79c 9f3f 0f13 0fbf 152f 92be
000000b0: 3022 23bf 9893 503f 329c 243f 87f7 9bbf
000000c0: b35b 06bf 4e62 07be
0.8933499 0.28150055 0.6950227 -0.33550292 -0.7445863 -0.3289616 -0.13937116 -0.28775984
0.95305055 0.11072347 -0.5387959 0.15731272 -0.30342487 0.30243444 0.58311987 -0.35707968
0.70852965 0.3158685 -0.70856124 0.38585714 1.2733403 0.296584 -0.51421726 -0.5360513
-0.31678 0.4235496 0.43182814 0.38309416 -0.4479005 0.48621893 -0.23487039 0.8138954
-0.55838454 -0.39634436 -0.5717948 0.3933654 0.7835084 -0.82782966 -0.6669858 0.095644295
0.7880093 1.2469758 -0.55888456 -0.28551546 -0.6372404 0.8147521 0.64300835 -1.2184914
-0.5248367 -0.13221094

conv4.weight f4 [50, 50, 3, 3]
00000000: 5671 ce3d 9b3c b73d 16ec 963d 96ed a23d
00000010: be93 ab3d ed53 ed3d 3b99 073e f858 f23d
00000020: 3959 cd3d 3c70 4fbe 8243 5abe ece7 54be
00000030: de1c 86be f4e8 5abe 2a7b 5dbe 03bd 8bbe
00000040: 909f 79be 1ff4 7fbe dd15 2c3e cfdb 1e3e
00000050: aa65 013e 30da 093e 0872 f73d bfc4 063e
00000060: dd55 343e f077 bb3d fc86 1e3e 52e0 103d
00000070: aca6 47bd 7d32 313c bd3c 80bd 64c5 01bc
00000080: 858d 063d b49c 82bc 411f 7abd 4a35 2739
00000090: f3d7 7e3d e702 923d 329d 403c e41e 02bb
000000a0: d93f c43c be1a a63a 117b 8cbc abc9 043c
000000b0: c870 683c 7108 adbe fb60 cfbe b111 c7be
000000c0: d4c3 cbbe 7f2a c0be 40ca d1be c3ce abbe
000000d0: ca36 c6be 534c aebe 1e97 493e f075 8e3e
000000e0: b514 8e3e 0d60 793e 119b 4c3e f466 873e
000000f0: 2376 773e 5665 863e cc14 973e 2afb 7dbe
00000100: df70 88be 7252 78be c6e7 7fbe deef 56be
00000110: 4b71 41be dbab 4ebe c7c6 88be adbc 86be
00000120: da64 333e da1e 173e 5054 033e 8139 183e
00000130: 4c57 153e a2f7 383e 9382 4c3e 23bf 533e
00000140: 6e77 2d3e be15 27be a941 30be 6b6d 20be
00000150: 07be 36be d6fb ecbd 05d3 edbd cdea fabd
00000160: 69d0 16be 9c55 49be 301c 2c3e 3d03 463e
00000170: 02d6 4f3e 48f8 233e c827 2c3e 0d55 5f3e
00000180: b209 2b3e 8c78 763e 4677 323e fe30 373e
00000190: 8826 223e 2266 223e a367 693e 50e2 603e
000001a0: 2cc9 473e c116 4a3e e07c 153e a6cb 413e
000001b0: b8d3 833e a6e5 6c3e 7765 6d3e 37ae 843e
000001c0: 5cb4 6a3e fa38 913e d9d7 8c3e c04e 583e
000001d0: 8b8d 913e 168f 8ebe 1331 4dbe f6f9 8ebe
000001e0: 8ac6 48be 2b03 90be 2753 4cbe cd11 42be
000001f0: 699d 84be db2b 48be 3bcb 89be 1ea8 7cbe
00000200: 82fb 85be ed73 7dbe 8384 56be 0688 8abe
00000210: 8796 5bbe f947 60be 6b04 6bbe e52c 813e
00000220: 75dc 663e f683 713e 1395 883e 5736 593e
00000230: b835 8b3e e0ea 5c3e d97b 393e f6d4 5d3e
00000240: dee8 b53d b7b3 243d bcfd 9c3d fdae 423d
00000250: 2471 bb3d f476 e13d 0407 e63d c0d0 833d
00000260: ae97 083d ee90 5dbe f804 53be dc38 92be
00000270: 7fb2 79be 9667 72be 9676 8cbe a190 66be
00000280: 1271 53be 7b68 4ebe 1513 013d 62c9 6d3d
00000290: 3583 ac3c 1735 083d a9ee 603c 5609 a83b
000002a0: e89c 2f3c e71e 12bc a5aa a7bc 7a15 7cbe
000002b0: 7128 7ebe 78cb 86be e0a1 90be 0785 82be
000002c0: f838 5dbe 739a 94be e76b 81be d0f8 65be
000002d0: 1199 18be fe2b 1abe 5836 1fbe dc15 1ebe
000002e0: fcb6 b7bd afc6 15be 6fcf ebbd c660 0abe
000002f0: 4b72 d8bd cadc 85be b28e 4abe e556 80be
00000300: fd71 5abe f995 83be 721e 90be 7243 61be
00000310: 5700 8dbe 54c8 95be e015 b53c 9cf2 533d
00000320: 3552 f0bc de7d 60bc c33c 85bb 38a3 353d
00000330: 017f fa3b 79d1 d63b 5e66 2a3d f5ae f63c
00000340: f94a 413d c8ef 0fbd 9d79 b5bb db6e 14bc
00000350: 0d2a 6e3b a1ce b2bc 7017 97bc a94c 663b
00000360: d336 583e d131 513e c67e 3a3e bcfb 373e
00000370: 8fa7 853e ae76 733e af3e 4a3e 72eb 533e
00000380: 66e5 623e ce1c 46be d266 7ebe a80a 54be
00000390: b467 64be 527f 90be c48f 69be 29b8 52be
000003a0: 4951 8bbe 8dea 4cbe b876 a83e 0668 843e
000003b0: 8fde 713e 219e 7f3e 0069 7b3e 5a1a 8c3e
000003c0: d242 823e 9b85 a73e f846 923e 8441 7abe
000003d0: e86f 88be 4479 5fbe 5402 90be f75d 8dbe
000003e0: 004f 5ebe cbeb 6dbe 90fd 71be 4c67 6cbe
000003f0: b65b 383d 6324 4c3c f209 e23b fbdc 543c
0.10080211 0.089471065 0.073692486 0.07955472 0.08377789 0.11588273 0.13242047 0.11833376
0.100267835 -0.20257658 -0.21314815 -0.20791596 -0.261939 -0.21377927 -0.21629015 -0.27292642
-0.24377275 -0.24995469 0.16805215 0.15513538 0.12636438 0.13462138 0.120822966 0.1316099
0.17610879 0.09153736 0.1548118 0.03537018 -0.048742935 0.01081526 -0.06261585 -0.007920597
0.032849807 -0.015943862 -0.061064962 0.00015946213 0.062217664 0.0712946 0.011756228 -0.0019854838
0.023956226 0.0012672765 -0.017148526 0.008104722 0.014187045 -0.33795503 -0.40503678 -0.38880685
-0.39797843 -0.37532422 -0.40974617 -0.33556184 -0.38713676 -0.34042606 0.19686553 0.27824354
0.27750173 0.24353047 0.19981028 0.26445735 0.2416616 0.26249188 0.29508054 -0.24802843
-0.26648614 -0.242502 -0.24990758 -0.2098994 -0.18890874 -0.20182745 -0.26714155 -0.26315823
0.1751894 0.14757863 0.12825131 0.14865686 0.14584082 0.18063214 0.19971685 0.20678382
0.1694009 -0.16316888 -0.17212547 -0.1566674 -0.17845927 -0.115714714 -0.116125144 -0.12251816
-0.1472794 -0.19661564 0.16807628 0.19337173 0.20296481 0.1601268 0.1681205 0.21809788
0.16702917 0.24069422 0.17428312 0.17889783 0.15835011 0.15859273 0.2279344 0.21961331
0.19510335 0.19735242 0.14598417 0.18925342 0.25747466 0.23134479 0.23183237 0.25914165
0.22920364 0.28363782 0.2750843 0.2112379 0.284283 -0.2784354 -0.20038252 -0.2792508
-0.19606987 -0.28127417 -0.19953595 -0.18952103 -0.25901344 -0.1954798 -0.26912865 -0.24673507
-0.26168448 -0.24751253 -0.20948987 -0.27056903 -0.2144414 -0.21902455 -0.22950904 0.25229564
0.22545035 0.23585495 0.26676235 0.21212135 0.27189422 0.21573973 0.1811365 0.2166327
0.088823065 0.040210452 0.076655835 0.047530163 0.09152439 0.11009017 0.11231807 0.064363
0.033347778 -0.21637318 -0.20607364 -0.28559005 -0.24384497 -0.23672327 -0.27434224 -0.22516109
-0.20648602 -0.20157044 0.03151234 0.05805338 0.021058658 0.033253755 0.013728776 0.005128066
0.010718562 -0.0089185005 -0.020467112 -0.24617568 -0.24820115 -0.2632711 -0.282485 -0.25492117
-0.21603763 -0.29024085 -0.25277635 -0.22458196 -0.1490214 -0.15055844 -0.15548074 -0.15438026
-0.089704484 -0.14626573 -0.11514174 -0.13513479 -0.10568675 -0.2614501 -0.19780996 -0.25066295
-0.21332546 -0.25700358 -0.28148228 -0.21998385 -0.27539322 -0.292544 0.022105157 0.051745042
-0.029336074 -0.013701884 -0.0040660813 0.04434511 0.0076445346 0.006555733 0.04160153 0.030112723
0.04719064 -0.035140783 -0.005538179 -0.009059633 0.0036340982 -0.021827044 -0.018443793 0.0035140908
0.21114664 0.2042916 0.18212423 0.17967123 0.261044 0.23775741 0.19750474 0.20695284
0.22157821 -0.19346926 -0.2484391 -0.2070719 -0.22305185 -0.28222138 -0.22808748 -0.20578064
-0.27210453 -0.20011349 0.32903075 0.25860614 0.23620056 0.24962665 0.24551773 0.27363855
0.25441605 0.3271912 0.2856977 -0.24439055 -0.26647878 -0.21823603 -0.28126776 -0.27610752
-0.21709824 -0.23234479 -0.23631883 -0.2308628 0.045009337 0.012459847 0.006898158 0.012992139

conv4.bias f4 [50]
00000000: 3480 1a3f b53e 15bf 245b ebbe 4258 113f
00000010: 0ce2 1b3f fa17 353f 31a6 063f da04 183c
00000020: 6c4a ec3e 002c 62bd 4728 fbbe 42da 76bf
00000030: 190f 36bf 9f0a 56bf dbcc 53be 50b3 46bf
00000040: fbcc 47bf 104f 233f 498f 9d3e cace 25bf
00000050: c34c 2c3f acd6 3bbf 85c6 5bbf fff7 283f
00000060: ad1d 253f 8d08 52bf 7adf 133f e9c2 4f3f
00000070: cdc0 f73d 1526 333f 21aa 0fbf cd33 00bf
00000080: f777 fa3e f864 25bf 3fb6 a13f 7a9d 343f
00000090: 4235 38bf 92f2 b13e 48c7 103f 93f4 343f
000000a0: d6a1 72be 6c8b 10be 9fd8 613f b053 16bf
000000b0: cd45 393f 8dbe 3a3f 9661 803d 17c6 e63d
000000c0: 165d dabe 715d c3bd
0.6035187 -0.5829881 -0.45967972 0.56775296 0.60891795 0.7073971 0.5259734 0.0092785
0.4615053 -0.055217743 -0.49054167 -0.96426785 -0.7111679 -0.83609957 -0.20683615 -0.7761736
-0.7804715 0.63792515 0.3077338 -0.6476866 0.6730463 -0.7337444 -0.8584979 0.6600341
0.64498407 -0.820443 0.57762873 0.81156784 0.12097321 0.69979984 -0.5611897 -0.5007904
0.4891965 -0.6460719 1.2633742 0.7055279 -0.71956265 0.3475538 0.5655408 0.7068569
-0.23694548 -0.14115685 0.8822116 -0.58721447 0.7237213 0.7294701 0.06268613 0.112682514
-0.42649144 -0.09539307

conv5.weight f4 [3, 50, 3, 3]
00000000: 95c0 f83d 7201 3b3e eaf1 093e 6252 de3d
00000010: 6e73 033e 3660 333e 7c30 373e 7cf1 e63d
00000020: cf28 363e 8b59 8fbd ad9f 80bd 5048 bebd
00000030: 2713 c7bd 119a 5ebd abd0 b9bd eac5 d4bd
00000040: 847a afbd 6346 6dbd a33e b8bd 0999 96bd
00000050: 924e 14be 9544 adbd 36b3 e9bd 6e85 d4bd
00000060: cd8d d3bd 2c14 14be 953b 8ebd c9c9 b93d
00000070: 5102 da3d 8b5e db3d 5b21 093e 475c 973d
00000080: af94 853d e7ec 033e ac39 823d c50d ea3d
00000090: 421c 183e d141 553e 9ee2 103e d3f4 3f3e
000000a0: 100b 5f3e 83ca 343e 34ab 6e3e 52cb 5c3e
000000b0: 74e3 0f3e 157b 293e dc7e 683e c741 453e
000000c0: a7e3 7d3e 971b 293e c049 213e e9a9 813e
000000d0: 6790 5b3e de1a 373e 3202 973d 6852 073e
000000e0: 7e8a ff3d 189b 003e cee8 bb3d f4bd c33d
000000f0: 42aa af3d 89a0 8b3d 70a0 f33d 9d84 be3d
00000100: a556 973e ae3a 823e 5b4e 8b3d bfbc 863e
00000110: 6a13 9e3e 93e5 b93d 4d1a 9c3e f30b 963e
00000120: fa49 e23d bae8 003e b1b4 0a3e 9550 b43d
00000130: 58fd fb3d f9dc e13d c181 b53d 55d8 e43d
00000140: aaa7 113e 2701 ce3d d534 6f3d 10ac e03d
00000150: 3777 083e 69d0 8e3d 24af 003e e535 093e
00000160: 0494 ed3d 23f4 113e 0edd 16be c21b e3bd
00000170: 476b febd 54d8 0cbe 14c0 91bd b3cd 54bd
00000180: 9658 a7bd 0b09 eabd 5471 b6bd eedd aebe
00000190: 7f29 babe ab40 c4be 0d6a 16be de85 05be
000001a0: 914f 86be 16e8 a4be db02 38be 98bc febd
000001b0: 9484 24be 08fa 49be aff0 5abe b86f 6bbe
000001c0: 0052 2cbe 833e 72be 4f7e 40be 0a90 3bbe
000001d0: 8160 74be deb2 5bbe 6b6c 76be ec4a 43be
000001e0: 6d43 48be ca0b 28be 7d48 4ebe 1018 2fbe
000001f0: 2a8a 22be d14b 2bbe 9a6c 15be cdbc a5bd
00000200: a495 8fbd 7d78 fcbd 10de eabd 85f6 89bd
00000210: b5d8 f7bd e0cd 2abe 713a 1abe 1160 44be
00000220: 427a 24be 5836 37be cc44 11be 4b7e 15be
00000230: 1179 42be 83a1 04be 7781 57be 7ac6 4bbe
00000240: 0356 00bf 599e 00bf aecb d9be be2f fcbe
00000250: 3519 eebe 7a7b e0be c331 0abf 9c1a e2be
00000260: d4ab efbe df08 5a3e 378d 223e c571 3b3e
00000270: f2c2 443e 163f 403e b14f 463e 0087 1b3e
00000280: ff0d 2b3e 1df7 163e 981d 293e 54ec 1f3e
00000290: d09b dc3d 8a0b 3e3e 176d 153e 37c7 263e
000002a0: 483e 183e 8651 2b3e ff96 d33d 5bf7 24be
000002b0: f997 2ebe e8c6 1abe 21d3 44be 7abd 68be
000002c0: a8f8 5fbe 81cd 70be 5630 51be f77e 14be
000002d0: a969 383e 1492 783e 195c 383e ce56 543e
000002e0: 7bf1 313e d5c9 223e e26d 3f3e 844d 7c3e
000002f0: 59b0 5c3e 3bc3 3dbe 7526 56be 0587 52be
00000300: 241e 0dbe ddf3 48be 2f4b 21be 2e1d 31be
00000310: 9f58 1fbe 8a4e 29be b3db 85be d612 48be
00000320: 8432 54be 8f58 51be bd6a 33be 4c20 58be
00000330: c35d 38be 06ae 66be 0a9a 3ebe 0adc 4c3e
00000340: 291c 163e 70da 3f3e d894 173e 2930 4a3e
00000350: dfdc 3e3e f8e3 193e db80 303e 7a8d 593e
00000360: 2fd1 3e3e 26d0 6e3e 1756 113e 9dbe 203e
00000370: 3537 3a3e 70ec 503e 40e4 4d3e eb72 483e
00000380: 6320 543e 8c50 2ebe e865 32be c24f 31be
00000390: f5ad 39be ef9a 47be 8939 47be c6dc 3cbe
000003a0: 8022 65be db99 77be 2eba 233e 2bf7 cc3d
000003b0: 7abd 1a3e a751 b13d a632 f73d bba3 aa3d
000003c0: ed7c 003e fa38 9a3d a338 f53d b205 3a3e
000003d0: 1dcd 363e fc72 573e 64e0 693e 88f6 813e
000003e0: 57a5 2d3e dfae 6d3e 51d5 3f3e 7af7 563e
000003f0: 1753 f43d df98 ba3c b0c5 d03d 42d5 873d
0.12146107 0.1826227 0.13471189 0.10855557 0.12837002 0.1751717 0.17889589 0.11276528
0.17789005 -0.06999501 -0.06280456 -0.09291136 -0.0972045 -0.054346148 -0.090730034 -0.103893116
-0.0856829 -0.057928454 -0.08996322 -0.07353408 -0.14483097 -0.084603466 -0.11411135 -0.10377012
-0.10329781 -0.1446082 -0.06944958 0.090716906 0.10644973 0.10711392 0.1339163 0.073906474
0.065225 0.1288334 0.06358656 0.114284076 0.1485453 0.20825888 0.14148948 0.18745737
0.21781564 0.17655377 0.23307496 0.21561936 0.1405161 0.16550858 0.22704643 0.19263373
0.24793874 0.16514431 0.1575079 0.25324944 0.21441804 0.17881343 0.073734656 0.13215029
0.12477587 0.12559164 0.09175263 0.09557715 0.08577396 0.06817729 0.118958354 0.09302638
0.29558292 0.25435394 0.068020545 0.26315877 0.30874187 0.09076991 0.30488816 0.29305992
0.11049266 0.12588778 0.13545491 0.08804432 0.12304181 0.11028475 0.08862639 0.111740746
0.14224115 0.100588135 0.058399994 0.10970318 0.13326727 0.06973345 0.12566811 0.13399465
0.11600497 0.14253287 -0.14732763 -0.11089279 -0.12422805 -0.13754398 -0.07116714 -0.051953983
-0.08171193 -0.11427506 -0.089083344 -0.34153694 -0.36359784 -0.38330588 -0.14688893 -0.13039348
-0.2623258 -0.32208318 -0.1796984 -0.12438315 -0.160662 -0.19724286 -0.21380876 -0.22991836
-0.16828156 -0.23656659 -0.18798183 -0.18316665 -0.23864938 -0.21454951 -0.24064796 -0.19071549
-0.19556971 -0.16410747 -0.2014484 -0.17099023 -0.15873018 -0.1672814 -0.1459221 -0.080926515
-0.070109636 -0.12327669 -0.11468136 -0.06736473 -0.121018805 -0.16680098 -0.15061356 -0.19177271
-0.16062263 -0.17891824 -0.141864 -0.14598958 -0.18991496 -0.12952237 -0.2104548 -0.19899932
-0.50131243 -0.5024162 -0.42538208 -0.49255174 -0.46503606 -0.43844205 -0.5398218 -0.44160926
-0.46810782 0.21292447 0.15874182 0.18305118 0.1921499 0.18774065 0.19366337 0.15188217
0.16704558 0.14742704 0.16515195 0.15617496 0.107719064 0.1855909 0.14592396 0.16286932
0.14867508 0.16730317 0.103315346 -0.16109984 -0.1705016 -0.15114939 -0.19221164 -0.2272853
-0.21872199 -0.23515894 -0.20428595 -0.14501558 0.18009056 0.24274474 0.18003882 0.20736238
0.17377274 0.15897305 0.1869426 0.24638945 0.21551646 -0.18531506 -0.20913108 -0.20559318
-0.13781029 -0.19624276 -0.15751337 -0.17296287 -0.1556115 -0.16533867 -0.2614418 -0.19538435
-0.20722395 -0.20443939 -0.17521186 -0.2110607 -0.18004517 -0.22527322 -0.18613449 0.20005813
0.1465918 0.18735671 0.14802873 0.19744934 0.18638943 0.1502837 0.17236654 0.21245375
0.18634485 0.2332159 0.14192997 0.15697713 0.18185122 0.20402694 0.20106602 0.19575088
0.2071548 -0.17022914 -0.17421687 -0.17315581 -0.18132766 -0.19492696 -0.19455542 -0.18443593
-0.22376442 -0.24179785 0.1598899 0.10008081 0.15111342 0.08658152 0.12070207 0.0833201
0.12547655 0.07530399 0.11973693 0.18166235 0.17851682 0.21039957 0.22839504 0.253834
0.16957603 0.2321124 0.18733718 0.20992842 0.11929911 0.022777973 0.10193956 0.066324726

conv5.bias f4 [3]
00000000: f11b a33f f6ec 4a3f be75 52bf
1.2742902 0.79267824 -0.8221091
