autoencoder/checkpoints/encoder_small_3ep_relu.pth (torch, 9143 bytes, 8 tensors)

conv1.weight f4 [3, 3, 3, 3]
-0.51252806 -0.41909075 -0.5135642 -0.45082808 -0.61157966 -0.38098577 -0.47989613 -0.66143167
-0.45314774 -0.37746793 -0.4958042 -0.20835873 -0.27514505 -0.1736149 -0.3069837 -0.557504
-0.212873 -0.27850038 -0.26038396 -0.52621293 -0.3794072 -0.39607742 -0.3239604 -0.26625034
-0.23739949 -0.22854996 -0.37797955 0.41693497 0.45660576 0.3767804 0.58672297 0.68011177
0.6032725 0.4392188 0.5683707 0.45555872 0.42097306 0.42641115 0.5899841 0.50840664
0.60564417 0.7207707 0.70468503 0.44934374 0.3781474 0.5047504 0.41173363 0.58605844
0.6703468 0.66941595 0.41151127 0.36980003 0.45506313 0.47087917 0.67469484 0.40227267
0.64488226 0.43031135 0.45142454 0.84624875 0.47537655 0.720466 0.82384443 0.64390486
0.6999351 0.51242393 0.35273296 0.63662297 0.4233067 0.42718357 0.63966596 0.45162976
0.7334502 0.70893246 0.64171994 0.5506602 0.737976 0.54740417 0.5513652 0.5495944
0.8103032
00000000: 0a35 03bf 1093 d6be f278 03bf f0d2 e6be
00000010: 7c90 1cbf 9110 c3be f2b4 f5be 9653 29bf
00000020: fb02 e8be 7a43 c1be 0cda fdbe fe5b 55be
00000030: d0df 8cbe 1bc8 31be f82c 9dbe 95b8 0ebf
00000040: 61fb 59be 9a97 8ebe 0c51 85be e4b5 06bf
00000050: a941 c2be a9ca cabe 23de a5be f751 88be
00000060: da18 73be 0009 6abe 8986 c1be 8078 d53e
00000070: 3bc8 e93e 5ce9 c03e 7a33 163f ce1b 2e3f
00000080: 1170 1a3f 49e1 e03e be80 113f fe3e e93e
00000090: c889 d73e 9052 da3e 3309 173f f026 023f
000000a0: 7f0b 1b3f 6e84 383f 3d66 343f 6210 e63e
000000b0: 899c c13e 5237 013f c0ce d23e ed07 163f
000000c0: d99b 2b3f d85e 2b3f 9bb1 d23e 6e56 bd3e
000000d0: 09fe e83e 1317 f13e cdb8 2c3f aff6 cd3e
000000e0: 0117 253f c551 dc3e 1e21 e73e c2a3 583f
000000f0: 8e64 f33e 7670 383f 78e7 523f f3d6 243f
00000100: f22e 333f 372e 033f 6a99 b43e b9f9 223f
00000110: a8bb d83e ceb7 da3e 26c1 233f 043c e73e
00000120: 64c3 3b3f 997c 353f c247 243f 11f8 0c3f
00000130: ffeb 3c3f ae22 0c3f 4526 0d3f 38b2 0c3f
00000140: 0870 4f3f

conv1.bias f4 [3]
-0.23273602 -0.74054694 0.18259683
00000000: 5a52 6ebe 7c94 3dbf aafa 3a3e

conv2.weight f4 [10, 3, 3, 3]
-0.4794488 -0.5419268 -0.62190115 -0.40761876 -0.65356934 -0.73395437 0.32898864 -0.50738347
-0.18777685 -0.1469193 -0.14978185 0.06472097 -0.13168904 -0.035723325 -0.03932227 -0.4302868
-0.3517347 -0.06358137 -0.049015008 -0.066042356 -0.10418877 -0.043465953 -0.22446594 -0.08986823
-0.1790464 -0.09516342 -0.29116473 0.3779314 0.23456252 0.3445092 0.34882167 0.4080499
0.48159695 0.39879778 0.6096225 0.7135708 0.55267364 0.5524467 0.7534255 0.5581238
0.6575689 0.7459268 0.46879095 0.7237867 0.6287182 0.7251344 0.61968887 0.39081165
0.619863 0.5251709 0.7321044 0.40836176 0.3503888 0.5570743 0.60002685 0.7217603
0.6609157 0.7686994 0.36755595 0.68198526 0.445935 0.5935333 0.4348734 0.6984203
0.77418953 0.7830326 0.6579494 0.728076 0.6532536 0.5817118 0.5786244 0.63923854
0.74638206 0.3730127 0.4104821 0.3894186 0.51810855 0.7179276 0.45785987 0.4432596
0.7335644 -0.7605656 -0.48692322 -0.38501412 -0.42829314 -0.3870196 -0.54100174 -0.7618311
-0.57053983 -0.7268648 -0.5671123 -0.42994645 -0.32282752 -0.47596323 -0.4802053 -0.28975862
-0.3707101 -0.2147391 -0.44816917 -0.6421199 -0.4404407 -0.40448377 -0.5054872 -0.35617238
-0.501347 -0.7047659 -0.6192236 -0.41005746 -0.5328962 -0.6406596 -0.5942046 -0.51102775
-0.35495955 -0.45582685 -0.6602802 -0.36305493 -0.5147189 -0.047313876 -0.17497766 -0.21495892
-0.0484852 -0.26458585 -0.15783738 0.21771356 -0.29962042 -0.36879116 -0.16350797 -0.522701
-0.33832175 -0.42326695 -0.31735924 -0.33608902 -0.4187451 -0.41340247 -0.2957116 -0.6814838
-0.5446417 -0.5423203 -0.47815627 -0.53992987 -0.6895433 -0.5736019 -0.5359155 -0.58940214
-0.23685662 -0.14798176 -0.056164257 -0.24260965 -0.0072801434 -0.19349381 -0.13437952 -0.026375752
-0.12196589 0.036432657 -0.039289143 0.03759967 0.01881497 -0.16873753 0.10973701 -0.13470885
0.02875662 -0.14444326 -0.291651 -0.20009968 -0.2608293 -0.18744664 -0.41445482 -0.25473565
-0.5101585 -0.51973933 -0.26962677 -0.36933592 -0.62937766 -0.61174774 -0.5747264 -0.56837636
-0.37603414 -0.48774108 -0.5795142 -0.67024106 -0.6399274 -0.6862731 -0.66259325 -0.6870955
-0.7534064 -0.8525109 -0.6101236 -0.68948907 -0.8021882 -0.44453615 -0.23202926 -0.2463762
-0.31701565 -0.23347245 -0.28662652 -0.42323148 -0.19594383 -0.4775659 -0.4980349 -0.31340572
-0.43354273 -0.68544674 -0.41963503 -0.55202 -0.66836715 -0.689074 -0.56852794 -0.75654596
-0.51301676 -0.6544848 -0.6494353 -0.5627183 -0.8421471 -0.84280497 -0.67492926 -0.8712929
-0.576551 -0.46680498 -0.5720703 -0.38505605 -0.33678973 -0.56354684 -0.6164024 -0.5936008
-0.35650018 -0.20171617 -0.2842236 -0.4607852 -0.32481676 -0.26983163 -0.19255176 -0.39901128
-0.30835658 -0.45051494 -0.6516278 -0.51888645 -0.4035624 -0.57889205 -0.38824633 -0.56354874
-0.46542254 -0.38396505 -0.39386827 0.40118262 0.016003562 -0.09370264 0.22635596 0.07691356
-0.6300884 -0.5201863 -0.64297134 0.5837977 -0.6018375 -0.5360051 -0.66206735 -0.0056571923
00000000: 507a f5be b7bb 0abf ea34 1fbf 68b3 d0be
00000010: 5250 27bf 6fe4 3bbf 3371 a83e e2e3 01bf
00000020: 9348 40be 0372 16be 6a60 19be 6e8c 843d
00000030: 7ed9 06be 9f52 12bd 6310 21bd 8d4e dcbe
00000040: 9216 b4be f336 82bd f6c3 48bd 3741 87bd
00000050: ec60 d5bd 5b09 32bd 66da 65be d60c b8bd
00000060: f157 37be 0ae5 c2bd 8b13 95be 3980 c13e
00000070: 2831 703e 8363 b03e c198 b23e ebeb d03e
00000080: e093 f63e 392f cc3e 3810 1c3f 93ac 363f
00000090: 057c 0d3f 266d 0d3f 7ee0 403f 34e1 0e3f
000000a0: 6f56 283f 0ff5 3e3f 5e05 f03e 164a 393f
000000b0: adf3 203f 68a2 393f eea3 1e3f 7718 c83e
000000c0: 57af 1e3f 9a71 063f 326b 3b3f cb14 d13e
000000d0: 2966 b33e 6c9c 0e3f 5c9b 193f 48c5 383f
000000e0: c531 293f 7cc9 443f 4b30 bc3e 9696 2e3f
000000f0: 9851 e43e ccf1 173f baa7 de3e accb 323f
00000100: 4931 463f d374 483f 5f6f 283f 3063 3a3f
00000110: a13b 273f 11eb 143f bb20 143f 23a5 233f
00000120: e512 3f3f 85fb be3e b62a d23e e061 c73e
00000130: c3a2 043f 1aca 373f 9c6c ea3e ecf2 e23e
00000140: e0ca 3b3f 6db4 42bf 004e f9be 9220 c5be
00000150: 3d49 dbbe 6f27 c6be 177f 0abf 5d07 43bf
00000160: e60e 12bf d013 3abf 462e 11bf f121 dcbe
00000170: a649 a5be 74b1 f3be 78dd f5be 3e5b 94be
00000180: b7cd bdbe 91e4 5bbe 6e76 e5be f861 24bf
00000190: 7281 e1be 7f18 cfbe 9c67 01bf 3a5c b6be
000001a0: 4758 00bf 8a6b 34bf 7085 1ebf 0df3 d1be
000001b0: e36b 08bf 4402 24bf cb1d 18bf b7d2 02bf
000001c0: 42bd b5be 2362 e9be 2008 29bf 56e2 b9be
000001d0: 9ec4 03bf 32cc 41bd 582d 33be 311e 5cbe
000001e0: 6b98 46bd cc77 87be 1fa0 21be 4ef0 5e3e
000001f0: d967 99be 32d2 bcbe a26e 27be bccf 05bf
00000200: 8238 adbe 72b6 d8be e97c a2be dc13 acbe
00000210: c265 d6be 7da9 d3be 8367 97be b975 2ebf
00000220: a36d 0bbf 81d5 0abf e6d0 f4be d838 0abf
00000230: e985 30bf 93d7 12bf c231 09bf 0fe3 16bf
00000240: 8b8a 72be 8888 17be 7e0c 66bd aa6e 78be
00000250: 458e eebb 3e23 46be c99a 09be f611 d8bc
00000260: 41c9 f9bd 693a 153d a7ed 20bd 1d02 1a3d
00000270: da21 9a3c 88c9 2cbe ccbd e03d 1ef1 09be
00000280: 0193 eb3c efe8 13be 4853 95be eee6 4cbe
00000290: 6b8b 85be 03f2 3fbe 6c33 d4be b66c 82be
000002a0: bf99 02bf a30d 05bf 850c 8abe 9919 bdbe
000002b0: e51e 21bf 809b 1cbf 4521 13bf 1d81 11bf
000002c0: 8c87 c0be 33b9 f9be 0b5b 14bf eb94 2bbf
000002d0: 48d2 23bf 98af 2fbf b69f 29bf 7ee5 2fbf
000002e0: 3edf 40bf 283e 5abf 0f31 1cbf 5b82 30bf
000002f0: 355c 4dbf 3e9a e3be 1499 6dbe 0b4a 7cbe
00000300: e04f a2be 6713 6fbe b6c0 92be ccb1 d8be
00000310: 80a5 48be 8583 f4be 6efe febe b776 a0be
00000320: 50f9 ddbe 7079 2fbf 67da d6be 2f51 0dbf
00000330: 1c1a 2bbf 2767 30bf 0c8b 11bf ffac 41bf
00000340: 1155 03bf 518c 27bf 6441 26bf 4e0e 10bf
00000350: f496 57bf 11c2 57bf 2ac8 2cbf 0d0d 5fbf
00000360: d998 13bf 1001 efbe 3373 12bf 1126 c5be
00000370: b46f acbe 9b44 10bf 8ccc 1dbf 39f6 17bf
00000380: 3187 b6be af8e 4ebe c185 91be 0aec ebbe
00000390: 624e a6be 5f27 8abe 4a2c 45be 354b ccbe
000003a0: eae0 9dbe e5a9 e6be 14d1 26bf bed5 04bf
000003b0: bb9f cebe 4532 14bf 39c8 c6be bb44 10bf
000003c0: dd4b eebe 1197 c4be 1aa9 c9be cf67 cd3e
000003d0: e719 833c 2be7 bfbd dbc9 673e db84 9d3d
000003e0: 794d 21bf ee2a 05bf c599 24bf c473 153f
000003f0: 0612 1abf a137 09bf 3f7d 29bf f85f b9bb

conv2.bias f4 [10]
0.6130474 0.51583177 0.43212384 -0.52904624 -0.87084067 -0.6004094 -0.31200254 -0.48839194
-0.41689798 0.6099147
00000000: adf0 1c3f 8d0d 043f 563f dd3e 936f 07bf
00000010: 6aef 5ebf 6eb4 19bf ccbe 9fbe 820e fabe
00000020: a773 d5be 5f23 1c3f

conv3.weight f4 [10, 10, 3, 3]
-0.47601736 -0.40022704 -0.36986983 -0.3751921 -0.3151214 -0.43299383 -0.29142433 -0.31562704
-0.4490301 -0.5615987 -0.7226694 -0.61278766 -0.74635565 -0.5979381 -0.5977944 -0.615708
-0.553489 -0.64658135 -0.588215 -0.57400537 -0.48431 -0.5362379 -0.4972749 -0.48439366
-0.5036322 -0.6715383 -0.4975469 -0.6986239 -0.60529244 -0.60492533 -0.5641432 -0.7366405
-0.56808555 -0.68067044 -0.662422 -0.6948717 -0.48564604 -0.49258652 -0.5092828 -0.4811946
-0.5541151 -0.58161503 -0.4669811 -0.5022057 -0.6155777 -0.43223134 -0.48205966 -0.38357928
-0.3782423 -0.37700444 -0.41261494 -0.4832266 -0.3645135 -0.5098895 -0.6463529 -0.6968803
-0.7003465 -0.75986904 -0.7372016 -0.745078 -0.67680466 -0.618086 -0.63765043 -0.774287
-0.7553998 -0.7975806 -0.60537374 -0.6209092 -0.6542134 -0.58961123 -0.7784906 -0.7674621
-0.31739748 -0.32006708 -0.41835773 -0.36073175 -0.44043705 -0.2528251 -0.44243917 -0.3446147
-0.32960612 -0.3278359 -0.17396465 -0.03977634 -0.32865697 -0.074657954 0.30914405 -0.43629763
-0.2756786 -0.3813896 -0.54925233 -0.5978459 -0.3921688 -0.2775024 -0.32169303 -0.41807127
-0.30238307 -0.2583735 -0.2929845 -0.68597174 -0.66196877 -0.5800428 -0.6972788 -0.7462985
-0.7489801 -0.7717052 -0.66897786 -0.7799581 -0.56358314 -0.55316913 -0.595474 -0.68286
-0.5433023 -0.5373238 -0.59506273 -0.41637313 -0.45849204 -0.37902743 -0.29023504 -0.33685184
-0.35232374 -0.42596146 -0.3568377 -0.29170376 -0.39267388 -0.3130223 -0.047700804 -0.25131327
-0.27559778 0.062434744 -0.25153273 -0.21540254 0.052593984 -0.29856718 -0.2434305 -0.15179446
-0.12349863 -0.15245432 -0.16475482 -0.14267904 -0.09029469 -0.23443648 -0.11190314 -0.108462125
-0.33842114 -0.6417296 -0.6826682 -0.41812673 -0.3296668 -0.43691093 -0.20485851 -0.2313467
-0.40147313 -0.118333936 -0.18119848 -0.41621357 -0.28115922 -0.2092211 -0.230397 -0.25392872
-0.2957484 -0.36688524 -0.60590833 -0.6231314 -0.54702103 -0.6467857 -0.7410021 -0.59596115
-0.5409175 -0.55355334 -0.5016707 -0.353955 -0.4009224 -0.42050123 -0.36516538 -0.5474131
-0.3574713 -0.33711255 -0.5057931 -0.35780406 -0.71210593 -0.515871 -0.57873833 -0.68658483
-0.64372134 -0.539093 -0.6978433 -0.5083644 -0.42586294 -0.5339856 -0.6013795 -0.46920466
-0.69795656 -0.595098 -0.48640645 -0.6933722 -0.51625186 -0.4653047 -0.65826404 -0.48646194
-0.5484033 -0.5521524 -0.6898448 -0.6365761 -0.59888816 -0.61299944 -0.54219145 -0.6399521
-0.44235235 -0.67864114 -0.5817365 -0.5525699 -0.6514272 -0.7095943 -0.60946953 -0.59219533
-0.12260746 0.029837865 -0.1923723 -0.105754666 -0.053239115 -0.15213275 -0.07381664 0.040565178
-0.22491361 -0.040005915 -0.055193923 -0.025402267 0.052858602 0.06611451 0.012885012 -0.058847923
0.058570687 0.0035969478 -0.5313053 -0.50115913 -0.47729117 -0.46714902 -0.46775752 -0.5315728
-0.5056728 -0.4736409 -0.42557243 -0.3628429 -0.48895484 -0.38949063 -0.5497085 -0.42682743
-0.40472993 -0.56982106 -0.41999227 -0.396656 -0.4725206 -0.36672038 -0.31701794 -0.46211496
00000000: 8cb8 f3be 8fea ccbe 945f bdbe 2e19 c0be
00000010: 9857 a1be 5eb1 ddbe 9235 95be de99 a1be
00000020: 46e7 e5be efc4 0fbf dd00 39bf a7df 1cbf
00000030: 2a11 3fbf 7912 19bf 0e09 19bf 0a9f 1dbf
00000040: 75b1 0dbf 5b86 25bf 4295 16bf 04f2 12bf
00000050: 7bf7 f7be e346 09bf d19a febe 7202 f8be
00000060: 0aee 00bf efe9 2bbf 78be febe 04d9 32bf
00000070: 72f4 1abf 63dc 1abf b06b 10bf 7994 3cbf
00000080: 0e6e 11bf 6b40 2ebf 7d94 29bf 1de3 31bf
00000090: 99a6 f8be 4d34 fcbe 5c60 02bf 235f f6be
000000a0: 7dda 0dbf b9e4 14bf 2618 efbe 8e90 00bf
000000b0: 8096 1dbf 6d4d ddbe 86d0 f6be 8164 c4be
000000c0: faa8 c1be ba06 c1be 4442 d3be 7a69 f7be
000000d0: 83a1 babe 1e88 02bf 6277 25bf bf66 32bf
000000e0: e949 33bf c786 42bf 3eb9 3cbf 6fbd 3ebf
000000f0: 1243 2dbf e23a 1ebf 0f3d 23bf ac37 46bf
00000100: e261 41bf 3e2e 4cbf c6f9 1abf e8f3 1ebf
00000110: 887a 27bf c3f0 16bf 294b 47bf 6578 44bf
00000120: ec81 a2be d5df a3be fc32 d6be d5b1 b8be
00000130: f780 e1be 4b72 81be 6387 e2be 5771 b0be
00000140: 22c2 a8be 1bda a7be ca23 32be 84ec 22bd
00000150: ba45 a8be 45e6 98bd 2148 9e3e 6762 dfbe
00000160: bf25 8dbe 7f45 c3be cd9b 0cbf 6e0c 19bf
00000170: 59ca c8be cb14 8ebe f3b4 a4be 700d d6be
00000180: f4d1 9abe 8849 84be 1002 96be d89b 2fbf
00000190: c976 29bf af7d 14bf dd80 32bf 6b0d 3fbf
000001a0: 29bd 3fbf 798e 45bf 2242 2bbf 56ab 47bf
000001b0: fc46 10bf 7e9c 0dbf fc70 18bf eacf 2ebf
000001c0: dc15 0bbf 0d8e 09bf 0856 18bf dc2e d5be
000001d0: 78bf eabe e20f c2be b099 94be d877 acbe
000001e0: c763 b4be 9f17 dabe 6eb3 b6be 325a 95be
000001f0: 8d0c c9be 7544 a0be eb61 43bd 22ac 80be
00000200: 271b 8dbe 93bb 7f3d e6c8 80be 7c92 5cbe
00000210: ca6c 573d ccdd 98be d845 79be 0270 1bbe
00000220: daec fcbd fc1c 1cbe 7db5 28be 741a 12be
00000230: 6cec b8bd 1e10 70be 792d e5bd 6421 debd
00000240: 8945 adbe 6448 24bf 58c3 2ebf b514 d6be
00000250: 16ca a8be cab2 dfbe 6ec6 51be 26e6 6cbe
00000260: e38d cdbe 1059 f2bd 188c 39be f219 d5be
00000270: 1af4 8fbe 0e3e 56be 31ed 6bbe f202 82be
00000280: 566c 97be 62d8 bbbe cf1c 1bbf 8a85 1fbf
00000290: 9209 0cbf bf93 25bf 50b2 3dbf e990 18bf
000002a0: 9279 0abf acb5 0dbf 7e6d 00bf 9739 b5be
000002b0: b345 cdbe f04b d7be f5f6 babe 4423 0cbf
000002c0: 7a06 b7be 049a acbe a87b 01bf 1832 b7be
000002d0: 934c 36bf 1f10 04bf 3228 14bf 06c4 2fbf
000002e0: ecca 24bf 0002 0abf dca5 32bf 2b24 02bf
000002f0: b50a dabe 48b3 08bf 02f4 19bf 983b f0be
00000300: 48ad 32bf 5858 18bf 440a f9be d780 31bf
00000310: 1529 04bf 6b3c eebe fe83 28bf 8a11 f9be
00000320: 2964 0cbf dc59 0dbf ab99 30bf a7f6 22bf
00000330: bc50 19bf 88ed 1cbf 0fcd 0abf e7d3 23bf
00000340: 027c e2be 6dbb 2dbf afec 14bf 3975 0dbf
00000350: efc3 26bf f9a7 35bf 3206 1cbf 1d9a 17bf
00000360: 9f19 fbbd 8a6e f43c 3ffd 44be e795 d8bd
00000370: 4211 5abd b0c8 1bbe 2e2d 97bd ac27 263d
00000380: c14f 66be 3edd 23bd 0613 62bd 6a18 d0bc
00000390: 4382 583d 0b67 873d a81b 533c 850a 71bd
000003a0: d1e7 6f3d c5ba 6b3b a003 08bf f74b 00bf
000003b0: 825f f4be 282e efbe ea7d efbe 2815 08bf
000003c0: c673 01bf 0f81 f2be a1e4 d9be 8bc6 b9be
000003d0: 4a58 fabe 516b c7be b2b9 0cbf 2089 dabe
000003e0: c338 cfbe cbdf 11bf 3a09 d7be 7f16 cbbe
000003f0: 38ee f1be c6c2 bbbe 2d50 a2be 559a ecbe

conv3.bias f4 [10]
-0.7214981 -0.7506046 -0.5387394 0.4495891 -0.42522076 -0.4812924 -0.36142033 -0.35093695
-0.4462366 0.64800656
00000000: 19b4 38bf a027 40bf d3ea 09bf 8b30 e63e
00000010: 89b6 d9be f56b f6be 160c b9be 02ae b3be
00000020: 2079 e4be c2e3 253f

conv4.weight f4 [3, 10, 3, 3]
-0.2640006 -0.4110415 -0.38465425 -0.33354464 -0.31483617 -0.35511914 -0.4662155 -0.43550003
-0.41427195 0.3437703 0.29970655 0.41928005 -0.0334786 0.40529355 0.38068202 -0.007970986
0.39238915 0.4821794 -0.6908521 -0.57697576 -0.47921106 -0.55190945 -0.5969244 -0.5267807
-0.48796076 -0.44402316 -0.6634118 -0.589124 -0.45612338 -0.66899407 -0.680823 -0.51424086
-0.6525967 -0.6722884 -0.45610592 -0.68763125 0.65587866 0.51756364 0.49891296 0.60804176
0.56636757 0.4881965 0.666812 0.5086002 0.54903454 0.3310695 0.26709256 0.51477146
0.5616529 0.3657151 0.4309308 0.4946108 0.3597312 0.2905436 -0.4682482 -0.42965317
-0.3186832 -0.39878064 -0.39965767 -0.26210243 -0.3951147 -0.34734765 -0.33958736 -0.43590993
-0.28512117 -0.47081733 -0.4162137 -0.3370338 -0.2684199 -0.30837527 -0.35168496 -0.47264102
-0.34469903 -0.45830223 -0.41714868 -0.4825115 -0.45920923 -0.43268496 -0.39875874 -0.49865967
-0.4234797 -0.5664962 -0.51399976 -0.6191411 -0.50651634 -0.46557564 -0.7162354 -0.64488214
-0.49912313 -0.49923623 -0.3825502 -0.41045937 -0.38621366 -0.45098826 -0.437945 -0.47579286
-0.4308724 -0.4776336 -0.33127573 0.50397336 0.23573188 -0.008075119 0.3522415 0.37122023
0.18065178 0.36135462 0.471245 0.42868423 -0.49745765 -0.2861743 -0.35643604 -0.5092167
-0.46363416 -0.45866847 -0.30358163 -0.32251194 -0.44342 -0.4702965 -0.44714177 -0.44077903
-0.5508957 -0.35540912 -0.4560146 -0.53781325 -0.45963782 -0.5653134 0.62337756 0.5109021
0.67240494 0.6311996 0.4905549 0.61441094 0.49890304 0.6424602 0.55846876 0.51152354
0.60471874 0.56918764 0.45257905 0.46989235 0.572779 0.5303866 0.5338512 0.49064714
-0.26381844 -0.3930178 -0.26822487 -0.43232945 -0.44840175 -0.34053093 -0.3923367 -0.2664079
-0.30698478 -0.30335012 -0.35459876 -0.43918547 -0.41867313 -0.2690439 -0.32993168 -0.41603056
-0.31761035 -0.28483626 -0.30793163 -0.43233234 -0.29385242 -0.26986104 -0.389106 -0.26668602
-0.31104404 -0.41539294 -0.41564125 -0.58065414 -0.6323005 -0.7427044 -0.5218053 -0.54507774
-0.7503388 -0.47957093 -0.54004425 -0.5028524 -0.38522476 -0.46211717 -0.58873445 -0.39005315
-0.27669898 -0.3065083 -0.30025142 -0.34267637 -0.48178706 0.3622277 0.432635 0.48822215
0.53392816 0.5643044 0.51631975 0.4855122 0.56961375 0.46815988 -0.6193702 -0.46846995
-0.5313792 -0.568698 -0.59222454 -0.59340185 -0.5162805 -0.45269012 -0.49064678 -0.6255902
-0.5349292 -0.6525661 -0.53602934 -0.5794814 -0.6279725 -0.6940922 -0.491672 -0.5261211
0.31629863 -0.27223083 -0.33418548 0.47910953 0.31533006 0.33455878 0.50897914 0.55326533
0.6430677 0.4900137 0.29948127 0.34538862 0.58790404 0.4222524 0.49786526 0.4408153
0.408019 0.4235691 -0.4794589 -0.54170537 -0.47827515 -0.48475057 -0.49233168 -0.43432432
-0.26694363 -0.38777947 -0.32710218 -0.49343827 -0.3432079 -0.60671425 -0.53899646 -0.38132378
-0.54146993 -0.49015915 -0.38170913 -0.39786103 -0.44831458 -0.5278909 -0.60028005 -0.44179052
00000000: 162b 87be 0874 d2be 67f1 c4be 5dc6 aabe
00000010: 3532 a1be 2dd2 b5be ccb3 eebe dcf9 debe
00000020: 741b d4be a902 b03e 2373 993e e0ab d63e
00000030: db20 09bd a382 cf3e c1e8 c23e bd98 02bc
00000040: 3be7 c83e 38e0 f63e afdb 30bf afb4 13bf
00000050: 275b f5be f049 0dbf 0ad0 18bf 1adb 06bf
00000060: fed5 f9be 0157 e3be 5bd5 29bf d5d0 16bf
00000070: 0189 e9be 3243 2bbf 6b4a 2ebf 4aa5 03bf
00000080: 9410 27bf 181b 2cbf b786 e9be 9a08 30bf
00000090: aae7 273f 0d7f 043f 8571 ff3e a0a8 1b3f
000000a0: 77fd 103f e4f4 f93e 31b4 2a3f 9f33 023f
000000b0: 878d 0c3f f181 a93e 5bc0 883e 10c8 033f
000000c0: 7cc8 0f3f 023f bb3e f6a2 dc3e a03d fd3e
000000d0: b02e b83e 21c2 943e 3abe efbe 80fb dbbe
000000e0: 722a a3be fa2c ccbe ee9f ccbe 4a32 86be
000000f0: 794c cabe 8dd7 b1be 65de adbe 962f dfbe
00000100: 67fb 91be f80e f1be f619 d5be b28f acbe
00000110: 556e 89be 5de3 9dbe 0d10 b4be 01fe f1be
00000120: 647c b0be 97a6 eabe 8394 d5be bf0b f7be
00000130: 791d ebbe e288 ddbe 1b2a ccbe 5250 ffbe
00000140: 55d2 d8be e505 11bf 7d95 03bf 0880 1ebf
00000150: 0eab 01bf ee5f eebe 345b 37bf ff16 25bf
00000160: 118d ffbe e49b ffbe 9fdd c3be bb27 d2be
00000170: ccbd c5be efe7 e6be 543a e0be 1f9b f3be
00000180: 4f9b dcbe 648c f4be f99c a9be 6604 013f
00000190: b363 713e 814d 04bc ff58 b43e 9410 be3e
000001a0: c8fc 383e 7903 b93e 0647 f13e 807c db3e
000001b0: c5b2 febe 7085 92be c97e b6be 075c 02bf
000001c0: 7561 edbe 98d6 eabe 0d6f 9bbe 4920 a5be
000001d0: f207 e3be b4ca f0be c4ef e4be caad e1be
000001e0: 8007 0dbf 2ff8 b5be bf7a e9be 21ae 09bf
000001f0: a655 ebbe 61b8 10bf ac95 1f3f 7bca 023f
00000200: bb22 2c3f 4c96 213f 032a fb3e 094a 1d3f
00000210: 3870 ff3e 4678 243f cff7 0e3f 35f3 023f
00000220: d9ce 1a3f 48b6 113f 71b8 e73e bb95 f03e
00000230: a5a1 123f 6bc7 073f 79aa 083f 1a36 fb3e
00000240: 3613 87be a139 c9be c554 89be 495a ddbe
00000250: ea94 e5be 125a aebe 5be0 c8be 9e66 88be
00000260: 1c2d 9dbe b550 9bbe f88d b5be ebdc e0be
00000270: 535c d6be 1fc0 89be ceec a8be f501 d5be
00000280: d39d a2be 0fd6 91be 37a9 9dbe aa5a ddbe
00000290: d373 96be 3a2b 8abe e738 c7be 128b 88be
000002a0: 2a41 9fbe 62ae d4be eece d4be c0a5 14bf
000002b0: 72de 21bf e021 3ebf 0895 05bf 378a 0bbf
000002c0: 3416 40bf 528a f5be 5740 0abf efba 00bf
000002d0: 2e3c c5be 9f9a ecbe 4db7 16bf 0cb5 c7be
000002e0: 7dab 8dbe a8ee 9cbe 8eba 99be 4773 afbe
000002f0: cbac f6be e975 b93e 5682 dd3e 41f8 f93e
00000300: 84af 083f 4176 103f 882d 043f 0e95 f83e
00000310: 35d2 113f a7b2 ef3e 0c8f 1ebf 4bdb efbe
00000320: 7808 08bf 3196 11bf 079c 17bf 2fe9 17bf
00000330: f52a 04bf 00c7 e7be 0e36 fbbe ae26 20bf
00000340: 1ff1 08bf 920e 27bf 3839 09bf e558 14bf
00000350: cec2 20bf 07b0 31bf 6fbc fbbe dfaf 06bf
00000360: e5f1 a13e d761 8bbe 5c1a abbe d84d f53e
00000370: f172 a13e 4a4b ab3e 754c 023f cca2 0d3f
00000380: 16a0 243f 13e3 fa3e 9c55 993e c7d6 b03e
00000390: e180 163f 7731 d83e 32e8 fe3e 8bb2 e13e
000003a0: dee7 d03e 0dde d83e a37b f5be 34ad 0abf
000003b0: 7be0 f4be 3a31 f8be e612 fcbe c25f debe
000003c0: d6ac 88be 088b c6be f079 a7be f1a3 fcbe
000003d0: f2b8 afbe a051 1bbf acfb 09bf df3c c3be
000003e0: c69d 0abf 24f6 fabe 616f c3be 71b4 cbbe
000003f0: 7d89 e5be dc23 07bf f4ab 19bf 5e32 e2be

conv4.bias f4 [3]
-0.45193994 -0.39606577 -0.5026095
00000000: ac64 e7be 22c9 cabe 04ab 00bf
