autoencoder/checkpoints/encoder.pth (torch, 4343 bytes, 8 tensors)

conv1.weight f4 [3, 3, 3, 3]
0.021393593 -0.07380153 0.22579095 -0.11207413 0.006203303 -0.0019624198 -0.04227317 0.20570046
0.07650401 0.02326719 0.15325263 -0.106675625 0.08400801 -0.12232294 -0.094305396 0.094030194
-0.04372406 -0.10936184 0.17222217 0.1347588 0.051097393 -0.06641728 -0.07612721 0.088029675
0.04246068 0.14794818 -0.015114189 0.26931992 0.08873089 0.21133476 -0.00045119913 -0.08638802
0.24754393 0.10976657 0.23280148 -0.11329191 0.1277332 0.11701555 0.019047825 -0.0407418
0.076615244 0.040602833 0.09421317 -0.016867608 -0.019479202 0.09038818 0.018572846 0.09099396
0.026148045 -0.079569794 -0.17807409 0.13220705 0.1515643 -0.13922434 -0.031257056 -0.052363295
-0.031041177 -0.01606113 -0.20286758 0.030571792 0.06990414 0.13592617 -0.00654534 -0.32117054
0.0070263706 -0.118733265 -0.30967838 -0.026685221 -0.04306477 -0.012192855 0.08316704 0.0029606223
0.0031282322 -0.20851547 0.0037144856 0.03355741 -0.09876901 -0.07525076 -0.19382861 0.12113366
0.025561579
00000000: 9e41 af3c 4225 97bd be35 673e 1f87 e5bd
00000010: 1445 cb3b f19b 00bb a226 2dbd 24a3 523e
00000020: 22ae 9c3d d69a be3c 42ee 1c3e c078 dabd
00000030: 640c ac3d 7384 fabd 3023 c1bd e792 c03d
00000040: 0018 33bd 1af9 dfbd 025b 303e 36fe 093e
00000050: 804b 513d c805 88bd 95e8 9bbd e748 b43d
00000060: 40eb 2d3d ba7f 173e 81a1 77bc 4de4 893e
00000070: 8ab8 b53d 2468 583e ec8e ecb9 34ec b0bd
00000080: 287c 7d3e 4ccd e03d 8363 6e3e 9705 e8bd
00000090: 7ecc 023e d9a5 ef3d 2f0a 9c3c e0e0 26bd
000000a0: 74e8 9c3d 284f 263d d6f2 c03d f02d 8abc
000000b0: d992 9fbc 701d b93d 1526 983c 0b5b ba3d
000000c0: 6d34 d63c 7df5 a2bd 0e59 36be 4961 073e
000000d0: ac33 1b3e d390 0ebe 6607 00bd e57a 56bd
000000e0: 114a febc a292 83bc 85bc 4fbe b271 fa3c
000000f0: e729 8f3d 3b30 0b3e 4b7a d6bb 7770 a4be
00000100: 783d e63b 6d2a f3bd 2a8e 9ebe f79a dabc
00000110: af64 30bd 8ac4 47bc 7b53 aa3d 0007 423b
00000120: 0703 4d3b 1485 55be ba6e 733b 7f73 093d
00000130: 6847 cabd 121d 9abd 027b 46be ed14 f83d
00000140: 8466 d13c

conv1.bias f4 [3]
-0.47018552 -0.036571905 -0.09459155
00000000: 28bc f0be 6ccc 15bd 37b9 c1bd

conv2.weight f4 [3, 3, 3, 3]
-0.41529378 -0.111323915 -0.3788603 -0.38228193 -0.43084654 -0.15383767 -0.43440884 -0.22008127
-0.069523945 -0.16061978 -0.36767045 -0.41005138 -0.46072534 -0.612802 -0.22459884 -0.17204045
-0.08239157 -0.3892885 0.29321307 0.52059 0.30655417 0.5268331 0.47471312 0.45070112
0.33395863 0.19939123 0.37531844 -0.27389112 -0.25253505 -0.384507 -0.06749503 -0.29414445
-0.2070733 -0.35471728 -0.21538405 -0.04481708 -0.58360964 -0.56329334 -0.53676134 -0.44483083
-0.5187136 -0.4798431 -0.36473534 -0.46054733 -0.5851723 0.23370382 0.50310004 0.5551253
0.21697341 0.40541232 0.3340852 0.33313963 0.496903 0.4019447 0.320646 0.5195713
0.34136072 0.565097 0.28047004 0.37927094 0.2905716 0.6409482 0.2763234 0.25853515
0.18766303 0.27738497 0.31632537 0.32781062 0.22952516 0.12795301 0.14566928 0.124418356
-0.37574524 -0.4025123 -0.6591041 -0.6992429 -0.55849296 -0.39900622 -0.53551143 -0.41087782
-0.6210803
00000000: 63a1 d4be cbfd e3bd faf9 c1be 75ba c3be
00000010: eb97 dcbe 9f87 1dbe d66a debe fc5c 61be
00000020: 9262 8ebd 8379 24be 4d3f bcbe 41f2 d1be
00000030: 31e4 ebbe 98e0 1cbf 3dfd 65be 5f2b 30be
00000040: e9bc a8bd d350 c7be 0620 963e 6345 053f
00000050: abf4 9c3e 89de 063f 990d f33e 4cc2 e63e
00000060: a0fc aa3e 372d 4c3e bd29 c03e 753b 8cbe
00000070: 464c 81be 1ade c4be d63a 8abd 1a9a 96be
00000080: 060b 54be 819d b5be a38d 5cbe 1d92 37bd
00000090: 7167 15bf fe33 10bf 3169 09bf dec0 e3be
000000a0: 6aca 04bf ffad f5be 97be babe dccc ebbe
000000b0: dacd 15bf 0e50 6f3e 2acb 003f b11c 0e3f
000000c0: 472e 5e3e 3492 cf3e 370d ab3e 4791 aa3e
000000d0: 126a fe3e b2cb cd3e b62b a43e a002 053f
000000e0: d5c6 ae3e 32aa 103f c599 8f3e cd2f c23e
000000f0: cdc5 943e 2e15 243f 437a 8d3e b85e 843e
00000100: bd2a 403e 6705 8e3e 66f5 a13e cbd6 a73e
00000110: a508 6b3e 1d06 033e 542a 153e 0dcf fe3d
00000120: ae61 c0be 1816 cebe 0cbb 28bf 9501 33bf
00000130: 65f9 0ebf 8b4a ccbe 4717 09bf 945e d2be
00000140: 1eff 1ebf

conv2.bias f4 [3]
0.60348445 0.5851413 0.25599092
00000000: f57d 1a3f d2cb 153f 3e11 833e

conv3.weight f4 [3, 3, 3, 3]
-0.3022864 -0.05794912 -0.31358507 -0.26961398 -0.21516813 -0.13905795 -0.38282073 0.039383363
-0.16644198 0.55925655 0.49209324 0.2569179 0.33984047 0.22700438 0.33132508 0.4177716
0.22526489 0.25661814 0.33889693 0.41315645 0.095938385 0.09743079 0.15269466 0.14285606
0.1995446 0.29677004 0.1871308 0.06321972 -0.1650395 -0.41687757 -0.23267536 0.055769436
-0.30623886 -0.22634445 -0.14158952 -0.40259114 0.45485458 0.268115 0.34822354 0.2978076
0.45708027 0.36606964 0.51054597 0.49130446 0.35979623 0.54970574 0.43888062 0.40188074
0.32774916 0.31124765 0.2856119 0.42083782 0.4817068 0.38059616 0.23381743 -0.054084133
-0.18402883 -0.33135462 -0.38336807 -0.2913424 -0.074675635 -0.4357497 0.042315762 0.2692976
0.3592791 0.23603971 0.47829556 0.13841204 0.36713976 0.32091907 0.0030244673 0.028335944
0.35847643 0.28304592 0.34445527 0.23988451 0.32918185 0.33950105 0.30782008 0.4011971
0.58405477
00000000: 48c5 9abe 0e5c 6dbd 398e a0be d80a 8abe
00000010: 0955 5cbe 3565 0ebe 1401 c4be 7350 213d
00000020: c46f 2abe 702b 0f3f a5f3 fb3e be8a 833e
00000030: 92ff ad3e d673 683e 71a3 a93e 29e6 d53e
00000040: d7ab 663e 7463 833e e683 ad3e 3e89 d33e
00000050: 587b c43d cb89 c73d fd5b 1c3e dc48 123e
00000060: 6b55 4c3e 3ef2 973e 379f 3f3e 5779 813d
00000070: 1d00 29be fa70 d5be 7342 6ebe 7e6e 643d
00000080: 57cb 9cbe d7c6 67be d8fc 10be 6d20 cebe
00000090: b3e2 e83e 5f46 893e 5b4a b23e 3d7a 983e
000000a0: 6d06 ea3e 7b6d bb3e 24b3 023f 428c fb3e
000000b0: 3637 b83e 84b9 0c3f f6b4 e03e 50c3 cd3e
000000c0: bdce a73e da5b 9f3e b93b 923e 0e78 d73e
000000d0: 46a2 f63e 80dd c23e d66d 6f3e 5387 5dbd
000000e0: 0e72 3cbe 50a7 a9be d248 c4be d52a 95be
000000f0: 8aef 98bd 961a dfbe 4b53 2d3d 60e1 893e
00000100: 6ef3 b73e 65b4 713e 28e3 f43e e3bb 0d3e
00000110: bef9 bb3e 814f a43e 2436 463b c820 e83c
00000120: 398a b73e 65eb 903e 715c b03e 49a4 753e
00000130: 868a a83e 15d3 ad3e 989a 9d3e b569 cd3e
00000140: 9d84 153f

conv3.bias f4 [3]
-0.3473836 1.8390241 0.8041918
00000000: 43dc b1be 2465 eb3f 84df 4d3f

conv4.weight f4 [3, 3, 3, 3]
0.439909 0.10115016 0.07783719 0.21072638 0.07952304 0.17616826 0.30995855 0.36601484
0.21232288 0.045243073 0.016895005 0.0237494 -0.0989638 -0.17628266 0.124979466 0.10010445
-0.0015214118 -0.086040236 0.0032932307 -0.09811596 0.08967599 -0.1400659 -0.15697393 -0.04378973
0.068659276 -0.062206153 -0.088144474 0.0026550589 0.16926129 0.11159978 0.061171673 0.19163647
0.030028911 -0.054096606 0.027164148 -0.02550003 0.14727764 0.07967981 0.0071744826 0.1907854
0.25227284 0.05216371 -0.089862026 0.061156 0.20634592 -0.14400092 -0.20646335 0.021243336
-0.15311716 0.00913832 0.08715152 0.07720695 0.14764017 0.14530595 -0.10480435 -0.08457639
-0.015612302 -0.09014886 0.2022962 0.20933184 -0.11867624 -0.17007634 -0.12956294 -0.0026035665
-0.069052294 -0.035832427 -0.09180108 0.023144985 0.10753598 0.08187952 0.08298138 -0.25151742
0.01385566 0.17004457 -0.1626721 0.05393574 0.31878334 0.024571786 -0.09592466 -0.08325715
-0.12789173
00000000: c13b e13e d127 cf3d 1b69 9f3d a8c8 573e
00000010: fadc a23d 7465 343e e3b2 9e3e 4c66 bb3e
00000020: 2b6b 593e cd50 393d 6567 8a3c 1a8e c23c
00000030: 88ad cabd 7183 34be 3cf5 ff3d 9003 cd3d
00000040: 1c6a c7ba dd35 b0bd 3ed3 573b 05f1 c8bd
00000050: 0ca8 b73d 6f6d 0fbe c6bd 20be dc5c 33bd
00000060: 3c9d 8c3d e1cb 7ebd 1785 b4bd 7f00 2e3b
00000070: d552 2d3e 6d8e e43d 268f 7a3d 5a3c 443e
00000080: 31ff f53c 6794 5dbd 5987 de3c 70e5 d0bc
00000090: f3cf 163e 2b2f a33d ec17 eb3b 3f5d 433e
000000a0: e829 813e 9da9 553d 9509 b8bd b77e 7a3d
000000b0: 584c 533e fa74 13be 216b 53be 8106 ae3c
000000c0: bfca 1cbe e4b8 153c 7f7c b23d ad1e 9e3d
000000d0: fc2e 173e 15cb 143e aaa3 d6bd 6336 adbd
000000e0: beca 7fbc f79f b8bd bc26 4f3e 165b 563e
000000f0: 870c f3bd 7e28 2ebe 26ac 04be 99a0 2abb
00000100: 4a6b 8dbd 06c5 12bd 3402 bcbd 8d9a bd3c
00000110: d33b dc3d 73b0 a73d 24f2 a93d e4c6 80be
00000120: da02 633c 2a20 2e3e 8493 26be b9eb 5c3d
00000130: 9237 a33e c54a c93c 2674 c4bd ba82 aabd
00000140: 0df6 02be

conv4.bias f4 [3]
0.0719161 0.24347499 -0.07393452
00000000: c048 933d 8251 793e fb6a 97bd
