autoencoder/checkpoints/tightrope_encoder_3ep.pth (torch, 467009 bytes, 58 tensors)

conv1.weight f4 [6, 3, 3, 3]
0.014145118 -0.084726974 0.08493531 0.027779825 0.20736043 0.11901519 -0.04295471 0.16324385
0.18104404 -0.0007212989 0.00776026 -0.024744632 -0.014248288 0.102471925 0.27356407 0.07140215
0.10721507 0.14129879 -0.10229472 0.14650217 -0.03722344 0.028317407 0.10190135 0.06499438
0.03148154 0.21482126 0.15201695 0.041003533 -0.0217924 -0.039884895 -0.072085075 -0.11052722
-0.21336034 0.021009425 -0.18340895 -0.14268556 0.002858642 -0.0816016 0.05296314 0.03675636
-0.18698217 -0.17228626 -0.0911348 -0.078772165 -0.23765378 0.048368685 0.050247435 -0.122816
-0.042080734 -0.15915868 -0.055010002 -0.061839197 -0.21456115 -0.11415773 -0.062491775 -0.1889774
-0.086374074 0.016500637 -0.01976615 -0.19118626 -0.17871131 -0.088402085 -0.2840099 -0.059469275
-0.00095013034 0.10430139 -0.026726393 -0.056759123 0.14790526 0.013119268 0.071732596 -0.059426777
0.03284478 0.13936971 0.16999544 0.130488 0.2465723 0.19728814 0.0477813 0.09067128
0.14061907 -0.08839806 -0.108847715 -0.16327198 0.03520381 -0.17740385 0.12481663 -0.09620951
-0.13969181 -0.034135673 -0.02845971 -0.06900625 -0.076003976 0.004045337 -0.096185625 0.043439887
-0.009114521 -0.04133535 -0.019481165 0.0016503884 -0.24302763 0.11013512 -0.02118239 0.11647017
0.053295422 0.067487106 0.021986118 -0.01988361 0.18418188 0.008440716 0.15528418 0.03392668
-0.015419218 0.15479095 0.15604486 0.24248488 0.07571321 0.016537908 -0.06943369 -0.045086816
-0.11863643 0.060256828 -0.04597094 0.034769755 -0.04089661 0.041442394 -0.21096352 0.020854348
-0.2361333 -0.015583865 -0.1127515 -0.11105838 -0.10389107 -0.14096011 -0.12837298 0.051763587
-0.07165929 0.019122252 -0.14389093 -0.020792387 0.110522255 0.17222168 -0.02847748 0.14687549
-0.06559159 0.13395646 0.0065888143 0.028377522 -0.22215173 -0.08200186 0.107254446 -0.13402757
0.26717123 -0.080430396 -0.08674095 0.12060733 0.0010206533 -0.058617104 -0.09203972 -0.08287663
0.037384212 0.1716315
00000000: edc0 673c 5685 adbd 90f2 ad3d 8492 e33c
00000010: 4b56 543e 3cbe f33d 47f1 2fbd 6529 273e
00000020: 9c63 393e 8d15 3dba c749 fe3b 41b5 cabc
00000030: a771 69bc cddc d13d 9710 8c3e 4a3b 923d
00000040: 9393 db3d a1b0 103e e57f d1bd aa04 163e
00000050: 9b77 18bd e8f9 e73c a8b1 d03d c61b 853d
00000060: caf2 003d 1bfa 5b3e 55aa 1b3e 52f3 273d
00000070: fa85 b2bc 585e 23bd 57a1 93bd 185c e2bd
00000080: 227b 5abe f51b ac3c 8ecf 3bbe 2a1c 12be
00000090: 0e58 3b3b bd1e a7bd e1ef 583d d68d 163d
000000a0: 4178 3fbe cf6b 30be e2a4 babd 4d53 a1bd
000000b0: 835b 73be 3e1e 463d 41d0 4d3d f486 fbbd
000000c0: d95c 2cbd 7efa 22be 2b52 61bd 194b 7dbd
000000d0: ebb5 5bbe 87cb e9bd 60f7 7fbd 4b83 41be
000000e0: e4e4 b0bd 582c 873c 9fec a1bc 55c6 43be
000000f0: 1900 37be 270c b5bd bf69 91be 0e96 73bd
00000100: 2b12 79ba f89b d53d 4ff1 dabc 417c 68bd
00000110: 7a74 173e 33f2 563c 8ae8 923d 7e69 73bd
00000120: 3f88 063d efb6 0e3e 4913 2e3e a59e 053e
00000130: 737d 7c3e e705 4a3e 53b6 433d ddb1 b93d
00000140: 72fe 0f3e 0b0a b5bd 8deb debd c530 27be
00000150: df31 103d 5ba9 35be dc9f ff3d 7e09 c5bd
00000160: 5f0b 0fbe d9d1 0bbd 5624 e9bc 2653 8dbd
00000170: f9a7 9bbd bf8e 843b f8fc c4bd 06ee 313d
00000180: 1255 15bc 424f 29bd f796 9fbc d851 d83a
00000190: 3cdc 78be 868e e13d b186 adbc ea87 ee3d
000001a0: 4d4c 5a3d ae36 8a3d 3b1c b43c f4e2 a2bc
000001b0: 2d9a 3c3e ee4a 0a3c d102 1f3e b4f6 0a3d
000001c0: e3a0 7cbc 8581 1e3e 39ca 1f3e f54d 783e
000001d0: 870f 9b3d 827a 873c 4033 8ebd f4ac 38bd
000001e0: a8f7 f2bd ddcf 763d 064c 3cbd bb6a 0e3d
000001f0: 3483 27bd 80bf 293d d206 58be bdd6 aa3c
00000200: eecc 71be 7853 7fbc 42ea e6bd 9372 e3bd
00000210: d7c4 d4bd d957 10be 3574 03be 0e06 543d
00000220: 1bc2 92bd 45a6 9c3c 2558 13be cc54 aabc
00000230: 7e59 e23d e15a 303e 9b49 e9bc 8766 163e
00000240: e254 86bd e22b 093e fbe6 d73b fa77 e83c
00000250: be7b 63be 97f0 a7bd 38a8 db3d 863e 09be
00000260: abca 883e b1b8 a4bd 3da5 b1bd fa00 f73d
00000270: 71c7 853a 7d18 70bd 527f bcbd 39bb a9bd
00000280: 3020 193d 2bc0 2f3e

conv1.bias f4 [6]
0.7296382 -0.64794815 -0.865346 -0.7845364 0.7802292 -0.6564845
00000000: 92c9 3a3f eedf 25bf 5187 5dbf 61d7 48bf
00000010: 1abd 473f 5e0f 28bf

conv2.weight f4 [12, 6, 3, 3]
-0.17793345 -0.29725242 -0.19999756 -0.1337676 0.32420605 -0.36362073 -0.15826207 -0.34039906
-0.57771826 0.14506702 0.20150118 0.11644488 0.09282223 0.16041003 0.066304706 0.1784657
0.16605875 0.10714427 -0.049563434 -0.20443343 -0.048934598 0.035447285 -0.011043798 -0.16893157
-0.045251995 0.25276178 -0.2347043 0.44916245 0.3033871 0.20654933 0.39680502 0.21820866
0.07980776 0.11873494 0.076240584 -0.2891532 0.03388576 -0.0066023837 -0.063948035 -0.064818345
0.07980172 -0.119189195 -0.054263014 -0.09758204 -0.19824423 -0.067037135 -0.03947217 -0.093268685
-0.14986382 -0.11654688 -0.05651035 0.120040536 0.18016124 0.20198087 -0.0893908 -0.029292112
0.037000008 -0.026686115 0.09524358 0.16797616 -0.055391103 -0.15154755 0.003400476 0.056578048
0.07251972 -0.021984722 0.031941544 -0.036964033 -0.026247865 0.06805636 0.20426068 0.039546143
-0.068192355 0.015599434 -0.06377804 -0.12007311 -0.048175164 -0.046395667 -0.07124194 0.07927196
-0.039954763 -0.11121264 -0.122114286 0.08342366 -0.06450217 -0.07948759 -0.011675168 -0.013002862
0.023961395 0.12170613 0.0038577768 0.10912883 0.08196243 0.09698539 0.07211478 0.20816393
0.12429545 0.2847629 0.22935688 0.09645252 0.07381191 -0.026126185 0.1254368 0.07711092
0.2571007 0.03381896 0.2660605 0.30869377 -0.18146646 -0.118726365 -0.14239445 -0.064321995
-0.075856306 -0.10560295 0.064194664 -0.14569294 -0.016220855 0.07990676 0.041361555 -0.094249606
-0.04901994 -0.01703645 -0.086861886 -0.0066667353 -0.009856039 -0.14529116 0.13359556 -0.20276143
-0.15096149 0.012224277 0.07959905 -0.07575466 -0.024461906 -0.14328825 -0.21718474 -0.14015834
-0.138806 -0.035143353 -0.07281154 -0.008216989 -0.15204325 0.039796244 -0.052733574 -0.1333671
0.038573645 -0.08857955 -0.067687206 0.011190072 0.10121468 0.010819387 -0.0051245447 -0.13447331
-0.065058276 -0.18802984 0.017659687 -0.12738886 -0.14496994 0.06349812 -0.0010715633 0.0539706
0.03828211 -0.17453136 0.034623586 -0.1334078 0.065589376 -0.054187126 -0.009464632 -0.05350883
-0.13193417 0.031611178 -0.052021395 0.032441463 0.021164019 -0.0510231 -0.0039600004 0.09309112
-0.121580645 -0.09468505 0.052389115 -0.13839458 -0.015429827 0.06143037 -0.0110466285 0.04648079
-0.046417248 -0.15113191 0.0134012345 -0.017752698 -0.10767007 -0.16239204 -0.072895974 -0.1560186
-0.20366433 -0.03270483 0.017856851 -0.2167914 -0.11373686 -0.02639438 0.008953939 -0.16750298
-0.12441181 0.07334048 -0.19687374 0.031671062 0.11625339 0.05959027 0.0052296463 -0.049682442
0.044172704 0.13782912 0.019908872 0.008521617 0.06580844 0.1089387 -0.028528469 0.18456571
-0.071622916 -0.07519549 -0.1106789 0.042098254 0.22400399 0.22878991 -0.07602693 0.010804942
0.008556305 0.1712627 0.16512267 0.20325954 -0.01642074 -0.18841131 -0.021629306 0.010595667
-0.20105238 -0.08282159 0.08376688 0.06597848 0.0794593 0.1903969 0.28364524 0.2902689
0.08493243 0.21667382 0.20845087 -0.026918862 -0.06903606 -0.051408283 0.05615013 -0.039971992
0.33399263 -0.012543172 -0.078790255 0.07514022 0.03096509 -0.011847173 -0.02890432 -0.11393412
00000000: 3034 36be 7831 98be 29cc 4cbe 60fa 08be
00000010: 56fe a53e 7f2c babe 740f 22be c948 aebe
00000020: 58e5 13bf 738c 143e 5356 4e3e a77a ee3d
00000030: 9519 be3d 8742 243e c3ca 873d b6bf 363e
00000040: 4e0b 2a3e 746e db3d 0703 4bbd ff56 51be
00000050: a56f 48bd 2c31 113d 0cf1 34bc 66fc 2cbe
00000060: 285a 39bd fe69 813e 5356 70be 9ff8 e53e
00000070: 8e55 9b3e ab81 533e 072a cb3e 1772 5f3e
00000080: 4072 a33d 4e2b f33d 0624 9c3d e30b 94be
00000090: cbcb 0a3d cf58 d8bb 30f7 82bd 7bbf 84bd
000000a0: 166f a33d 7719 f4bd e542 5ebd 18d9 c7bd
000000b0: 8900 4bbe c44a 89bd 92ad 21bd a703 bfbd
000000c0: e775 19be 21b0 eebd 6677 67bd d0d7 f53d
000000d0: 307c 383e 13d4 4e3e 8612 b7bd 03f6 efbc
000000e0: 528d 173d d79c dabc 110f c33d f101 2c3e
000000f0: c8e1 62bd 482f 1bbe 85da 5e3b 62be 673d
00000100: 3885 943d 4e19 b4bc 23d5 023d 9967 17bd
00000110: c305 d7bc 2261 8b3d b629 513e 23fb 213d
00000120: 6fa8 8bbd c594 7f3c 109e 82bd e4e8 f5bd
00000130: 5253 45bd 6209 3ebd 4be7 91bd 5659 a23d
00000140: 9ba7 23bd 74c3 e3bd 0e17 fabd 06da aa3d
00000150: b719 84bd 64ca a2bd 3449 3fbc f509 55bc
00000160: b04a c43c 1041 f93d c1d2 7c3b f07e df3d
00000170: ebdb a73d 47a0 c63d eab0 933d ed28 553e
00000180: 9d8e fe3d 71cc 913e 88dc 6a3e e688 c53d
00000190: b32a 973d 9506 d6bc 8172 003e 54ec 9d3d
000001a0: b4a2 833e c085 0a3d 1539 883e 1c0d 9e3e
000001b0: 58d2 39be cf26 f3bd dacf 11be 40bb 83bd
000001c0: 8d5a 9bbd 5c46 d8bd 7e78 833d 8830 15be
000001d0: 99e1 84bc 28a6 a33d bc6a 293d f005 c1bd
000001e0: 22c9 48bd 0690 8bbc a5e4 b1bd a174 dabb
000001f0: 397b 21bc 35c7 14be 46cd 083e b1a0 4fbe
00000200: a695 1abe 5548 483c d404 a33d 4225 9bbd
00000210: 5664 c8bc 28ba 12be ad65 5ebe ab85 0fbe
00000220: 2923 0ebe 7af2 0fbd 371e 95bd 8da0 06bc
00000230: 3ab1 1bbe 6301 233d 29ff 57bd 6391 08be
00000240: 66ff 1d3d 3269 b5bd 979f 8abd 9056 373c
00000250: a449 cf3d cc43 313c cceb a7bb 5fb3 09be
00000260: 463d 85bd e58a 40be 0cab 903c 3a72 02be
00000270: 0073 14be 4d0b 823d b373 8cba 4710 5d3d
00000280: b4cd 1c3d 59b8 32be 76d1 0d3d 0e9c 08be
00000290: b953 863d 52f3 5dbd 8b11 1bbc 132c 5bbd
000002a0: c019 07be b97a 013d 6314 55bd 57e1 043d
000002b0: 2a60 ad3c 99fd 50bd e4c2 81bb 8fa6 be3d
000002c0: 46ff f8bd 3cea c1bd f895 563d 4fb7 0dbe
000002d0: 63cd 7cbc 699e 7b3d ebfc 34bc a462 3e3d
000002e0: 0320 3ebd 53c2 1abe da90 5b3c 1b6e 91bc
000002f0: 2082 dcbd 194a 26be 7c4a 95bd 57c3 1fbe
00000300: 628d 50be 80f5 05bd 8848 923c 91fe 5dbe
00000310: dfee e8bd 0739 d8bc 8bb3 123c e785 2bbe
00000320: 9ecb febd 8933 963d 4599 49be 84b9 013d
00000330: 4216 ee3d ed14 743d 745d ab3b d17f 4bbd
00000340: 70ee 343d 1423 0d3e ee17 a33c 419e 0b3c
00000350: 93c6 863d 411b df3d 89b4 e9bc cbfe 3c3e
00000360: 09af 92bd 1800 9abd 9eab e2bd 386f 2c3d
00000370: 4d61 653e e747 6a3e 02b4 9bbd 3607 313c
00000380: bf2f 0c3c 7d5f 2f3e eb15 293e 4523 503e
00000390: ca84 86bc e5ee 40be f12f b1bc 7399 2d3c
000003a0: ade0 4dbe 5e9e a9bd f88d ab3d ba1f 873d
000003b0: 8fbb a23d 68f7 423e f339 913e 209e 943e
000003c0: 0ef1 ad3d bedf 5d3e 2574 553e f284 dcbc
000003d0: c762 8dbd 7e91 52bd aefd 653d acb9 23bd
000003e0: 1501 ab3e e081 4dbc c95c a1bd 1ee3 993d
000003f0: 80aa fd3c a51a 42bc c1c8 ecbc 4b56 e9bd

conv2.bias f4 [12]
-0.0682256 0.013453791 -0.18435319 -0.04393329 0.2638062 0.3347486 0.15205042 0.7173224
-0.42023245 -0.1527043 -0.18368217 -0.12231379
00000000: ddb9 8bbd 4a6d 5c3c 15c7 3cbe 65f3 33bd
00000010: 9b11 873e 2b64 ab3e 1bb3 1b3e 71a2 373f
00000020: b528 d7be 845e 1cbe 2e17 3cbe a77f fabd

conv3.weight f4 [24, 12, 3, 3]
0.016728343 0.018465957 0.017961636 0.04032601 -0.014499854 -0.00331338 -0.01851693 -0.13815124
-0.088050544 0.009659149 0.01190318 0.012151138 0.010750766 0.013233489 0.0050542126 -0.0323654
-0.012068972 -0.030099083 -0.0109803155 0.041626845 -0.06250125 -0.09331563 0.098737724 -0.0703836
-0.087009065 0.013801713 -0.0056804633 -0.07444897 0.06894057 -0.048822004 0.06975793 0.045980204
0.08751347 0.01362319 -0.0075290482 0.012628568 0.00932545 0.006314521 0.0038072441 -0.0028307
0.0050452473 -0.021792106 -0.004448785 0.011057162 -0.028308114 0.05183085 0.017745845 -0.018417615
0.059264623 0.059401814 -0.046308227 0.13692355 0.046932284 0.10112331 0.009594739 -0.01652891
-0.020989235 -0.024858491 -0.017221902 -0.03527364 0.054789793 0.034974985 0.029521598 -0.018614504
-0.0378094 -0.017504642 0.044627327 0.23310852 0.1309279 0.15304969 0.3933669 0.2170249
0.005417672 -0.029500356 -0.013413326 0.026122605 0.008537665 -0.008965078 0.00705925 0.080543615
0.042876065 0.025199138 -0.0208925 -0.054696307 0.06516652 0.06251466 -0.02306079 -0.018993715
0.07218243 0.123066485 -0.0005203872 -0.030406725 0.012925841 0.004468261 0.0023991286 -0.047430787
0.08348382 -0.017572746 -0.028011696 0.0054661683 -0.032267783 -0.010991162 -0.00079228985 -0.16767907
-0.17654952 -0.13413556 -0.21222246 -0.18023664 0.061405826 -0.14898698 0.016522473 -0.07033495
-0.15326612 -0.062069967 -0.0056725703 -0.15129645 -0.16601983 -0.04668866 -0.112735525 -0.11896598
0.0012023906 -0.057409056 -0.009531898 -0.01302006 -0.024009895 0.03469969 0.07189836 -0.07698199
-0.1404629 -0.14513981 -0.04873796 -0.09562434 0.027924929 -0.10422214 -0.13515304 -0.1661922
-0.10168583 -0.10890372 -0.08614076 -0.08687371 -0.13398592 -0.06406925 -0.043854043 -0.02761554
-0.0410887 -0.058056053 -0.001181662 -0.11155328 -0.061152082 -0.06432759 0.014322062 0.024897087
-0.14130718 -0.039534964 -0.14126319 -0.03311953 0.015114316 0.06577067 -0.08298788 -0.004403901
-0.07961936 -0.009669603 -0.087230064 0.0068293037 0.012011809 -0.00993328 -0.057494953 -0.003918502
-0.12514433 -0.14712264 -0.07493575 -0.020926181 0.052607328 -0.04576917 -0.04308311 -0.00040814467
-0.012682655 -0.15468393 -0.12123902 -0.121188 -0.13379501 -0.06406022 -0.098229595 0.07593006
-0.03831431 -0.03338836 0.0699235 0.044274434 -0.09175454 -0.13200937 -0.08608224 0.049199108
-0.040661827 -0.14888747 0.12277545 -0.14294112 0.015041783 -0.0032150424 -0.0017205867 0.07452019
-0.1373099 0.11552166 0.09873021 0.06433871 0.03024856 -0.11263579 -0.013900955 0.01304925
0.120263025 -0.113248736 -0.075031266 -0.15129937 -0.099394664 -0.0009042781 -0.037065607 -0.121996455
-0.00036155814 0.067067534 0.024703095 -0.07489953 -0.0053946893 -0.22506817 -0.13441956 0.021248491
-0.02784916 -0.09304261 -0.12830357 -0.1177303 -0.10851977 -0.16100757 0.07641265 -0.04065572
-0.10195659 -0.086158745 -0.036612675 0.086522244 -0.071793824 0.13546902 0.010669027 -0.014356766
0.055598278 -0.12024528 0.039889038 -0.071491435 -0.11902693 -0.06061346 0.09515385 -0.0766396
0.013705471 -0.06649293 -0.027897265 -0.14148931 0.072591335 -0.017724149 -0.13980487 0.076371886
00000000: e109 893c eb45 973c 4824 933c e32c 253d
00000010: cc90 6dbc 4b25 59bb d1b0 97bc 8577 0dbe
00000020: d853 b4bd 6841 1e3c 8e05 433c 9115 473c
00000030: fb23 303c 47d1 583c cf9d a53b 9591 04bd
00000040: f0bc 45bc 5a92 f6bc c8e6 33bc e980 2a3d
00000050: a800 80bd 441c bfbd 0137 ca3d 4725 90bd
00000060: cf31 b2bd 9420 623c 2e23 babb b478 98bd
00000070: b730 8d3d 95f9 47bd 3fdd 8e3d bd55 3c3d
00000080: 433a b33d cd33 5f3c 3cb6 f6bb 0ee8 4e3c
00000090: c6c9 183c 0bea ce3b f582 793b 4483 39bb
000000a0: 9a52 a53b 5c85 b2bc 1dc7 91bb 1929 353c
000000b0: 6be6 e7bc 964c 543d bc5f 913c 8ae0 96bc
000000c0: 76bf 723d 514f 733d b2ad 3dbd b035 0c3e
000000d0: 113c 403d bd19 cf3d 4133 1d3c a367 87bc
000000e0: 9ef1 abbc 09a4 cbbc f214 8dbc 187b 10bd
000000f0: 436b 603d ee41 0f3d 47d7 f13c 727d 98bc
00000100: 08de 1abd e565 8fbc 25cb 363d 00b4 6e3e
00000110: f711 063e 0fb9 1c3e 6367 c93e c63b 5e3e
00000120: ba86 b13b bbaa f1bc 91c3 5bbc 13ff d53c
00000130: 90e1 0b3c 43e2 12bc 4851 e73b 0df4 a43d
00000140: d09e 2f3d 6c6e ce3c c026 abbc 3c09 60bd
00000150: 0676 853d b007 803d fbe9 bcbc b598 9bbc
00000160: 62d4 933d 480a fc3d 986a 08ba 8617 f9bc
00000170: e8c6 533c 7d6a 923b b33a 1d3b c946 42bd
00000180: 91f9 aa3d b8f4 8fbc c978 e5bc 8b1d b33b
00000190: 392b 04bd 4614 34bc acb1 4fba 10b4 2bbe
000001a0: 66c9 34be d55a 09be d850 59be f48f 38be
000001b0: ad84 7b3d 0b90 18be 235a 873c c50b 90bd
000001c0: cbf1 1cbe 143d 7ebd f8e0 b9bb 75ed 1abe
000001d0: 1a01 2abe 9c3c 3fbd e2e1 e6bd 70a4 f3bd
000001e0: 8999 9d3a c225 6bbd ae2b 1cbc 1752 55bc
000001f0: 66b0 c4bc 4321 0e3d 733f 933d bca8 9dbd
00000200: 82d5 0fbe 889f 14be 75a1 47bd b2d6 c3bd
00000210: d2c2 e43c 6b72 d5bd 8f65 0abe 4a2e 2abe
00000220: a940 d0bd ea08 dfbd 916a b0bd d8ea b1bd
00000230: 9b33 09be bd36 83bd 4ca0 33bd fc39 e2bc
00000240: a04c 28bd 2fcc 6dbd ffe1 9aba 0c76 e4bd
00000250: 9b7a 7abd 2fbe 83bd 15a7 6a3c faf4 cb3c
00000260: d4b2 10be 6aef 21bd 4ca7 10be 58a8 07bd
00000270: 09a2 773c c6b2 863d 8df5 a9bd 994e 90bb
00000280: 7a0f a3bd 416d 1ebc ada5 b2bd 5ac8 df3b
00000290: 2ecd 443c 32bf 22bc d47f 6bbd c766 80bb
000002a0: d625 00be 51a7 16be ea77 99bd 626d abbc
000002b0: c87a 573d 7478 3bbd ea77 30bd 40fc d5b9
000002c0: e9ca 4fbc 7765 1ebe 2a4c f8bd 6a31 f8bd
000002d0: 8f01 09be 0132 83bd 992c c9bd 3881 9b3d
000002e0: 77ef 1cbd 3cc2 08bd 0d34 8f3d 1c59 353d
000002f0: cee9 bbbd 772d 07be e34b b0bd 0185 493d
00000300: 048d 26bd f575 18be b271 fb3d 285f 12be
00000310: d071 763c 76b3 52bb 4f85 e1ba 0b9e 983d
00000320: f79a 0cbe 9f96 ec3d 1033 ca3d 03c4 833d
00000330: d4cb f73c 98ad e6bd d5c0 63bc 85cc 553c
00000340: 764c f63d f4ee e7bd fea9 99bd 39ee 1abe
00000350: 6e8f cbbd 130d 6dba 1bd2 17bd 47d9 f9bd
00000360: 838f bdb9 b45a 893d 255e ca3c ed64 99bd
00000370: efc5 b0bb 4578 66be 48a5 09be 5111 ae3c
00000380: ec23 e4bc 208d bebd 0362 03be 951c f1bd
00000390: 9d3f debd 2bdf 24be 3c7e 9c3d 9d86 26bd
000003a0: 9ece d0bd ff73 b0bd 2cf7 15bd 9332 b13d
000003b0: a408 93bd 64b8 0a3e 25cd 2e3c a438 6bbc
000003c0: 05bb 633d 2843 f6bd b062 233d 1a6a 92bd
000003d0: 64c4 f3bd d245 78bd 06e0 c23d 39f5 9cbd
000003e0: e98c 603c 722d 88bd ce88 e4bc 93e2 10be
000003f0: c4aa 943d 3c32 91bc 0229 0fbe dd68 9c3d

conv3.bias f4 [24]
0.83568656 -0.110177696 -0.087031074 0.17623122 -0.12531759 0.033497564 0.8847183 -0.031823974
-0.05450489 -0.08581103 -0.01711287 0.55328965 0.016393425 0.10347434 0.8890678 0.6034459
0.4569657 -0.046854135 0.12060227 -0.05674033 0.24453725 -0.014899869 -0.06888338 -0.16904077
00000000: 8eef 553f d8a4 e1bd 593d b2bd f575 343e
00000010: 4153 00be be34 093d e67c 623f db59 02bd
00000020: 8540 5fbd b1bd afbd 4a30 8cbc 64a4 0d3f
00000030: 814b 863c 5bea d33d f399 633f 6e7b 1a3f
00000040: 69f7 e93e 1fea 3fbd 53fe f63d 8c68 68bd
00000050: f967 7a3e 951e 74bc bb12 8dbd 0619 2dbe

conv4.weight f4 [48, 24, 3, 3]
-0.08782366 -0.12693004 -0.027857956 0.038129114 -0.17742784 -0.006070501 -0.008025731 -0.09549239
-0.014269383 -0.012527577 0.022278264 -0.109440245 0.018500388 0.064199984 0.06979429 0.07355761
-0.018447287 0.0237043 0.08043184 -0.081931144 -0.063854665 -0.045909185 -0.15628123 -0.10673004
-0.1408532 0.03532638 -0.03420488 0.03762302 0.04593255 0.059887826 -0.06683835 -0.11459707
-6.4709806e-05 -0.046895448 0.027368927 -0.0032142047 -0.12920643 0.031730004 0.07859555 -0.023918614
-0.03295214 -0.143102 0.06080534 0.054577816 -0.08567975 -0.12275544 0.062195897 0.018336352
-0.096349984 0.09608875 0.07282602 -0.026588181 -0.004019315 0.021184446 0.029821701 -0.007742745
0.025200134 -0.036092486 -0.13342153 -0.10905263 -0.13121496 -0.10127402 0.034015857 0.0031536375
-0.02764085 -0.11130423 -0.0012034486 0.0249663 -0.07880056 0.08046383 -0.14242898 0.045732368
0.020089401 0.0031905181 -0.07697076 0.03046165 -0.036573585 -0.15014043 -0.13618885 0.036739327
0.082198955 -0.104448766 -0.12786703 -0.014189421 -0.03291921 -0.0866587 0.10758897 -0.11274479
-0.029017525 -0.015311883 -0.13261896 -0.058351513 -0.11572601 0.093741246 -0.11477329 -0.13448827
-0.109819055 -0.10814338 0.028479882 0.010224232 -0.0939027 -0.020415049 -0.050687183 -0.1419809
-0.03870768 -0.03227446 -0.14426921 -0.14316748 0.03161934 -0.039819155 -0.07471015 0.03655946
-0.06797932 0.044370893 0.06398087 -0.08610042 -0.022265056 0.11606125 -0.0913185 0.03050459
0.11493242 -0.012397904 0.05317763 0.09901623 0.098308876 0.025407752 -0.028384842 0.047296643
-0.0340171 0.012583827 -0.014015924 -0.062091194 -0.07219168 -0.06763584 0.030743117 -0.012788727
-0.10348504 0.019583752 -0.13420619 -0.01129413 -0.13791448 -0.09999986 0.123348914 0.024162382
-0.11208691 -0.046441782 -0.024914388 -0.092487104 0.008279552 -7.855838e-05 -0.11886751 0.09197745
-0.078191526 -0.054228697 -0.0054773134 0.10974261 -0.011285591 0.07183109 0.08448078 -0.036987793
-0.055622753 -0.06499164 -0.039899178 -0.1168448 -0.108299516 0.035597295 -0.08357343 -0.1532397
-0.14002493 -0.04627573 0.017412063 -0.008324846 0.020672277 -0.11606445 -0.02659898 -0.105637185
-0.006793865 0.0017652086 -0.12440269 -0.12516086 0.05429355 -0.024470655 0.043042123 -0.12562172
-0.02029678 -0.0779414 -0.13576683 -0.09754372 -0.11332258 0.006655521 0.02251305 0.09662941
-0.008855901 -0.07080378 0.093661524 -0.13463517 -0.10106516 0.10379524 -0.017988253 -0.10148131
0.00064555404 -0.017014433 -0.079276316 0.08546873 0.120184325 -0.08360329 0.04647549 -0.059665207
0.05609577 -0.07690757 -0.060286894 0.028557815 0.11104703 -0.0069310344 -0.016494151 0.017967146
-0.05468362 -0.14969756 -0.13365148 -0.11006588 -0.041682534 -0.15341976 0.009042862 -0.103591636
-0.011179681 -0.13535294 -0.09175394 0.06497673 -0.09683612 0.015930176 0.07099321 -0.024499193
0.028115736 -0.049314015 -0.10103341 -0.05313173 -0.03806395 -0.06646301 -0.005659587 -0.0200293
-0.08259957 -0.00083065557 0.0066638854 -0.046283275 -0.15931685 -0.035854425 -0.09088986 -0.047050193
-0.037545133 -0.047399543 -0.12611185 -0.11142234 0.016369896 0.03923134 0.021290826 -0.02417833
00000000: e4dc b3bd f3f9 01be 5e36 e4bc 462d 1c3d
00000010: a5af 35be 0eeb c6bb 5b7e 03bc 8491 c3bd
00000020: 21ca 69bc 7740 4dbc e880 b63c 3522 e0bd
00000030: 208e 973c 487b 833d 4ff0 8e3d 5fa5 963d
00000040: c41e 97bc 852f c23c 73b9 a43d 84cb a7bd
00000050: 3cc6 82bd 450b 3cbd 3008 20be 4795 dabd
00000060: d23b 10be 65b2 103d 6b1a 0cbd 991a 1a3d
00000070: c523 3c3d f04c 753d 8be2 88bd deb1 eabd
00000080: d0b4 87b8 7115 40bd cd34 e03c 68a5 52bb
00000090: b14e 04be 52f7 013d b4f6 a03d f8f0 c3bc
000000a0: d3f8 06bd 5589 12be 050f 793d fd8c 5f3d
000000b0: dd78 afbd 3467 fbbd 20c1 7e3d 1e36 963c
000000c0: 2453 c5bd 2eca c43d cf25 953d 75cf d9bc
000000d0: 75b4 83bb 018b ad3c a44c f43c dab6 fdbb
000000e0: 8370 ce3c b7d5 13bd a79f 08be fc56 dfbd
000000f0: 375d 06be c168 cfbd 3654 0b3d 42ad 4e3b
00000100: 106f e2bc 79f3 e3bd 09bd 9dba 2086 cc3c
00000110: 3062 a1bd 38ca a43d e7d8 11be dd51 3b3d
00000120: 8792 a43c 0318 513b d9a2 9dbd b68a f93c
00000130: 2fce 15bd 6abe 19be 1775 0bbe fa7b 163d
00000140: ed57 a83d 3ce9 d5bd 93ef 02be bf7a 68bc
00000150: 4bd6 06bd 1e7a b1bd 9b57 dc3d bee6 e6bd
00000160: 29b6 edbc b1de 7abc 44cd 07be ff01 6fbd
00000170: c201 edbd 69fb bf3d 420e ebbd 4bb7 09be
00000180: d0e8 e0bd 477a ddbd a44e e93c 8a83 273c
00000190: 0f50 c0bd 763d a7bc 5d9d 4fbd 7163 11be
000001a0: f28b 1ebd 3932 04bd 4fbb 13be 7f9a 12be
000001b0: 4883 013d 6919 23bd a301 99bd 5fbf 153d
000001c0: be38 8bbd 41be 353d 6708 833d 6b55 b0bd
000001d0: 3565 b6bc 85b1 ed3d 3205 bbbd c3e4 f93c
000001e0: b061 eb3d 9420 4bbc c9d0 593d 05c9 ca3d
000001f0: 2a56 c93d eb23 d03c 5487 e8bc 20ba 413d
00000200: 8455 0bbd 652c 4e3c 0ca3 65bc 5653 7ebd
00000210: 3bd9 93bd a984 8abd fdd8 fb3c cf87 51bc
00000220: f7ef d3bd 1b6e a03c 596d 09be 040b 39bc
00000230: 7439 0dbe bacc ccbd 5b9e fc3d 30f0 c53c
00000240: d28d e5bd bd39 3ebd 4219 ccbc e169 bdbd
00000250: f5a6 073c b6bf a4b8 cf70 f3bd ac5e bc3d
00000260: e122 a0bd e91e 5ebd 097b b3bb bcc0 e03d
00000270: 33e7 38bc 2e1c 933d 4204 ad3d 8380 17bd
00000280: afd4 63bd 561a 85bd 526d 23bd 544c efbd
00000290: 23cc ddbd 78ce 113d 8c28 abbd deea 1cbe
000002a0: b262 0fbe 9f8b 3dbd bea3 8e3c ef64 08bc
000002b0: e858 a93c 33b3 edbd 1be6 d9bc 4f58 d8bd
000002c0: 129f debb 925e e73a d6c6 febd 2b2a 00be
000002d0: ea62 5e3d af76 c8bc f04c 303d fba2 00be
000002e0: 6f45 a6bc be9f 9fbd 7606 0bbe 00c5 c7bd
000002f0: ab15 e8bd 8f16 da3b 4a6d b83c a4e5 c53d
00000300: 5718 11bc 9201 91bd 9dd1 bf3d cddd 09be
00000310: 40fb cebd 9992 d43d 1a5c 93bc 6fd5 cfbd
00000320: 663a 293a da61 8bbc 9f5b a2bd 3b0a af3d
00000330: 3323 f63d 3438 abbd 155d 3e3d 8163 74bd
00000340: aec4 653d b781 9dbd 64ef 76bd 14f2 e93c
00000350: a06c e33d bb1d e3bb be1e 87bc d62f 933c
00000360: eefb 5fbd 514a 19be efdb 08be 386a e1bd
00000370: 4ebb 2abd 121a 1dbe 8328 143c da27 d4bd
00000380: fb2a 37bc f699 0abe 7de9 bbbd 8512 853d
00000390: 0452 c6bd 0080 823c e364 913d 88b2 c8bc
000003a0: f952 e63c 7efd 49bd 9bea cebd a8a0 59bd
000003b0: f2e8 1bbd c21d 88bd 0f74 b9bb 7d14 a4bc
000003c0: f729 a9bd 5ac0 59ba b95c da3b 8893 3dbd
000003d0: f523 23be 17dc 12bd 7724 babd b4b7 40bd
000003e0: edc8 19bd 0626 42bd 7723 01be 6531 e4bd
000003f0: 291a 863c 0bb1 203d 196a ae3c a211 c6bc

conv4.bias f4 [48]
-0.112379834 -0.12886867 -0.0856168 -0.144544 -0.09781908 0.36048818 -0.07096774 -0.08764015
-0.12565115 0.026722994 -0.05369041 -0.020303832 0.27690107 -0.038414914 0.005788842 -0.041743368
0.09646774 -0.043044 -0.048475355 -0.101486735 -0.114458345 0.023741204 0.023525601 -0.03772644
-0.036169343 -0.10061617 -0.0760551 -0.0932238 0.6191636 0.013321644 0.015625622 -0.04646307
-0.07704881 -0.025748612 0.73409915 0.70607567 -0.072879046 -0.011673455 -0.056027267 -0.046946157
-0.13186418 -0.05407037 0.00012703413 -0.029045133 -0.018401721 -0.021787481 0.74875313 -0.01698066
00000000: 6627 e6bd 26f6 03be dc57 afbd 5803 14be
00000010: 5f55 c8bd e891 b83e 8957 91bd ae7c b3bd
00000020: b2aa 00be 2eea da3c 7aea 5bbd 3954 a6bc
00000030: fac5 8d3e f558 1dbd 54b0 bd3b 18fb 2abd
00000040: e190 c53d e84e 30bd 188e 46bd 47d8 cfbd
00000050: 2369 eabd ea7c c23c c3b8 c03c 0a87 1abd
00000060: 4e26 14bd da0f cebd c7c2 9bbd 1fec bebd
00000070: 8181 1e3f 0643 5a3c 4e01 803c 0f50 3ebd
00000080: c4cb 9dbd c1ee d2bc eced 3b3f 60c1 343f
00000090: 9c41 95bd 0542 3fbc d97c 65bd 9d4a 40bd
000000a0: 6707 07be e478 5dbd 7734 0539 0ff0 edbc
000000b0: 35bf 96bc a97b b2bc 49ae 3f3f 061b 8bbc

conv5.weight f4 [96, 48, 3, 3]
-0.018373104 0.055682387 -0.07867714 -0.089428514 0.06469134 0.062335838 0.03466202 -0.055399347
0.007313658 -0.1131393 -0.11994625 -0.14258598 -0.00057084946 -0.052849147 -0.00036855415 -0.048548125
0.07214546 0.03584419 -0.058063626 -0.29916906 -0.09443541 -0.13844235 -0.3268938 -0.10973248
-0.052300863 -0.057438783 -0.101099595 -0.064010516 0.08680569 0.25380203 0.08379831 0.004625269
0.005449204 -0.00087976846 -0.018419135 -0.09163748 -0.055175066 0.024515938 -0.0015934814 0.07515387
-0.08043728 -0.05437296 -0.124606304 0.008305844 -0.009512142 -0.021739798 0.17976204 0.13440815
0.0643322 0.35880908 0.16781019 0.14713384 0.35140663 0.3428236 -0.11970184 -0.14651613
-0.12563203 -0.31982422 -0.15655938 -0.021406459 -0.17674461 -0.012739544 0.15553495 -0.03334923
-0.078242764 -0.07674851 -0.018614082 0.05631415 0.049059726 0.026262915 0.03369926 0.046443485
-0.017822504 -0.014151631 -0.1225867 0.07609689 0.04182504 0.12539545 -0.0683686 -0.04585726
0.14748336 -0.09257382 0.085573874 0.053138092 0.07571673 0.048347037 0.028113745 0.10829445
0.011479386 -0.004621153 0.07466294 0.08380696 0.10011776 0.08893954 -0.08631012 -0.022276072
-0.005475004 0.019746233 0.04895368 -0.09034624 -0.07681069 -0.0681113 -0.19645342 -0.19633101
-0.047155384 -0.15160546 -0.12187475 -0.068844594 0.009756483 0.0839038 0.05818469 0.14383039
0.39700913 0.29765573 0.11433171 0.5606816 0.16273846 -0.036307078 0.17765069 0.08769947
0.12507987 0.0023115436 0.013040101 -0.07049219 0.04885972 -0.027869673 0.07218979 -0.055021286
-0.07430412 0.19873716 -0.017277868 0.01323388 0.13165702 0.087289445 0.06423517 -0.01088095
0.1743152 -0.046978906 0.036393814 -0.008887693 -0.028761141 -0.1065632 0.027051559 -0.033073336
-0.04686187 -0.061021484 0.08540664 0.03874341 0.04525214 0.05597622 0.045268357 -0.0014731754
-0.038232025 0.09438024 0.17090721 0.19890203 0.25767016 0.16166268 -0.057296567 0.25491962
0.079054266 -0.032216 -0.08397822 -0.0783293 -0.05416624 -0.09610537 0.019778656 0.036261216
0.00014090963 0.08104081 0.035099085 0.07065964 0.21252273 0.113766536 0.100414865 0.011288175
-0.13448624 0.14927453 0.0054711252 -0.0072933906 0.049088277 -0.058800682 0.13452351 0.059390865
-0.030035459 -0.03391253 0.14928982 -0.04947905 -0.039065655 -0.039059203 -0.04590961 -0.005801149
-0.04923201 0.027892672 0.03022357 -0.08619561 -0.064407766 -0.009969506 0.014531489 0.0069841295
-0.043610238 0.18348883 0.25319377 0.32246083 0.06963711 0.033178017 -0.06654241 -0.09593527
-0.029609786 -0.025341421 -0.004583732 -0.027059004 0.0038042192 -0.009237849 -0.12561463 0.00035742056
-0.067418665 -0.08208177 -0.022591557 -0.06456534 0.0006538566 0.06866395 0.021430701 -0.04912327
0.01729724 -0.0015112918 0.11807435 -0.13041317 -0.028723942 -0.035524003 0.1411672 -0.24825953
0.112029366 0.16009606 -0.04953498 0.12156995 -0.07127585 0.18469918 0.11530803 0.07710922
-0.07287932 0.149909 0.18603331 -0.006339073 0.04210218 -0.0018764323 0.0081134755 0.048797537
0.03677377 0.10628614 0.07512665 0.021872312 0.005125893 0.07495977 0.05926228 0.09774503
00000000: 3183 96bc 3713 643d 7b21 a1bd 4c26 b7bd
00000010: e57c 843d dd53 7f3d c3f9 0d3d 6dea 62bd
00000020: 69a7 ef3b 94b5 e7bd 61a6 f5bd 0f02 12be
00000030: 0fa5 15ba 5978 58bd 803a c1b9 66da 46bd
00000040: 00c1 933d 5bd1 123d 20d4 6dbd b02c 99be
00000050: 5a67 c1bd d5c3 0dbe a05e a7be 6cbb e0bd
00000060: 6e39 56bd ee44 6bbd 4e0d cfbd f217 83bd
00000070: 2ec7 b13d 57f2 813e 739e ab3d 928f 973b
00000080: 3c8f b23b 43a0 66ba bae3 96bc 6eac bbbd
00000090: 40ff 61bd a6d5 c83c 5ddc d0ba 46ea 993d
000000a0: 4dbc a4bd 2eb6 5ebd 9731 ffbd 3c15 083c
000000b0: d1d8 1bbc a917 b2bc 8a13 383e 4aa2 093e
000000c0: 9ac0 833d d3b5 b73e 6fd6 2b3e 41aa 163e
000000d0: 92eb b33e 9386 af3e 3d26 f5bd 5308 16be
000000e0: afa5 00be 00c0 a3be 1a51 20be 995c afbc
000000f0: 8afc 34be 85b9 50bc 8e44 1f3e 3499 08bd
00000100: be3d a0bd 532e 9dbd 8f7c 98bc aba9 663d
00000110: daf2 483d 5325 d73c 3c08 0a3d 863b 3e3d
00000120: 8000 92bc 3edc 67bc bc0e fbbd b0d8 9b3d
00000130: bc50 2b3d aa67 003e d604 8cbd d2d4 3bbd
00000140: e105 173e 5897 bdbd 5b41 af3d 54a7 593d
00000150: 5f11 9b3d 8b07 463d cc4e e63c 7bc9 dd3d
00000160: 0914 3c3c 0b6d 97bb e2e8 983d fca2 ab3d
00000170: 8a0a cd3d ef25 b63d 5cc3 b0bd 4f7c b6bc
00000180: aa67 b3bb dac2 a13c a783 483d 7307 b9bd
00000190: ec4e 9dbd f07d 8bbd 162b 49be ff0a 49be
000001a0: 0126 41bd 763e 1bbe 7899 f9bd 65fe 8cbd
000001b0: a8d9 1f3c c1d5 ab3d 1253 6e3d 4648 133e
000001c0: c844 cb3e 5566 983e be26 ea3d d488 0f3f
000001d0: e9a4 263e bbb6 14bd 10ea 353e c89b b33d
000001e0: f014 003e 447d 173b 26a6 553c 365e 90bd
000001f0: 2121 483d f14e e4bc 3ed8 933d 005e 61bd
00000200: c22c 98bd c181 4b3e 518a 8dbc ead2 583c
00000210: 19d1 063e cfc4 b23d bb8d 833d 0346 32bc
00000220: af7f 323e f46c 40bd ae11 153d b09d 11bc
00000230: 7c9c ebbc cf3d dabd 3b9b dd3c e877 07bd
00000240: 3bf2 3fbd aaf1 79bd ade9 ae3d 69b1 1e3d
00000250: 4f5a 393d 5247 653d 506b 393d 9017 c1ba
00000260: 2f99 1cbd 6d4a c13d 4d02 2f3e f9ac 4b3e
00000270: 58ed 833e e78a 253e ceaf 6abd d384 823e
00000280: 34e7 a13d edf4 03bd c6fc abbd 1d6b a0bd
00000290: 6bdd 5dbd e4d2 c4bd d906 a23c a486 143d
000002a0: 24c1 1339 b9f8 a53d 0fc4 0f3d 00b6 903d
000002b0: 8f9f 593e 6efe e83d 4fa6 cd3d 0af2 383c
000002c0: c3b6 09be 6cdb 183e 2047 b33b 65fd eebb
000002d0: ca10 493d fcd8 70bd 88c0 093e d643 733d
000002e0: ec0c f6bc dde7 0abd 6edf 183e 8baa 4abd
000002f0: 4f03 20bd 8bfc 1fbd b70b 3cbd 9117 bebb
00000300: 81a7 49bd 2c7f e43c 6c97 f73c 5387 b0bd
00000310: 38e8 83bd 2457 23bc 7c15 6e3c 20db e43b
00000320: a6a0 32bd 7fe4 3b3e 9da2 813e 9619 a53e
00000330: e79d 8e3d ace5 073d 6347 88bd b679 c4bd
00000340: 3990 f2bc d098 cfbc 2233 96bb d8aa ddbc
00000350: 3550 793b 595a 17bc 1fa1 00be 2d64 bb39
00000360: cc12 8abd 7d1a a8bd ee11 b9bc d53a 84bd
00000370: 9367 2b3a af9f 8c3d 708f af3c 7b35 49bd
00000380: f1b2 8d3c 8a16 c6ba f7d0 f13d 088b 05be
00000390: 794e ebbc 9e81 11bd 228e 103e bf37 7ebe
000003a0: a76f e53d 39f0 233e 31e5 4abd aaf9 f83d
000003b0: 13f9 91bd c821 3d3e 9e26 ec3d 70eb 9d3d
000003c0: c141 95bd bf81 193e 847f 3e3e 00b8 cfbb
000003d0: 5673 2c3d 9ff2 f5ba 62ee 043c eddf 473d
000003e0: 18a0 163d 8cac d93d 00dc 993d 902d b33c
000003f0: 1bf7 a73b 8284 993d 01bd 723d 8c2e c83d

conv5.bias f4 [96]
0.916832 -0.059155162 0.033492148 0.09876571 -0.052691713 -0.03269455 -0.08567639 0.10452171
0.16327162 -0.10381297 -0.055410292 0.013341344 -0.02901803 -0.08910773 0.099019125 -0.008708165
-0.079782836 -0.10005702 -0.19442886 -0.006118381 -0.01715474 -0.1792182 0.1596568 0.11131625
-0.1433495 -0.049277768 -0.03351191 -0.04680926 -0.077654734 -0.008760247 0.15635145 -0.2640451
-0.014348658 -0.10490124 -0.002371841 -0.14243928 0.098024555 0.00090742786 -0.122870974 3.8104827e-05
0.021367913 0.2506493 -0.0292896 0.0703297 -0.102699906 -0.14286038 -0.09448614 0.039677255
-0.26398692 -0.06766484 -0.13903278 0.027879603 -0.0066880756 0.15094219 -0.05258541 -0.09265564
0.10388641 -0.06445603 -0.18880351 0.022328457 0.1545209 -0.021686288 -0.032952856 0.13029899
-0.097574845 -0.18986414 0.20139287 0.1074278 0.07683929 0.005602727 0.03805608 0.045388
-0.12943713 0.02314389 -0.094085224 0.025637945 0.043369684 0.117597714 0.073695906 -0.09139226
-0.11279248 0.03728878 0.10683218 0.05372084 0.2709578 0.18749702 0.19039957 -0.07154287
0.01106517 -0.023937479 -0.13093345 -0.19045763 -0.13144173 0.026919749 0.12280529 -0.0207564
00000000: 80b5 6a3f af4c 72bd 102f 093d ad45 ca3d
00000010: 44d3 57bd b8ea 05bd 1a77 afbd 7a0f d63d
00000020: ad30 273e e59b d4bd e7f5 62bd a795 5a3c
00000030: 38b7 edbc 1d7e b6bd 8aca ca3d b1ac 0ebc
00000040: 2f65 a3bd b2ea ccbd 5c18 47be b37c c8bb
00000050: 1988 8cbc fa84 37be 127d 233e c6f9 e33d
00000060: 36ca 12be 7cd7 49bd c943 09bd 11bb 3fbd
00000070: 7209 9fbd 2487 0fbc 981a 203e eb30 87be
00000080: a216 6bbc 76d6 d6bd e470 1bbb 9adb 11be
00000090: 19c1 c83d 74e0 6d3a c7a3 fbbd bfd2 1f38
000000a0: c30b af3c 1b55 803e bef0 efbc 0509 903d
000000b0: 5454 d2bd fe49 12be f381 c1bd 9e84 223d
000000c0: 4b29 87be dd93 8abd 9c5e 0ebe c463 e43c
000000d0: a527 dbbb 9790 1a3e cd63 57bd 3dc2 bdbd
000000e0: 66c2 d43d 8601 84bd b555 41be 2bea b63c
000000f0: ba3a 1e3e 71a7 b1bc 93f9 06bd 196d 053e
00000100: 52d5 c7bd bf6b 42be ef39 4e3e 1b03 dc3d
00000110: eb5d 9d3d 1597 b73b b1e0 1b3d c4e8 393d
00000120: 2b8b 04be 4198 bd3c c1af c0bd ab06 d23c
00000130: 69a4 313d 12d7 f03d e1ed 963d dd2b bbbd
00000140: beff e6bd 1fbc 183d d4ca da3d 620a 5c3d
00000150: fbba 8a3e 38ff 3f3e 1bf8 423e 1185 92bd
00000160: b04a 353c 8818 c4bc 6b13 06be 5307 43be
00000170: a998 06be ce86 dc3c 5781 fb3d 5309 aabc

res1.conv1.weight f4 [6, 6, 3, 3]
0.8299656 -0.019551838 0.33268723 -0.067244835 -0.7397523 -0.49304223 0.2672655 -0.49416605
-0.18728942 -0.26078832 -0.19479027 -0.1941683 0.03129878 0.087419 -0.021687545 -0.35089076
-0.015070091 -0.21193644 0.3372043 0.03738868 0.22458716 0.0243951 -0.30702418 -0.33554584
0.3446703 -0.20929578 -0.21249695 0.15691853 -0.024790598 -0.16077359 0.08857689 0.13491963
0.0684565 0.042372424 -0.15806542 -0.07895379 -0.083627924 0.18927951 0.02326164 -0.06474312
-0.04899009 0.04163399 0.013892702 0.1872235 -0.032291975 0.32653493 -0.07440824 0.17302199
0.02722457 -0.554962 -0.35168362 0.30158922 -0.41972056 0.013362831 -0.25436878 -0.17834672
-0.21901499 0.08479745 0.010871109 -0.023049908 -0.21284086 0.006304907 -0.18006413 -0.4723522
-0.73113513 -0.50510424 -0.7196995 -1.0024792 -0.8326043 0.096080154 -0.28902 -0.1230245
-0.116908714 -0.033214867 -0.012900234 -0.16753697 0.004794711 -0.0936087 -0.079209596 -0.3424316
-0.23943786 0.13017179 0.1403792 0.20211792 0.06439553 0.062484026 0.15790577 0.024524199
-0.24893355 -0.03535136 -0.13963276 -0.0051342845 -0.27217767 -0.011836179 -0.10172948 -0.20838176
-0.3582152 -0.16593583 -0.1598472 -0.08956414 -0.14651711 0.01789155 0.008253574 -0.10240082
0.0072753746 -0.047564156 -0.0268861 0.031151397 0.039996166 0.33213606 -0.034178067 0.01996835
0.33635637 -0.49273354 -0.058514114 0.18765503 -0.21813169 0.07154897 0.47586033 -0.051558483
0.5561259 0.80219954 0.86825466 0.01694447 0.22944766 0.20565866 -0.19170836 0.07298295
-0.10519235 -0.035668414 0.50327635 0.20249417 -0.2032711 0.32511237 -0.052136935 -0.1144808
-0.25578508 -0.06603564 0.12714429 -0.3885339 0.20038651 0.011081378 -0.49776876 -0.25208262
0.17832 0.46111834 -0.25062627 0.112841144 0.36169967 -0.017749503 -0.003144943 0.12583286
-0.29254925 -0.33594155 -0.046108022 0.525219 -0.3737385 -0.02293385 0.35595062 0.10628444
0.5545557 0.86710435 0.04706107 0.12223641 0.2190973 -0.25597206 -0.14713748 0.17348197
-0.32404122 -0.41777042 0.17554949 -0.016672313 0.2470607 0.37766087 -0.21563156 -0.15371141
0.3383537 0.33985662 0.1090055 0.0284184 0.2860986 -0.14845428 0.12070198 0.18021075
-0.25380856 0.16933276 0.047949385 -0.052081265 0.3087168 -0.0072764573 0.015792368 0.3421934
-0.19301614 -0.1491302 0.18493685 0.037403647 0.15064348 0.19576086 -0.27844727 0.088315316
-0.13421924 -0.18498287 0.358031 0.21519792 -0.3328446 0.15404882 -0.03876114 -0.0035650658
0.11942802 0.4278429 -0.3529256 -0.081123196 0.14610748 0.13516037 0.18477392 0.51250064
0.1627375 0.29557738 0.38761458 0.77155375 0.43317822 0.26665166 0.112862766 -0.118185714
-0.09555559 0.31238973 0.12007892 0.060198843 0.1593546 0.15778111 0.1358345 0.27330577
-0.017337358 0.058346614 0.009262632 0.08263587 -0.021595262 0.41489834 0.15150395 0.10796059
0.1048631 0.106494665 -0.09659637 0.12777735 -0.08185525 -0.036043406 0.2941203 -0.14370905
-0.024309201 0.38590646 0.08299342 0.055635825 0.13981985 -0.2657765 -0.271201 -0.20396698
00000000: a078 543f 2d2b a0bc fb55 aa3e a9b7 89bd
00000010: 6860 3dbf 0870 fcbe 06d7 883e 5503 fdbe
00000020: ccc8 3fbe 0c86 85be 1a77 47be 0ed4 46be
00000030: 2633 003d bc08 b33d 14aa b1bc f4a7 b3be
00000040: 8be8 76bc de05 59be 0ba6 ac3e df24 193d
00000050: 2dfa 653e 3cd8 c73c 4632 9dbe aacc abbe
00000060: a078 b03e a251 56be cd98 59be 40af 203e
00000070: a715 cbbc d5a1 24be cd67 b53d 5f28 0a3e
00000080: ec32 8c3d b58e 2d3d e7db 21be 86b2 a1bd
00000090: 1e45 abbd 7dd2 413e 328f be3c 0a98 84bd
000000a0: d5a9 48bd 6788 2a3d 379e 633c 84b7 3f3e
000000b0: 9744 04bd 962f a73e 5963 98bd ad2c 313e
000000c0: 1006 df3c fd11 0ebf e00f b4be e769 9a3e
000000d0: 9de5 d6be c7ef 5a3c a03c 82be 86a0 36be
000000e0: 7745 60be 49aa ad3d bc1c 323c 29d3 bcbc
000000f0: f4f2 59be 6599 ce3b bb62 38be 26d8 f1be
00000100: ac2b 3bbf 834e 01bf 3a3e 38bf 3d51 80bf
00000110: 8e25 55bf acc5 c43d 6efa 93be 45f4 fbbd
00000120: d66d efbd 500c 08bd 815b 53bc d08e 2bbe
00000130: f31c 9d3b ebb5 bfbd a438 a2bd 3253 afbe
00000140: 332f 75be c14b 053e 91bf 0f3e 00f8 4e3e
00000150: cee1 833d 40ef 7f3d 0db2 213e f9e6 c83c
00000160: 70e8 7ebe 96cc 10bd e4fb 0ebe 803d a8bb
00000170: df5a 8bbe 88ec 41bc 8c57 d0bd 0762 55be
00000180: fc67 b7be 15eb 29be fcae 23be 676d b7bd
00000190: 9508 16be 4d91 923c 003a 073c 85b7 d1bd
000001a0: 4466 ee3b a2d2 42bd 3d40 dcbc 3731 ff3c
000001b0: 05d3 233d bd0d aa3e 4dfe 0bbd aa94 a33c
000001c0: e736 ac3e 9247 fcbe 7fac 6fbd a428 403e
000001d0: ea5d 5fbe 4488 923d f7a3 f33e fd2e 53bd
000001e0: 445e 0e3f f35c 4d3f f045 5e3f 21cf 8a3c
000001f0: 54f4 6a3e 2f98 523e 324f 44be 1678 953d
00000200: 166f d7bd 0b19 12bd b8d6 003f a25a 4f3e
00000210: 4d26 50be 2175 a63e 8a8d 55bd e974 eabd
00000220: 43f6 82be b23d 87bd 1d32 023e eaed c6be
00000230: 1f32 4d3e ab8e 353c 8cdb febe f910 81be
00000240: 8599 363e b417 ec3e 1652 80be 4219 e73d
00000250: b330 b93e 6867 91bc 631b 4ebb 54da 003e
00000260: 04c9 95be 8800 acbe c4db 3cbd c174 063f
00000270: a75a bfbe c5df bbbc 293f b63e a8ab d93d
00000280: 5df7 0d3f 8dfa 5d3f 1cc3 403d 1557 fa3d
00000290: 0b5b 603e c50e 83be 35ab 16be 42a5 313e
000002a0: bbe8 a5be 01e6 d5be 3fc3 333e 6094 88bc
000002b0: 7bfd 7c3e c45c c13e 85ce 5cbe 8666 1dbe
000002c0: b23c ad3e b001 ae3e 473e df3d b4cd e83c
000002d0: 847b 923e 6604 18be 9a32 f73d 2b89 383e
000002e0: 32f3 81be 9165 2d3e 9366 443d 2a53 55bd
000002f0: 2110 9e3e 596f eebb ff5e 813c f933 af3e
00000300: 06a6 45be 96b5 18be 1660 3d3e 9134 193d
00000310: 4942 1a3e 8975 483e a490 8ebe a9de b43d
00000320: c570 09be 266c 3dbe d74f b73e d85c 5c3e
00000330: 9b6a aabe f9be 1d3e 00c4 1ebd e1a3 69bb
00000340: ae96 f43d 390e db3e aab2 b4be eb23 a6bd
00000350: 339d 153e 7b67 0a3e 6035 3d3e 3e33 033f
00000360: a9a4 263e eb55 973e 6b75 c63e 8c84 453f
00000370: 89c9 dd3e 9186 883e 9824 e73d 5a0b f2bd
00000380: a6b2 c3bd 8cf1 9f3e f0eb f53d 1093 763d
00000390: da2d 233e 5f91 213e 3318 0b3e bcee 8b3e
000003a0: 1307 8ebc dcfc 6e3d 4bc2 173c ff3c a93d
000003b0: 8ce8 b0bc 8e6d d43e da23 1b3e 711a dd3d
000003c0: 77c2 d63d e019 da3d 51d4 c5bd 11d8 023e
000003d0: baa3 a7bd 40a2 13bd f096 963e 7728 13be
000003e0: 1724 c7bc 8895 c53e 74f8 a93d 64e2 633d
000003f0: ef2c 0f3e db13 88be dcda 8abe b8dc 50be

res1.conv1.bias f4 [6]
-0.012180239 -0.01508368 0.010844367 0.13952167 -0.15718435 0.09084392
00000000: a08f 47bc 8a21 77bc 92ac 313c c5de 0e3e
00000010: eff4 20be 610c ba3d

res1.conv2.weight f4 [6, 6, 3, 3]
0.18295054 0.19172232 -0.50750154 0.21518122 0.29653656 -0.369372 -0.48718864 -0.17306197
-0.8117934 -0.24471493 0.028388122 -0.17141666 0.16860731 0.67777216 0.26344797 -0.117684685
0.60867435 0.4618153 0.35929486 -0.011080506 0.021096747 -0.15426597 -0.5953021 -0.5490236
-0.088222995 -0.3001423 -0.14939532 0.2813103 0.039901566 0.055790883 -0.024614792 -0.42818874
-0.3306575 0.087541886 0.050857108 -0.020235594 0.06974959 0.16697589 0.05910483 0.07264045
0.12862879 0.11619385 0.108500056 0.024963548 0.028174495 0.18962131 -0.27522555 0.02842031
-0.12562548 -0.75980306 -0.5861808 0.20722342 -0.4855917 -0.38639563 -0.20459183 0.22355187
0.06066579 0.18953423 0.3588165 0.3309152 -0.0363521 0.49341407 0.19948046 -0.4056856
-0.07987513 -0.4145561 0.13353044 0.6564682 0.40856072 -0.23971824 0.41133645 0.118162654
0.16697328 0.36616614 0.27846706 -0.14313869 0.3813477 0.14424509 -0.16428523 -0.10554446
-0.120237984 0.032200366 -0.048224263 -0.15570824 -0.25911346 0.096424155 0.4903862 -0.3388125
-0.04463431 0.39431405 0.3008114 0.4659464 0.13085786 0.2371811 0.32959163 0.20821518
0.028982708 -0.067763194 -0.28153425 0.27391437 0.047296662 0.065313466 -0.097114675 -0.7079481
-0.062713265 0.3274606 -0.04702167 0.12443213 -0.0027250368 -0.2852769 -0.35944366 0.07810713
0.29353854 0.071539395 -0.12831263 0.30189666 -0.0016484583 -0.04604917 0.1258441 0.046965823
0.13630076 0.056631792 0.008770491 -0.17420149 0.09505506 -0.15460475 0.039927367 -0.50337625
-0.33186767 0.05899312 -0.6974203 -0.3920479 0.37262398 0.08631262 0.17893276 -0.15667532
-0.11737418 -0.0691603 -0.09023886 -0.21847288 0.04690696 0.12879264 0.097696654 0.35295016
0.01539011 -0.08101304 -0.079876214 0.089874096 -0.14490826 -0.06046158 -0.037714697 -0.12668318
-0.047639474 0.06931241 -0.14757755 -0.1349088 -0.070619196 -0.5572259 -0.1644886 0.5343129
0.15143268 0.32341734 0.13561174 0.3262721 -0.5813162 0.26495588 0.24570654 -0.5090804
-0.56713104 -0.5246397 -0.2862849 -0.060731374 0.0381719 0.02062896 -0.11297974 0.054699663
0.08696412 0.004554394 0.2579527 0.17941655 -0.15187602 0.094970465 0.16579679 -0.08238979
0.09800622 0.2384889 -0.21160775 0.07047135 0.3604736 -0.2620755 -0.0794466 -0.12252946
-0.34070238 -0.03917174 0.0889424 -0.38328093 0.02637775 -0.0825861 0.39722875 0.42604017
0.22234796 0.4435606 -0.025535865 -0.13216479 0.22960094 0.17127833 -0.058233153 -0.26426765
-0.35998395 -0.006161492 0.095432244 -0.08126212 -0.10238979 0.048431892 0.18664141 0.13766055
0.23486294 0.21930744 -0.18972081 0.06662946 0.25253418 -0.0774113 -0.20166798 0.17551304
-0.25002953 0.14942579 0.110430434 -0.11504239 -0.0040099625 0.06887497 -0.09691806 -0.0153806675
0.026499147 -0.27519104 -0.11403812 -0.5298054 -0.48670727 -0.56642693 -1.0446945 -0.86927044
-0.14816709 -0.6224098 -0.26460385 0.28870386 0.14510891 0.1511223 -0.15581322 -0.3207387
-0.043902777 0.31477448 0.13396892 0.26601258 0.12526484 0.027018568 0.052866135 0.29630795
00000000: 6357 3b3e db52 443e 9feb 01bf 7758 5c3e
00000010: a4d3 973e 541e bdbe ca70 f9be 2837 31be
00000020: b1d1 4fbf 8d96 7abe 358e e83c d987 2fbe
00000030: 65a7 2c3e 7a82 2d3f a7e2 863e ab04 f1bd
00000040: 15d2 1b3f 0e73 ec3e 7ff5 b73e 038b 35bc
00000050: 16d3 ac3c e6f7 1dbe b865 18bf d08c 0cbf
00000060: 42ae b4bd 40ac 99be 16fb 18be e707 903e
00000070: d36f 233d fb84 643d f6a4 c9bc 8e3b dbbe
00000080: f14b a9be 2949 b33d 8b4f 503d 1ec5 a5bc
00000090: dfd8 8e3d bafb 2a3e e817 723d 84c4 943d
000000a0: 44b7 033e 0bf7 ed3d 4735 de3d 5b80 cc3c
000000b0: 33ce e63c 172c 423e 5dea 8cbe b6d1 e83c
000000c0: f7a3 00be 7482 42bf f20f 16bf 6032 543e
000000d0: 7a9f f8be a6d5 c5be 8580 51be c8ea 643e
000000e0: b17c 783d 4315 423e ccb6 b73e b86d a93e
000000f0: f1e5 14bd c5a0 fc3e 9b44 4c3e 06b6 cfbe
00000100: 9295 a3bd b240 d4be 34bc 083e 4d0e 283f
00000110: df2e d13e b378 75be b19a d23e 43ff f13d
00000120: 0bfb 2a3e 217a bb3e 3c93 8e3e f392 12be
00000130: 0140 c33e fcb4 133e 633a 28be b227 d8bd
00000140: 553f f6bd 88e4 033d ce86 45bd fb71 1fbe
00000150: 85aa 84be 077a c53d e613 fb3e d578 adbe
00000160: 77d2 36bd 88e3 c93e f403 9a3e 8790 ee3e
00000170: 9aff 053e 9adf 723e 3cc0 a83e 5c36 553e
00000180: 256d ed3c 6ec7 8abd 4225 90be 813e 8c3e
00000190: 25ba 413d 11c3 853d 0fe4 c6bd 163c 35bf
000001a0: d06f 80bd eaa8 a73e cb99 40bd 46d6 fe3d
000001b0: 8896 32bb d00f 92be 0009 b8be a2f6 9f3d
000001c0: af4a 963e 3f83 923d 6364 03be 3392 9a3e
000001d0: 1511 d8ba 0e9e 3cbd 47dd 003e 3c5f 403d
000001e0: 6d92 0b3e bdf6 673d 1bb2 0f3c e061 32be
000001f0: 3aac c23d b550 1ebe e18a 233d 44dd 00bf
00000200: 8fea a9be c5a2 713d 238a 32bf 81ba c8be
00000210: 92c8 be3e acc4 b03d 263a 373e 7f6f 20be
00000220: e061 f0bd eaa3 8dbd 27cf b8bd 5bb7 5fbe
00000230: 8321 403d 38e2 033e 2f15 c83d e2b5 b43e
00000240: cd26 7c3c 2aea a5bd 2496 a3bd e90f b83d
00000250: d562 14be 90a6 77bd ba7a 1abd 3cb9 01be
00000260: 9c21 43bd aaf3 8d3d 921e 17be 8825 0abe
00000270: cca0 90bd 5ba6 0ebf b36f 28be bbc8 083f
00000280: 2b11 1b3e f596 a53e cedd 0a3e 230d a73e
00000290: 23d1 14bf 4ca8 873e 7f9a 7b3e 1853 02bf
000002a0: 802f 11bf ca4e 06bf ef93 92be 76c1 78bd
000002b0: 235a 1c3d 11fe a83c ec61 e7bd c10c 603d
000002c0: 3f1a b23d 073d 953b 6012 843e f9b8 373e
000002d0: 6385 1bbe e07f c23d a2c6 293e fabb a8bd
000002e0: 7cb7 c83d 6f36 743e b4af 58be 4853 903d
000002f0: ff8f b83e c32e 86be e6b4 a2bd baf0 fabd
00000300: 8b70 aebe 8c72 20bd 6f27 b63d 663d c4be
00000310: 2716 d83c e722 a9bd 9161 cb3e f021 da3e
00000320: 2faf 633e 601a e33e 9730 d1bc 3556 07be
00000330: 821c 6b3e 9663 2f3e e385 6ebd 174e 87be
00000340: d14f b8be 57e6 c9bb fb71 c33d c16c a6bd
00000350: bdb1 d1bd 8560 463d ed1e 3f3e e3f6 0c3e
00000360: e97f 703e 2192 603e 2c46 42be 0775 883d
00000370: 294c 813e d189 9ebd 0d82 4ebe b1b9 333e
00000380: df03 80be 1303 193e 5a29 e23d 589b ebbd
00000390: 0166 83bb 520e 8d3d fa7c c6bd 32ff 7bbc
000003a0: bd14 d93c d7e5 8cbe d18c e9bd 54a1 07bf
000003b0: b231 f9be 5b01 11bf 8db8 85bf 8288 5ebf
000003c0: 1db9 17be 4056 1fbf 287a 87be fed0 933e
000003d0: 6e97 143e cebf 1a3e 808d 1fbe dd37 a4be
000003e0: 66d3 33bd 1f2a a13e 262f 093e cd32 883e
000003f0: 6d45 003e 0b56 dd3c 298a 583d adb5 973e

res1.conv2.bias f4 [6]
0.102759354 0.0004907161 0.077336706 0.06896699 0.11657508 0.1192391
00000000: 7f73 d23d 66a3 003a b562 9e3d 913e 8d3d
00000010: eabe ee3d a133 f43d

res1.batch_norm1.weight f4 [6]
0.70293415 0.93024004 1.2699151 0.8958811 0.85179543 1.1192813
00000000: 7ef3 333f 3624 6e3f 948c a23f 7758 653f
00000010: 440f 5a3f 9c44 8f3f

res1.batch_norm1.bias f4 [6]
1.0002097 0.17173314 -0.70382404 -0.06462155 -0.062123965 0.6864341
00000000: df06 803f d0da 2f3e d02d 34bf 4e58 84bd
00000010: b375 7ebd 25ba 2f3f

res1.batch_norm1.running_mean f4 [6]
-1.4020576 -6.12709 3.268707 0.53107387 2.5804489 1.9045008
00000000: a076 b3bf 1f11 c4c0 7f32 5140 75f4 073f
00000010: 1326 2540 afc6 f33f

res1.batch_norm1.running_var f4 [6]
1.9721065 18.74385 10.256886 2.9890983 8.988813 7.3901935
00000000: fc6d fc3f 68f3 9541 341c 2441 634d 3f40
00000010: 2ed2 0f41 777c ec40

res1.batch_norm2.weight f4 [6]
0.58183044 0.27137858 0.21008839 0.5825462 0.5155363 0.56298983
00000000: d7f2 143f 22f2 8a3e 6921 573e bf21 153f
00000010: 30fa 033f 1a20 103f

res1.batch_norm2.bias f4 [6]
0.32748502 -0.39489263 0.16380608 -1.0502896 0.042336445 -0.11353975
00000000: 1eac a73e 5e2f cabe c8bc 273e e46f 86bf
00000010: fb68 2d3d 8787 e8bd

res1.batch_norm2.running_mean f4 [6]
-2.520159 2.553983 -0.46399143 -1.1572157 -1.637934 1.8276511
00000000: 494a 21c0 7574 2340 4990 edbe a51f 94bf
00000010: d2a7 d1bf 79f0 e93f

res1.batch_norm2.running_var f4 [6]
11.840133 1.448772 1.5700102 2.3477616 15.230892 5.6890645
00000000: 2f71 3d41 5c71 b93f 18f6 c83f ba41 1640
00000010: bcb1 7341 d10c b640
