autoencoder/checkpoints/tightrope_encoder_ep.pth (torch, 467009 bytes, 58 tensors)

conv1.weight f4 [6, 3, 3, 3]
-0.05204176 -0.09668106 -0.06870466 -0.055616096 -0.10636597 -0.2056062 -0.04447669 -0.27559987
-0.028787043 -0.09776245 0.06478769 -0.008583814 0.043538895 -0.19044572 -0.1482946 -0.056848913
-0.030156707 -0.14087254 0.12626123 -0.08096518 0.059172124 0.020606382 -0.19871451 -0.013219768
-0.037906382 0.019958604 -0.03077029 -0.17221372 0.19736932 -0.098520845 0.00577633 0.38580516
0.2545078 -0.08570136 0.17478713 -0.036805447 -0.029842457 -0.070569925 0.15078755 0.055684205
0.21174644 0.11286888 0.05157088 0.08738242 0.1430463 0.11849142 0.067547135 0.038426366
-0.06933348 0.023193832 0.1402154 0.1535912 0.20666598 0.2582684 0.11667803 0.0029765712
0.09431703 0.28494444 -0.03173731 0.12740302 0.13677031 0.1374091 -0.00055258215 0.035174686
-0.0373624 0.09095868 0.18492787 -0.055955067 -0.07782645 0.11632251 -0.11821263 0.1687901
0.14086394 -0.1925897 -0.050638556 -0.22521253 -0.10715282 0.050531168 0.14140475 -0.12286713
-0.11985708 0.039259944 0.060963355 0.07241731 -0.030200703 0.16535959 -0.12960996 0.02743112
-0.01647226 -0.043030843 -0.029889565 0.0006055689 -0.098209925 -0.028188959 -0.11531484 -0.15106632
-0.14600673 0.005062569 -0.18103534 -0.055865645 -0.12804787 -0.13440397 -0.07264451 -0.019399092
-0.118660465 0.042505782 -0.23509243 -0.15548688 -0.02275117 -0.10925881 -0.014247196 0.12113104
-0.055982634 -0.052996043 -0.14129241 -0.106334984 -0.01932623 0.15876655 -0.03959054 0.014559198
-0.03967727 -0.014766519 0.11940137 -0.015241094 -0.056060247 0.024704091 -0.07446551 -0.08425467
-0.0013650496 -0.09551178 -0.28042245 -0.18253739 0.030211972 -0.06271306 -0.1525776 -0.032332916
-0.0806905 -0.089016415 -0.00090076623 -0.18753503 -0.16475956 -0.10173445 -0.29443166 -0.047841955
0.04704207 0.08907515 0.07495558 0.01671017 -0.14445522 0.06397102 0.031563625 -0.26999405
0.03101768 0.2549815 0.045478426 0.20814946 0.08273556 -0.013351634 0.25580207 -0.009716948
0.07199157 0.023426142
00000000: be29 55bd b800 c6bd 07b5 8cbd b4cd 63bd
00000010: 67d6 d9bd 6f8a 52be 312d 36bd 6d1b 8dbe
00000020: ced2 ebbc ae37 c8bd 69af 843d 20a3 0cbc
00000030: d755 323d 3404 43be 8ada 17be 68da 68bd
00000040: 330b f7bc e440 10be a04a 013e 13d1 a5bd
00000050: 785e 723d b7ce a83c d17b 4bbe ba97 58bc
00000060: b943 1bbd 3a80 a33c fa11 fcbc cb58 30be
00000070: 2f1b 4a3e 4cc5 c9bd 5e47 bd3b 4188 c53e
00000080: d94e 823e 3284 afbd 66fb 323e 4fc1 16bd
00000090: 2b78 f4bc f786 90bd 0d68 1a3e 1f15 643d
000000a0: 0fd4 583e cd27 e73d fd3b 533d 8ef5 b23d
000000b0: bb7a 123e a1ab f23d 2756 8a3d f764 1d3d
000000c0: b6fe 8dbd fe00 be3c a094 0f3e 0347 1d3e
000000d0: 3fa0 533e c13b 843e e4f4 ee3d 9412 433b
000000e0: 4929 c13d 3de4 913e fbfe 01bd f075 023e
000000f0: 840d 0c3e f9b4 0c3e 29db 10ba 5513 103d
00000100: 5109 19bd 8b48 ba3d bb5d 3d3e 2431 65bd
00000110: 7963 9fbd 7f3a ee3d 7719 f2bd 50d7 2c3e
00000120: a33e 103e 3c36 45be 606a 4fbd 1d9e 66be
00000130: f072 dbbd c5f9 4e3d 68cc 103e c3a1 fbbd
00000140: a177 f5bd 09cf 203d b6b4 793d 874f 943d
00000150: 7767 f7bc 0654 293e 79b8 04be 3ab7 e03c
00000160: d5f0 86bc 1c41 30bd f6da f4bc 0abf 1e3a
00000170: 4922 c9bd 88ec e6bc 302a ecbd 21b1 1abe
00000180: ca82 15be e8e3 a53b 5461 39be 60d3 64bd
00000190: fb1e 03be 32a1 09be a5c6 94bd d8ea 9ebc
000001a0: 4204 f3bd 8b1a 2e3d 12bc 70be f437 1fbe
000001b0: a960 babc 15c3 dfbd 126d 69bc 8d13 f83d
000001c0: 0c4e 65bd 6112 59bd f5ae 10be 28c6 d9bd
000001d0: 0b52 9ebc b393 223e b129 22bd b489 6e3c
000001e0: a284 22bd 45ef 71bc b588 f43d c8b5 79bc
000001f0: 6e9f 65bd 3c60 ca3c 6081 98bd b68d acbd
00000200: 77eb b2ba ae9b c3bd 8893 8fbe 15eb 3abe
00000210: 197f f73c b46f 80bd 4d3d 1cbe 856f 04bd
00000220: 1041 a5bd 3d4e b6bd 6621 6cba 2f09 40be
00000230: bbb6 28be 275a d0bd bfbf 96be edf5 43bd
00000240: 30af 403d 086d b63d 5082 993d c4e3 883c
00000250: 12ec 13be 3d03 833d dc48 013d a93c 8abe
00000260: ca18 fe3c ef8c 823e 9647 3a3d 2225 553e
00000270: 4371 a93d d0c0 5abc 7df8 823e d533 1fbc
00000280: 5170 933d 2ee8 bf3c

conv1.bias f4 [6]
0.5000189 0.25136662 -0.21763404 0.29771537 -0.24361545 -0.15948348
00000000: 3d01 003f 20b3 803e 75db 5ebe 266e 983e
00000010: 5476 79be a34f 23be

conv2.weight f4 [12, 6, 3, 3]
0.09413618 -0.055812083 -0.13059019 0.11128395 -0.10329305 -0.0737809 -0.092754945 -0.18509832
-0.23126717 0.12936698 0.062259078 0.09344175 0.050447445 0.06864961 0.04751012 0.15647134
0.16490632 0.12964118 -0.00051399483 -0.22806217 -0.07725773 -0.22041884 -0.3709851 -0.036824077
0.12882298 0.038096644 0.22889276 0.25295344 0.12958491 0.008078339 0.15605226 0.19420473
0.06048345 0.13071986 0.12938401 -0.008506266 0.039037876 -0.04149331 0.14888063 -0.053494833
-0.027353136 0.07620616 0.00947431 -0.019521076 0.015224195 -0.037791315 -0.15790685 -0.24480668
-0.037545092 -0.15198527 -0.42245543 -0.16140428 -0.17749648 -0.25144902 -0.08132999 -0.17730732
0.0048583667 0.07192415 -0.07660819 -0.19067003 0.034759145 -0.15167329 -0.013190911 -0.04726171
-0.1823376 -0.102685116 -0.11009081 0.0506127 -0.003538015 0.04847047 -0.17071587 -0.19134688
0.031673487 0.046539124 0.1080851 -0.06420221 0.10882213 0.05851253 -0.03817458 0.13194281
-0.012810826 -0.19098166 -0.18628739 -0.07989846 0.034476943 0.024729144 0.004543171 -0.094511114
0.04970993 0.014808161 -0.07093392 0.0044891476 -0.14195547 -0.00701048 -0.19515896 -0.08273195
-0.16634063 -0.12680149 -0.17369393 -0.14699267 0.023438284 -0.06760705 -0.056394137 -0.022848185
-0.049790815 -0.14013766 -0.15474372 -0.02285794 0.13003726 0.21258949 0.08710652 0.25334635
0.13273145 0.18087612 0.15073363 0.18262757 0.039268427 -0.071022876 -0.040609576 0.07386027
-0.10614412 -0.09639252 -0.0040387353 -0.03483839 -0.071764894 0.11643301 -0.24200077 0.33165556
0.05514149 -0.37456587 0.18653592 -0.15702918 -0.120075695 0.23560521 -0.15639241 -0.090304695
-0.08953657 -0.04186509 -0.04526465 -0.07853298 -0.08356707 -0.10644662 0.07073246 -0.06612623
-0.12823893 -0.10208381 -0.29976302 -0.07947533 0.04301946 -0.033282723 -0.04528234 -0.055166658
-0.03930164 0.07583439 0.09755933 0.20730317 0.22575885 0.068353646 0.13786909 0.17516333
0.09891457 0.26282632 0.040173687 0.0009038279 0.032304846 -0.060791478 0.06351135 -0.026418254
0.009179041 -0.08132457 -0.082384974 -0.09606208 0.0063285446 -0.02293019 0.0029796984 -0.11119884
0.025835326 -0.036887404 0.07584799 -0.09154215 -0.0097893765 0.0032674 -0.016849853 0.10094459
0.010848758 0.024619814 0.14904101 -0.03377985 -0.038313802 -0.010044587 -0.05430817 -0.14890698
0.013237513 0.017124165 -0.06612062 -0.18427707 -0.0470986 0.023423737 -0.016988993 -0.16520807
-0.20772107 -0.21660352 -0.14118318 -0.0209159 -0.14485285 -0.028451458 -0.1988323 -0.08803596
-0.21967278 -0.15177238 0.08370037 -0.12787004 -0.05030066 -0.020143986 -0.0746885 -0.106170155
-0.09507271 -0.000206937 -0.1731394 -0.2389532 -0.2174334 -0.09981124 0.016071089 0.0033031018
-0.011913666 0.0074826153 -0.042160608 -0.2565711 -0.14879465 0.03034628 0.009438244 -0.071318656
-0.15940887 -0.1798776 -0.14029609 0.12406158 0.08596991 0.0052005355 0.146112 0.029699255
-0.008537678 0.077061534 -0.12007121 -0.13105443 -0.0063208486 -0.19455065 -0.18494242 0.074285224
-0.13453816 -0.09101391 0.012880367 -0.240481 -0.051421873 -0.03370806 -0.08189079 -0.15206218
00000000: 78ca c03d 369b 64bd 6fb9 05be d7e8 e33d
00000010: 4e8b d3bd 711a 97bd 4ef6 bdbd 6a8a 3dbe
00000020: 4dd1 6cbe c778 043e 6003 7f3d 635e bf3d
00000030: fba1 4e3d 2b98 8c3d f999 423d 063a 203e
00000040: 34dd 283e a8c0 043e 9cbd 06ba 2189 69be
00000050: 4d39 9ebd 7ab5 61be c2f1 bdbe d8d4 16bd
00000060: 2cea 033e 3a0b 1c3d dd62 6a3e 1d83 813e
00000070: e8b1 043e 025b 043c 2acc 1f3e 9bdd 463e
00000080: 7ebd 773d 6ddb 053e 3e7d 043e de5d 0bbc
00000090: 2ee6 1f3d e4f4 29bd 2a74 183e 661d 5bbd
000000a0: af13 e0bc fa11 9c3d 233a 1b3c aaea 9fbc
000000b0: e76e 793c 11cb 1abd 55b2 21be 9aae 7abe
000000c0: e2c8 19bd 07a2 1bbe 144c d8be 2a47 25be
000000d0: a3c1 35be edbd 80be 5690 a6bd 0d90 35be
000000e0: ef32 9f3b f84c 933d c1e4 9cbd 013f 43be
000000f0: 9b5f 0e3d 3e50 1bbe b11e 58bc 7f95 41bd
00000100: b5b6 3abe 934c d2bd 4a77 e1bd 434f 4f3d
00000110: 0bde 67bb f988 463d 24d0 2ebe 70f0 43be
00000120: 0fbc 013d cf9f 3e3d b95b dd3d 737c 83bd
00000130: 23de de3d d6aa 6f3d f35c 1cbd 041c 073e
00000140: 80e4 51bc b290 43be 1fc2 3ebe cea1 a3bd
00000150: b237 0d3d c694 ca3c e1de 943b 0b8f c1bd
00000160: a49c 4b3d ee9d 723c ce45 91bd b319 933b
00000170: c65c 11be 2bb8 e5bb c0d7 47be 5e6f a9bd
00000180: 3355 2abe 40d8 01be d2dc 31be 3f85 16be
00000190: a501 c03c 9175 8abd 8afd 66bd 1e2c bbbc
000001a0: 74f1 4bbd 3f80 0fbe 2375 1ebe 9340 bbbc
000001b0: 7d28 053e 0fb1 593e e764 b23d 9db6 813e
000001c0: c1ea 073e 9737 393e eb59 1a3e b902 3b3e
000001d0: eed7 203d 7174 91bd 3a56 26bd 0e44 973d
000001e0: 1762 d9bd 7169 c5bd 5e57 84bb b3b2 0ebd
000001f0: 79f9 92bd 6e74 ee3d 0dcf 77be c2ce a93e
00000200: 0bdc 613d 19c7 bfbe 4603 3f3e 42cc 20be
00000210: 3fea f5bd 7e42 713e 5525 20be abf1 b8bd
00000220: f35e b7bd bb7a 2bbd 6d67 39bd e6d5 a0bd
00000230: 3625 abbd af00 dabd 2edc 903d 306d 87bd
00000240: 1151 03be 5111 d1bd 8a7a 99be f6c3 a2bd
00000250: 2c35 303d 7753 08bd fa79 39bd 6ff6 61bd
00000260: c2fa 20bd 104f 9b3d 30cd c73d 4847 543e
00000270: 542d 673e fffc 8b3d 8e2d 0d3e 045e 333e
00000280: b993 ca3d 2c91 863e 2a8d 243d ddee 6c3a
00000290: 1652 043d 7c00 79bd 3d12 823d 186b d8bc
000002a0: b063 163c 7f8d a6bd 74b9 a8bd 32bc c4bd
000002b0: ae5f cf3b 18d8 bbbc 0b47 433b 38bc e3bd
000002c0: 9ba4 d33c 3f17 17bd 3156 9b3d 737a bbbd
000002d0: 9f63 20bc e021 563b b408 8abc 0abc ce3d
000002e0: fdbe 313c 7eaf c93c 359e 183e bd5c 0abd
000002f0: efee 1cbd 0d92 24bc 3e72 5ebd 127b 18be
00000300: 27e2 583c fa47 8c3c 3f6a 87bd 21b3 3cbe
00000310: 76ea 40bd 23e3 bf3c 802c 8bbc 4e2c 29be
00000320: d5b4 54be 50cd 5dbe 5392 10be d257 abbc
00000330: 4e54 14be 0813 e9bc b29a 4bbe 334c b4bd
00000340: e7f1 60be 386a 1bbe 196b ab3d 5df0 02be
00000350: 1108 4ebd 0005 a5bc 49f6 98bd bd6f d9bd
00000360: 7bb5 c2bd 3afd 58b9 744b 31be 26b0 74be
00000370: dca6 5ebe d669 ccbd 84a7 833c da78 583b
00000380: 8931 43bc ba30 f53b 9ab0 2cbd 4a5d 83be
00000390: a05d 18be c398 f83c dda2 1a3c 840f 92bd
000003a0: 143c 23be d531 38be c7a9 0fbe ff13 fe3d
000003b0: fe10 b03d 4169 aa3b 629e 153e da4b f33c
000003c0: 9ee1 0bbc 70d2 9d3d e5e7 f5bd 2233 06be
000003d0: 1f1f cfbb 4938 47be 8c61 3dbe da22 983d
000003e0: 5fc4 09be 8065 babd 2d08 533c a740 76be
000003f0: be9f 52bd 7611 0abd 5cb6 a7bd 30b6 1bbe

conv2.bias f4 [12]
0.05420831 -0.18296468 0.3789154 -0.19278154 -0.22829074 0.4565383 1.3665029 0.41394427
-0.13251767 -0.1779445 0.013582232 -0.17691848
00000000: 8809 5e3d 185b 3bbe 3301 c23e 8668 45be
00000010: 0cc5 69be 63bf e93e 91e9 ae3f 81f0 d33e
00000020: b6b2 07be 1537 36be 0388 5e3c 1e2a 35be

conv3.weight f4 [24, 12, 3, 3]
0.012008444 0.05096544 0.03797046 0.0034647458 -0.034050252 -0.054983806 0.05165789 -0.124848984
-0.025146147 0.084679626 -0.062155146 0.0784267 0.11289208 -0.2703202 0.25833255 0.063679755
-0.12318578 0.17641358 -0.0876687 -0.026363429 -0.026880763 0.08600998 0.053887233 0.070719816
0.040999208 0.011113566 0.12141334 0.049750604 -0.1911457 0.11736897 -0.10319751 -0.28071466
0.26214167 0.042695813 -0.049354445 0.25236234 -0.19936131 -0.06457252 -0.21916059 0.0053071612
0.35526428 -0.015031078 0.031883057 0.035976566 -0.3489552 0.041524205 0.014012749 0.060288265
0.035021793 -0.1852461 0.03328856 0.028976524 -0.06374962 0.13966967 0.04899048 0.05023144
0.04033085 0.14491947 -0.037628245 0.040596496 0.107002504 -0.038140483 0.0922182 -0.018000808
-0.044619966 0.014349518 -0.044189155 -0.25024036 -0.00243826 0.017859638 -0.10616109 0.13790742
0.020297403 -0.009251969 0.1764142 -0.0004847601 -0.0689765 0.120944545 0.058238804 0.08812604
0.20588046 0.1151962 -0.021979991 -0.063523725 0.0073191947 -0.22283468 -0.04594208 -0.03996092
-0.08624681 0.1973295 -0.05274679 0.044218823 -0.037878405 -0.026297718 0.32282463 -0.11485154
-0.06271472 0.12503955 -0.28004435 0.036317844 -0.14673972 0.2697275 -0.20344126 -0.23794499
0.119636044 -0.004863279 -0.11904039 0.43423507 0.015439739 -0.2210631 -0.34772205 0.054920807
0.071697794 -0.23523468 -0.0077083143 0.10603544 0.061438333 0.019639745 -0.15873002 0.059547324
0.002711714 -0.0075845276 0.1095736 -0.053758513 -0.0048347507 0.015027919 -0.08996879 0.046513166
0.06643494 -0.0025827535 -0.048387054 -0.09056097 -0.08220967 -0.035205428 -0.08020088 0.04794425
0.009358315 -0.06371825 -0.025143012 0.013939609 -0.021536151 0.09240096 0.002408719 -0.17374307
-0.010569999 0.14073032 0.21991046 -0.00033188413 -0.112762176 -0.036984902 0.13528629 0.010202227
0.10659434 -0.044942353 -0.091266096 -0.1384707 0.009015039 -0.0005486214 -0.114928 -0.033219665
-0.06515025 -0.04913395 0.041946296 0.057423208 0.03610747 -0.06096467 -0.07205705 -0.06140202
-0.058872737 -0.009295293 0.0069510373 -0.0057512596 0.039636537 0.106651515 0.058762915 -0.0006104535
0.08809188 -0.04917558 0.0627154 0.0068935 0.0021595268 0.27127263 0.25526 0.13420661
0.21106856 0.261688 -0.006558163 0.15489943 0.10730828 -0.10290736 -0.28721374 -0.22178347
-0.14974894 -0.17353395 -0.12802331 0.24466015 0.23949908 0.024441296 0.07525891 0.2942924
0.3682241 -0.13535284 -0.20759419 -0.13409698 0.050790288 -0.055074304 -0.09929575 0.076640934
-0.072885595 -0.04015893 0.093516774 0.2773893 0.136861 0.07793026 0.15452948 0.12642984
-0.0604134 -0.07092236 -0.0644711 0.032682516 -0.032162614 -0.08045184 0.03456239 0.005835018
0.041772716 -0.016102111 -0.051592045 -0.08565227 -0.19202188 -0.04281669 0.062273398 -0.15518647
-0.13972044 0.0018713234 0.043308947 -0.045525674 -0.12012088 0.11073576 0.010306515 0.010583245
-0.058408692 -0.05111406 -0.095630445 0.054086726 -0.11307621 -0.027679604 0.089603744 0.25783178
0.11667245 -0.16788317 -0.033793356 0.008203198 0.12119796 -0.07378625 -0.06325658 -0.10561529
00000000: 11bf 443c 23c1 503d ea86 1b3d ca10 633b
00000010: 4778 0bbd b336 61bd 3997 533d d3b0 ffbd
00000020: 4bff cdbc 836c ad3d 6596 7ebd 2d9e a03d
00000030: f633 e73d 6967 8abe 2a44 843e 886a 823d
00000040: d448 fcbd c3a5 343e a68b b3bd 1ef8 d7bc
00000050: 0c35 dcbc 0026 b03d dcb8 5c3d 8dd5 903d
00000060: c9ee 273d ad15 363c 8fa7 f83d 4ac7 4b3d
00000070: b3bb 43be 245f f03d 3759 d3bd d5b9 8fbe
00000080: 6f37 863e cee1 2e3d e327 4abd a335 813e
00000090: 5f25 4cbe 993e 84bd a26b 60be b2e7 ad3b
000000a0: 33e5 b53e e944 76bc cf97 023d 2a5c 133d
000000b0: 42aa b2be 4915 2a3d bb95 653c d4f0 763d
000000c0: 0373 0f3d 27b1 3dbe 9659 083d 2d60 ed3c
000000d0: 298f 82bd 9105 0f3e 3eaa 483d 7cbf 4d3d
000000e0: f631 253d c565 143e 1320 1abd 8348 263d
000000f0: 2124 db3d 3239 1cbd e5dc bc3d 6e76 93bc
00000100: 6dc3 36bd 3e1a 6b3c b0ff 34bd 811f 80be
00000110: 37cb 1fbb 604e 923c fc6a d9bd 9a37 0d3e
00000120: bd46 a63c 9295 17bc eda5 343e 6627 feb9
00000130: 8d43 8dbd c6b1 f73d d08b 6e3d 6d7b b43d
00000140: 54d2 523e fceb eb3d 620f b4bc ba18 82bd
00000150: dbd5 ef3b c62e 64be c32d 3cbd 10ae 23bd
00000160: 2ba2 b0bd bf10 4a3e 050d 58bd cc1e 353d
00000170: 6326 1bbd 506e d7bc 4549 a53e 4937 ebbd
00000180: 9370 80bd 5e0a 003e f961 8fbe 05c2 143d
00000190: f042 16be b919 8a3e e852 50be daa7 73be
000001a0: be03 f53d 245c 9fbb 73cb f3bd 0f54 de3e
000001b0: f6f6 7c3c 5e5e 62be a008 b2be a4f4 603d
000001c0: 4bd6 923d 5ce1 70be 0796 fcbb 1c29 d93d
000001d0: c3a6 7b3d 88e3 a03c 1f8a 22be e5e7 733d
000001e0: 03b7 313b a187 f8bb 2068 e03d e331 5cbd
000001f0: d46c 9ebb a937 763c 8f41 b8bd 9784 3e3d
00000200: 0b0f 883d 6a43 29bb 8131 46bd 0878 b9bd
00000210: 8b5d a8bd 9133 10bd 5c40 a4bd 3161 443d
00000220: 9e53 193c b77e 82bd b8f8 cdbc f562 643c
00000230: 956c b0bc b73c bd3d 99db 1d3b b4e9 31be
00000240: ca2d 2dbc 9c1b 103e 3530 613e bc00 aeb9
00000250: dbef e6bd 7b7d 17bd 7d88 0a3e 3e27 273c
00000260: 224e da3d 7915 38bd b8e9 babd 43cb 0dbe
00000270: d0b3 133c 5cd1 0fba 5f5f ebbd 5811 08bd
00000280: 7f6d 85bd ae40 49bd e1cf 2b3d 9934 6b3d
00000290: 6de5 133d 17b6 79bd a692 93bd af80 7bbd
000002a0: 8a24 71bd 494b 18bc 87c5 e33b 1075 bcbb
000002b0: ec59 223d 1c6c da3d 62b1 703d d706 20ba
000002c0: 8469 b43d 556c 49bd ee70 803d dfe2 e13b
000002d0: d986 0d3b 3fe4 8a3e 70b1 823e 756d 093e
000002e0: 5b22 583e f8fb 853e dce5 d6bb f59d 1e3e
000002f0: 72c4 db3d 18c1 d2bd ae0d 93be 351b 63be
00000300: c957 19be e2b2 31be 8b18 03be 3188 7a3e
00000310: 3f3f 753e 1d39 c83c 5821 9a3d 7ead 963e
00000320: df87 bc3e ef99 0abe 9293 54be b850 09be
00000330: 7a09 503d 9895 61bd 925b cbbd ecf5 9c3d
00000340: 0b45 95bd b17d 24bd b985 bf3d f805 8e3e
00000350: 4a25 0c3e e699 9f3d fa3c 1e3e d376 013e
00000360: 0b74 77bd be3f 91bd 6d09 84bd 1ade 053d
00000370: f2bc 03bd efc3 a4bd 4b91 0d3d ae33 bf3b
00000380: de19 2b3d 93e8 83bc 2e52 53bd 756a afbd
00000390: 62a1 44be 8e60 2fbd 6412 7f3d 34e9 1ebe
000003a0: e012 0fbe 3247 f53a b964 313d 2179 3abd
000003b0: f001 f6bd 6ec9 e23d a8dc 283c 5965 2d3c
000003c0: f43d 6fbd fa5c 51bd e5d9 c3bd 0b8a 5d3d
000003d0: 8094 e7bd 56c0 e2bc 2b82 b73d 8702 843e
000003e0: f7f1 ee3d 91e9 2bbe e76a 0abd b566 063c
000003f0: a336 f83d 3f1d 97bd aa8c 81bd d44c d8bd

conv3.bias f4 [24]
0.4373778 0.05810247 0.2926134 0.031909607 -0.1917565 0.35158336 0.02019885 0.013051239
-0.06788781 0.012547936 0.2079722 0.78752947 0.0015102847 -0.034760054 0.18734701 0.2890494
-0.26914114 -0.09540311 0.345377 0.019360062 0.5558251 -0.047393404 -0.22887456 0.01691668
00000000: fcef df3e dbfc 6d3d 6cd1 953e a6b3 023d
00000010: d15b 44be bc02 b43e 0f78 a53c ddd4 553c
00000020: c408 8bbd dc95 4d3c aaf6 543e 889b 493f
00000030: bff4 c53a 8f60 0ebd e5d7 3f3e 48fe 933e
00000040: decc 89be b562 c3bd 41d5 b03e fe98 9e3c
00000050: 8e4a 0e3f 961f 42bd 185e 6abe d994 8a3c

conv4.weight f4 [48, 24, 3, 3]
-0.008733703 0.04429934 -0.049610537 0.028826535 -0.022095347 0.010909755 -0.014209951 0.024712292
-0.071882956 -0.04777043 0.014454721 -0.052914973 0.0340697 -0.0076090726 -0.05999293 -0.052061368
0.019087791 0.026910137 -0.052542813 -0.015929352 -0.02755703 0.023476625 -0.11629665 -0.11956107
-0.039085757 -0.09673395 -0.09882276 -0.1451713 -0.05656806 -0.049251202 -0.01679028 -0.03480992
-0.086988695 -0.046027526 -0.031919446 0.034674644 -0.024338778 -0.08469245 -0.0781467 0.025357403
0.010940596 -0.09753185 0.021555224 -0.032730572 -0.0483405 -0.12204494 -0.07133108 -0.15648414
-0.046982292 -0.05610917 -0.1002842 -0.06343169 -0.13093007 -0.06102528 0.0010936693 -0.10173224
-0.076891676 -0.1220604 -0.04404148 -0.08372678 -0.067001894 -0.044326615 -0.066112 -0.14291662
-0.11680469 -0.11839564 -0.10861468 -0.15851314 -0.093031585 -0.117487855 0.023713177 -0.1323364
-0.0143472105 0.07299243 -0.016659213 0.016682701 0.009931405 -0.18411072 0.06421198 -0.103242114
-0.0827913 -0.03772572 -0.1686082 -0.06624761 0.006416235 -0.021555828 -0.13411705 -0.032716073
-0.049894203 -0.07673323 -0.17006263 -0.037195634 -0.16510181 -0.07974501 -0.06786618 0.011324336
-0.06624746 -0.021675477 -0.15211272 -0.037950158 0.01327481 0.023162652 0.035033483 0.030345863
-0.015543102 -0.094315454 0.024224611 0.029290562 -0.07829079 -0.07891807 -0.13644527 0.021720918
0.018985834 -0.065578245 -0.0025374037 -0.038616654 -0.047498167 -0.1250672 -0.025595758 -0.06867202
0.016188694 -0.08882126 0.024914393 0.024015045 -0.04195003 -0.1318155 -0.037136864 0.052343305
0.049029075 -0.00042699784 -0.016216435 0.03486594 -0.021893067 -0.02242227 0.006801814 0.02014267
0.013352405 -0.09223337 -0.089058906 -0.023101171 -0.10070934 -0.07258699 -0.02833695 -0.031185204
-0.13687533 -0.019029781 -0.074477635 -0.04767226 -0.07009071 -0.088271625 -0.08096947 0.0005511426
0.0018641456 -0.017042229 -0.09128446 -0.02607934 -0.06669509 -0.09401084 -0.07522041 0.0063609574
-0.046618138 -0.08616829 -0.09280595 -0.07964126 -0.08857437 -0.04737062 -0.04354632 -0.094182305
-0.018331932 -0.14198759 -0.06135377 -0.021371178 -0.03280247 -0.06804093 -0.026457993 0.023713905
-0.072805755 -0.1372328 -0.11945464 -0.12048966 0.039512735 -0.016726129 -0.13954827 -0.041174117
-0.017919948 -0.08913021 0.0053081717 -0.030274129 -0.028994912 0.07045045 0.061011653 0.107927226
0.016814584 0.049803678 0.021146404 0.08418827 0.003443064 0.051001467 -0.08368675 -0.10207967
-0.15243126 -0.020224627 -0.07626714 -0.054969937 -0.065692484 -0.020445881 -0.05381313 -0.13332658
-0.0395209 -0.03510111 -0.11991331 -0.014323041 -0.0921216 -0.1384081 -0.018661054 -0.03273538
-0.0068762307 0.055909168 -0.019217346 -0.107793 0.16368817 0.050004136 0.022191498 0.0841596
-0.117863856 -0.03578355 -0.15100718 -0.01453165 -0.016943978 0.08150311 -0.14457169 -0.09424159
-0.05399608 -0.012596951 0.017059918 -0.0013029041 0.027241353 -0.037685443 -0.020079305 -0.1731377
-0.01299461 -0.02193768 0.07184206 -0.007415679 -0.013033173 0.10514254 0.07454655 0.01181442
0.1579181 0.049777623 -0.07731129 0.17838237 0.011791197 -0.11038261 -0.0861378 -0.104175344
00000000: ce17 0fbc 3a73 353d 6b34 4bbd a025 ec3c
00000010: 4d01 b5bc d4be 323c dbd0 68bc 6f71 ca3c
00000020: 5f37 93bd edaa 43bd 7ed3 6c3c 5fbd 58bd
00000030: ab8c 0b3d 8755 f9bb 26bb 75bd 4d3e 55bd
00000040: 005e 9c3c a672 dc3c 2237 57bd 467e 82bc
00000050: 48bf e1bc 0d52 c03c f02c eebd 6fdc f4bd
00000060: 6318 20bd 731c c6bd 9663 cabd c9a7 14be
00000070: e9b3 67bd a1bb 49bd c58b 89bc d994 0ebd
00000080: 2127 b2bd 5c87 3cbd f7bd 02bd 0007 0e3d
00000090: 1e62 c7bc 3c73 adbd 610b a0bd 54ba cf3c
000000a0: 3040 333c c7be c7bd 9594 b03c 7e10 06bd
000000b0: b000 46bd b3f2 f9bd 0716 92bd 613d 20be
000000c0: 8170 40bd bbd2 65bd cd61 cdbd 79e8 81bd
000000d0: 8812 06be a5f5 79bd 7459 8f3a fe58 d0bd
000000e0: 6279 9dbd cefa f9bd d764 34bd f278 abbd
000000f0: 4a38 89bd d38f 35bd ba65 87bd bc58 12be
00000100: 4c37 efbd 6a79 f2bd 6071 debd 4551 22be
00000110: 5887 bebd 799d f0bd 2342 c23c 3183 07be
00000120: 9010 6bbc 0e7d 953d e778 88bc 29aa 883c
00000130: 55b7 223c 8587 3cbe 9281 833d 9a70 d3bd
00000140: 7c8e a9bd 4986 1abd a1a7 2cbe d4ac 87bd
00000150: 483f d23b d995 b0bc fb55 09be 4a01 06bd
00000160: dd5d 4cbd 5026 9dbd e624 2ebe 735a 18bd
00000170: 7310 29be 5a51 a3bd 6cfd 8abd b589 393c
00000180: c0ac 87bd c590 b1bc 70c3 1bbe a071 1bbd
00000190: 977e 593c 9abf bd3c 457f 0f3d e397 f83c
000001a0: 7fa8 7ebc 7628 c1bd b172 c63c c3f2 ef3c
000001b0: ec56 a0bd cc9f a1bd 4fb8 0bbe 11f0 b13c
000001c0: 2e88 9b3c e34d 86bd 924a 26bb 7f2c 1ebd
000001d0: 708d 42bd 9e11 00be 32ae d1bc eba3 8cbd
000001e0: 279e 843c ece7 b5bd 4519 cc3c 33bb c43c
000001f0: cbd3 2bbd a4fa 06be d31c 18bd ef65 563d
00000200: b6d2 483d aede dfb9 54d8 84bc 97cf 0e3d
00000210: 1759 b3bc e9ae b7bc c0e1 de3b 3e02 a53c
00000220: 0cc4 5a3c d9e4 bcbd 8464 b6bd ab3e bdbc
00000230: b340 cebd 7da8 94bd e422 e8bc 1d78 ffbc
00000240: 0c29 0cbe 58e4 9bbc bb87 98bd fd43 43bd
00000250: b88b 8fbd c1c7 b4bd 52d3 a5bd 8e7a 103a
00000260: 5956 f43a 259c 8bbc 59f3 babd 57a4 d5bc
00000270: 6f97 88bd c188 c0bd 290d 9abd 946f d03b
00000280: a9f2 3ebd 0079 b0bd 0c11 bebd f51a a3bd
00000290: 7b66 b5bd b207 42bd a05d 32bd a7e2 c0bd
000002a0: d92c 96bc 3265 11be 174e 7bbd 9c12 afbc
000002b0: e25b 06bd 0b59 8bbd 6fbe d8bc aa43 c23c
000002c0: 2f1b 95bd c186 0cbe a2a4 f4bd 48c3 f6bd
000002d0: 1bd8 213d 3c05 89bc bee5 0ebe 31a6 28bd
000002e0: dbcc 92bc e689 b6bd 2cf0 ad3b 7301 f8bc
000002f0: bd86 edbc 5348 903d 5be7 793d f308 dd3d
00000300: bdbe 893c f1fe 4b3d 393b ad3c e66a ac3d
00000310: 07a5 613b eae6 503d f563 abbd 250f d1bd
00000320: f116 1cbe 1eae a5bc f231 9cbd 2828 61bd
00000330: c889 86bd 1f7e a7bc 286b 5cbd c386 08be
00000340: abe0 21bd 2ec6 0fbd 1c95 f5bd 30ab 6abc
00000350: 40aa bcbd daba 0dbe 11df 98bc 8915 06bd
00000360: 0152 e1bb 0301 653d b26d 9dbc 94c2 dcbd
00000370: df9d 273e 23d1 4c3d f2ca b53c de5b ac3d
00000380: 9b62 f1bd c691 12bd a0a1 1abe 2816 6ebc
00000390: 19ce 8abc 1aeb a63d 9a0a 14be bc01 c1bd
000003a0: fe2a 5dbd 7163 4ebc 3ec1 8b3c 35c6 aaba
000003b0: 4229 df3c 0d5c 1abd 5b7d a4bc 024b 31be
000003c0: 58e7 54bc a6b6 b3bc ee21 933d 39ff f2bb
000003d0: 1789 55bc f954 d73d ddab 983d 4591 413c
000003e0: 48b5 213e 9fe3 4b3d 6255 9ebd dea9 363e
000003f0: dd2f 413c 4710 e2bd 0469 b0bd e259 d5bd

conv4.bias f4 [48]
-0.019742493 0.1553194 0.4657915 -0.021619905 0.2944278 -0.031725958 0.03243303 0.17416736
-0.11215168 -0.08837364 -0.057084944 0.123184815 -0.02954448 -0.24216321 0.057883576 -0.1586554
-0.16873452 -0.037762046 0.025010614 0.09536366 -0.009286909 -0.01688736 0.2733799 -0.043014374
-0.113371976 -0.049887948 -0.024182947 0.12792279 -0.025538387 -0.02617334 -0.0632447 -0.16476952
0.0259233 0.076963745 -0.06969108 0.016949339 0.32786286 -0.04317808 -0.037309434 -0.077158056
-0.10978675 -0.11414287 -0.0448412 0.13738312 -0.1303496 -0.12338114 -0.03966979 -0.09047434
00000000: 02bb a1bc 0c0c 1f3e 397c ee3e 3a1c b1bc
00000010: 3ebf 963e 14f3 01bd 7fd8 043d ee58 323e
00000020: c8af e5bd 3dfd b4bd e7d1 69bd 5248 fc3d
00000030: 4407 f2bc a2f9 77be 5417 6d3d 9076 22be
00000040: bec8 2cbe 60ac 1abd 0fe3 cc3c 064e c33d
00000050: 1f28 18bc 5c57 8abc 73f8 8b3e d72f 30bd
00000060: 912f e8bd 4e57 4cbd 511b c6bc 31fe 023e
00000070: e135 d1bc 7969 d6bc 7086 81bd 57b9 28be
00000080: 1a5d d43c 2b9f 9d3d 32ba 8ebd 57d9 8a3c
00000090: a4dd a73e 80db 30bd c7d1 18bd 0b05 9ebd
000000a0: e0d7 e0bd bdc3 e9bd 68ab 37bd 29ae 0c3e
000000b0: 5e7a 05be 40af fcbd ca7c 22bd 9c4a b9bd

conv5.weight f4 [96, 48, 3, 3]
-0.095672764 0.005487267 -0.10661452 -0.021796122 -0.15168232 -0.3084554 0.023390865 0.12558872
0.02188483 0.01863256 -0.023687007 0.077092625 0.071676776 -0.071179435 0.31224948 0.03162437
-0.21840404 -0.07707248 0.035853647 -0.020586757 0.072110765 -0.013743669 0.025090609 0.23803245
-0.08631652 -0.10143106 -0.14061818 -0.08990052 0.08149128 -0.13296814 -0.021462046 0.070992246
-0.08897931 0.039566193 -0.008425461 0.15016282 -0.045603674 -0.0016297441 0.0896436 -0.13519892
0.19917563 -0.10057502 -0.00026823825 -0.15763293 0.1628606 -0.04189792 -0.09045 -0.13597307
-0.02047197 -0.01876051 -0.042414382 -0.09040597 -0.10603884 -0.023745125 -0.042267904 -0.11489464
0.066098176 -0.13393578 -0.07655739 -0.011230148 -0.012756871 -0.0738546 0.008958188 0.05365866
-0.07517908 -0.07222736 0.025649937 -0.1843058 0.37559992 -0.008426689 -0.10825468 -0.029060055
0.0307412 -0.1533649 -0.04674004 0.0136260865 -0.053191483 -0.032552306 0.019200612 0.02379772
0.012269623 0.00047182624 0.06227903 0.046434395 -0.008431701 0.107875384 0.074633084 -0.090636104
0.015642187 0.018425578 0.04923507 -0.13700624 -0.06384149 -0.30098686 0.06652184 0.3032076
0.07051611 -0.24710104 -0.0057519227 -0.07412858 -0.06585052 0.015028918 -0.08395088 0.12224585
0.1070598 -0.03471904 0.068549864 0.055877138 0.12907712 -0.017724521 0.099998444 -0.11546132
-0.05309988 0.19535553 0.059400167 -0.118723355 -0.30157503 0.08817164 -0.031756915 0.03577178
0.07673964 -0.06211728 -0.026516788 -0.029582428 -0.013214201 0.19801004 -0.012357126 -0.0864136
0.043546613 0.015401359 -0.118215725 0.27832803 -0.0040075886 -0.11068192 -0.050298534 0.0005566653
-0.018355139 0.1666458 -0.1605609 -0.01442967 0.009440979 -0.03185656 -0.36602235 0.013991234
0.062938474 -0.07972551 -0.023872223 -0.03275407 0.09982971 0.24280375 -0.15979528 -0.065382965
0.015836282 0.13419105 0.03957856 0.08094602 0.13819341 0.023122916 0.2174268 0.021064837
0.055618506 0.28636938 -0.022218233 -0.016652875 -0.13621178 0.046548143 -0.14752272 0.21606159
0.012960019 0.046106286 -0.03937489 0.0071756644 -0.010848067 0.16422418 -0.06638487 0.03377161
-0.051027317 -0.01684723 -0.05741168 0.013627597 0.06330867 -0.0711061 -0.22964856 0.015594901
-0.083902285 0.14588985 -0.20859213 -0.022612114 0.1385337 -0.1813008 -0.11243551 -0.104380295
-0.20575237 -0.06249774 -0.24599367 0.0060711657 -0.07523469 -0.44593316 -0.04229425 -0.089801766
0.094960384 0.026896654 -0.017550532 0.19805391 0.040555123 -0.050883293 -0.06708755 -0.006840705
-0.08456768 0.01834088 -0.062151253 0.09136768 0.12659487 -0.044129487 0.017162861 0.13017467
0.036798563 0.06457727 -0.07284019 0.05027619 0.040999252 0.09712911 0.089652345 0.20069207
0.5352176 0.04624793 0.07890101 0.064086884 -0.117673285 0.0080725765 0.2332009 -0.038910255
-0.02419969 -0.25133145 0.02309523 0.1507211 0.013794799 -0.023270605 0.055906437 0.15755081
-0.0075267963 -0.25961486 -0.20484494 0.00022078872 0.020185096 0.0671018 -0.08116556 -0.039972577
0.043382082 -0.0019997857 -0.012064109 -0.2736274 0.029174916 -0.20492823 -0.04921477 -0.028442033
00000000: 15f0 c3bd 88ce b33b b758 dabd c88d b2bc
00000010: 9c52 1bbe deed 9dbe 339e bf3c 549a 003e
00000020: d147 b33c 4fa3 983c 410b c2bc bde2 9d3d
00000030: 46cb 923d 86c6 91bd 2adf 9f3e 8e88 013d
00000040: 4fa5 5fbe 2dd8 9dbd 46db 123d 8fa5 a8bc
00000050: cfae 933d 202d 61bc d28a cd3c c7be 733e
00000060: b7c6 b0bd 16bb cfbd 36fe 0fbe c41d b8bd
00000070: e6e4 a63d cd28 08be 2cd1 afbc 6264 913d
00000080: c93a b6bd 2910 223d f20a 0abc 48c4 193e
00000090: ebca 3abd 239d d5ba 1097 b73d 9671 0abe
000000a0: b2f4 4b3e 47fa cdbd 54a2 8cb9 876a 21be
000000b0: eec4 263e 279d 2bbd d93d b9bd 863c 0bbe
000000c0: d5b4 a7bc a4af 99bc b4ba 2dbd c426 b9bd
000000d0: e42a d9bd 2385 c2bc 1c21 2dbd e24d ebbd
000000e0: 7b5e 873d 7626 09be 1fca 9cbd a8fe 37bc
000000f0: 3202 51bc 1541 97bd 5dc5 123c 2fc9 5b3d
00000100: 7df7 99bd f0eb 93bd d11f d23c a9ba 3cbe
00000110: a24e c03e 1810 0abc a1b4 ddbd 5a0f eebc
00000120: f8d4 fb3c b00b 1dbe 7c72 3fbd f33f 5f3c
00000130: 50df 59bd 9155 05bd 9a4a 9d3c 70f3 c23c
00000140: 8706 493c 725f f739 4c18 7f3d fe31 3e3d
00000150: 1e25 0abc c5ed dc3d 3bd9 983d 6c9f b9bd
00000160: 0b24 803c 3df1 963c b6aa 493d 5d4b 0cbe
00000170: 54bf 82bd f31a 9abe 9a3c 883d 073e 9b3e
00000180: c06a 903d 0e08 7dbe a07a bcbb bad0 97bd
00000190: a3dc 86bd da3b 763c 70ee abbd 085c fa3d
000001a0: 2b42 db3d 8d35 0ebd df63 8c3d 6ddf 643d
000001b0: cb2c 043e 0433 91bc fccb cc3d fc76 ecbd
000001c0: 437f 59bd 480b 483e 974d 733d 3b25 f3bd
000001d0: 0b68 9abe 5593 b43d 8a13 02bd 6e85 123d
000001e0: ac29 9d3d b06e 7ebd bc39 d9bc d956 f2bc
000001f0: 6080 58bc 25c3 4a3e 8b75 4abc 9df9 b0bd
00000200: ef5d 323d fb55 7c3c 161b f2bd 0381 8e3e
00000210: 1752 83bb 34ad e2bd d605 4ebd 2ded 113a
00000220: 845d 96bc 32a5 2a3e 146a 24be 6c6a 6cbc
00000230: 56ae 1a3c 067c 02bd 4867 bbbe 7d3b 653c
00000240: e3e5 803d 2147 a3bd ae8f c3bc 2229 06bd
00000250: 8573 cc3d 8ca1 783e 60a1 23be 81e7 85bd
00000260: 17bb 813c 6169 093e 211d 223d 07c7 a53d
00000270: 9382 0d3e 456c bd3c 22a5 5e3e 2a90 ac3c
00000280: 3bd0 633d 029f 923e 0303 b6bc 9c6b 88bc
00000290: 1a7b 0bbe 44a9 3e3d 3210 17be 403f 5d3e
000002a0: 4256 543c f2d9 3c3d 9147 21bd d621 eb3b
000002b0: 17bc 31bc 622a 283e caf4 87bd 1a54 0a3d
000002c0: 0502 51bd 3403 8abc 8328 6bbd 4946 5f3c
000002d0: faa7 813d 13a0 91bd fe28 6bbe c181 7f3c
000002e0: f6d4 abbd 2664 153e 2d99 55be 0a3d b9bc
000002f0: c7db 0d3e eba6 39be 9744 e6bd 56c5 d5bd
00000300: c0b0 52be a1fd 7fbd c4e5 7bbe a1f0 c63b
00000310: a514 9abd 5a51 e4be bc3c 2dbd fde9 b7bd
00000320: 977a c23d 5f56 dc3c 22c6 8fbc a5ce 4a3e
00000330: 211d 263d 006b 50bd 3365 89bd fe27 e0bb
00000340: d231 adbd 9d3f 963c 5092 7ebd fa1e bb3d
00000350: 16a2 013e 1fc1 34bd 2199 8c3c 824c 053e
00000360: 17ba 163d 1641 843d 3d2d 95bd 68ee 4d3d
00000370: d5ee 273d a0eb c63d a69b b73d 3982 4d3e
00000380: 0504 093f 786e 3d3d da96 a13d fc3f 833d
00000390: b1fe f0bd d742 043c 37cc 6e3e 5c60 1fbd
000003a0: 6e3e c6bc 84ae 80be 3532 bd3c a256 1a3e
000003b0: 9503 623c ffa1 bebc 26fe 643d 0055 213e
000003c0: 58a3 f6bb 3dec 84be dfc2 51be 8583 6739
000003d0: 375b a53c ab6c 893d 213a a6bd 49ba 23bd
000003e0: 69b1 313d d60e 03bb 8aa8 45bc e418 8cbe
000003f0: 3c00 ef3c b5d8 51be 6d95 49bd 44ff e8bc

conv5.bias f4 [96]
-0.002300205 0.03290879 0.014451972 0.17643455 -0.08769206 -0.23720576 -0.1422793 -0.03526792
-0.0484468 0.10844175 0.085134074 0.17031632 0.015873736 -0.051923763 0.13541558 -0.12136674
-0.09991033 -0.20999397 -0.2608531 -0.05880567 0.033588655 -0.099525206 -0.15555136 0.100838274
-0.034178335 0.12774192 -0.033789746 -0.02577964 0.093019105 0.107747994 -0.010508299 0.21148269
-0.3669836 0.0679092 -0.059507143 -0.08282577 0.11137965 0.11277784 -0.035114028 -0.1613515
-0.005450135 -0.017418075 -0.042478487 0.18633883 0.032810867 0.24197972 -0.15298964 -0.011304493
0.008602369 0.21955681 -0.054802828 0.11447007 -0.14394328 0.18792334 -0.07043646 -0.13427038
-0.079447545 -0.119160704 -0.10134589 -0.049974874 0.04072006 -0.09583115 0.0706625 -0.009488354
0.07181811 -0.08686615 0.04177494 0.040990032 -0.030671401 -0.06188977 0.029850785 -0.01920917
-0.111915514 -0.20374444 -0.105721846 -0.06809075 0.06982212 0.008911961 -0.21820633 0.0337845
0.46044868 0.05665952 -0.25444773 -0.04737915 0.04966516 0.049461957 -0.13305631 0.02723223
-0.24909873 0.07598247 0.27334654 0.09910832 0.069582045 0.05582665 -0.051300302 -0.07008464
00000000: 09bf 16bb 5ecb 063d f7c7 6c3c 42ab 343e
00000010: e597 b3bd 11e6 72be aab1 11be 1875 10bd
00000020: 2770 46bd b516 de3d c65a ae3d 6767 2e3e
00000030: a309 823c 03ae 54bd 62aa 0a3e 208f f8bd
00000040: c99d ccbd a908 57be 8a8e 85be 37de 70bd
00000050: 4294 093d dfd3 cbbd db48 1fbe 4c84 ce3d
00000060: 95fe 0bbd c7ce 023e 1e67 0abd d32f d3bc
00000070: cd80 be3d fbaa dc3d 002b 2cbc eb8e 583e
00000080: 46e5 bbbe fb13 8b3d c3bd 73bd 8fa0 a9bd
00000090: 041b e43d 11f8 e63d bad3 0fbd 5439 25be
000000a0: 0c97 b2bb 5ab0 8ebc ecfd 2dbd 9bcf 3e3e
000000b0: b064 063d 88c9 773e 51a9 1cbe 7b36 39bc
000000c0: f3f0 0c3c 80d3 603e ee78 60bd 496f ea3d
000000d0: de65 13be fa6e 403e fe40 90bd 2d7e 09be
000000e0: 65b5 a2bd 870a f4bd 6f8e cfbd 74b2 4cbd
000000f0: 14ca 263d 1f43 c4bd 80b7 903d 0b75 1bbc
00000100: 6015 933d e1e6 b1bd 331c 2b3d 2ae5 273d
00000110: 9742 fbbc 2180 7dbd a289 f43c 8d5c 9dbc
00000120: f633 e5bd 62a2 50be b284 d8bd 2a73 8bbd
00000130: e6fe 8e3d 7903 123c 7b71 5fbe 9e61 0a3d
00000140: eebf eb3e d013 683d f946 82be a410 42bd
00000150: b26d 4b3d 9f98 4a3d ea3f 08be 2016 df3c
00000160: bd13 7fbe b29c 9b3d 14f4 8b3e 4ef9 ca3d
00000170: 0881 8e3d 7caa 643d 4420 52bd 8988 8fbd

res1.conv1.weight f4 [6, 6, 3, 3]
-0.07895167 0.33537683 0.0659266 0.13273028 0.37961835 0.09582324 -0.037948113 0.15848814
-0.07535194 -0.13110127 -0.10762057 0.247629 -0.11301497 -0.05012335 0.29022267 -0.129917
-0.09978961 0.26277572 0.14656152 0.07890751 0.043867286 0.0038917444 -0.013094397 0.1316897
0.3332577 0.1447837 0.19682811 0.026259607 0.5192024 0.28656587 -0.028399797 0.519864
0.293295 -0.10851403 0.41059104 -0.23924808 0.071852215 0.42629188 0.24102436 0.2825923
0.3411903 0.22056726 0.35952604 0.42350718 0.32837582 0.33576366 0.48049805 0.2054199
0.018103432 0.24051456 0.11646342 0.090707235 0.32389 0.17319801 0.005560978 0.22965294
0.3079585 -0.16735226 0.010385032 0.21802902 -0.017741365 0.070213534 0.1523542 0.13407955
0.29110736 0.15012199 0.35485506 0.80671215 0.36571705 0.26884806 0.5378128 0.26989108
-0.27559972 -0.15209351 -0.746827 -0.16106589 0.15637036 -0.37179017 -0.53210026 -0.40382266
-0.59464806 -0.09812307 0.0049920697 0.29145297 -0.1901724 -0.2537679 0.16518576 -0.2388116
-0.28760606 0.1437521 0.030266982 0.082225926 0.018807767 -0.17762329 -0.041205972 0.059969984
-0.07590958 -0.33134398 0.17906176 0.017429167 -0.047660176 -0.09988279 0.011682986 -0.083298996
-0.23340084 -0.059403222 -0.08864971 0.091003545 0.007816702 -0.037852474 -0.43977106 0.09021913
-0.03494199 -0.1159073 0.35695842 0.29815865 0.15391558 -0.014409264 0.115536235 0.029767882
0.13496032 0.069311745 0.21648796 -0.0794645 -0.033995453 0.17478019 0.07257206 0.25741762
0.44479313 0.21383432 0.17124689 0.3904148 0.32664835 0.017256757 0.13102353 -0.12309165
-0.093515255 -0.6354318 0.23441276 -0.07733553 -0.23376793 0.43508416 0.1433613 0.26428872
0.15554519 -0.17086008 -0.49209723 0.16541342 0.23713063 -0.04322102 0.48349527 0.45654267
0.19269781 -0.07421867 -0.27442428 -0.34703192 0.0428618 0.0032683352 0.12516356 0.20748311
0.22758368 0.19593123 0.2363161 0.1412828 -0.01947214 0.31889048 0.08502258 -0.19405876
0.19040921 -0.08507272 -0.05281173 0.0828464 0.19747193 -0.22013278 0.22993284 0.686763
0.2951842 -0.026710931 0.06962986 -0.14741729 -0.004840772 0.0836044 0.22486876 0.25197688
0.4242365 0.813788 -0.24469714 0.14702341 0.25757506 0.23571946 -0.026703285 0.0966256
-0.08439395 -0.055718437 -0.33813953 0.06090796 -0.16685322 -0.09842802 0.12224458 0.051782906
0.08918816 0.22926918 -0.10404781 -0.20047441 0.1333578 -0.25803477 0.077452205 0.030404706
-0.27333352 -0.30099422 0.12524694 -0.26878515 -0.31145582 0.08942656 -0.2398972 0.06401914
0.15047064 0.08896033 0.01059567 -0.19796962 0.046465036 -0.15885586 -0.14830454 0.06517721
-0.13170448 0.3790654 0.49175617 0.5443054 0.35355884 0.65906423 0.718314 0.28168678
0.39367473 0.20250562 -0.46825567 -0.3954288 -0.49648625 -0.3012428 -0.10442643 -0.2750237
-0.25989586 -0.17319 -0.18714106 0.32736275 0.1302064 0.016604826 0.07541907 0.29399583
-0.039177094 0.21510674 0.107352585 0.0125782285 0.17840455 0.0886713 0.18081582 0.22870168
00000000: 6ab1 a1bd 83b6 ab3e 8604 873d 72ea 073e
00000010: 565d c23e fa3e c43d 7b6f 1bbd b74a 223e
00000020: 1e52 9abd 693f 06be 2c68 dcbd 7592 7d3e
00000030: 6574 e7bd 244e 4dbd 1198 943e f608 05be
00000040: 7f5e ccbd 8a8a 863e 3914 163e 439a a13d
00000050: 2fae 333d a30c 7f3b e289 56bc aad9 063e
00000060: c1a0 aa3e 2e42 143e 4f8d 493e 631e d73c
00000070: 73ea 043f c3b8 923e b1a6 e8bc cf15 053f
00000080: c32a 963e 9b3c debd fd38 d23e 73fd 74be
00000090: 4127 933d ee42 da3e 17cf 763e f0af 903e
000000a0: 7fb0 ae3e 62dc 613e cc13 b83e efd5 d83e
000000b0: e020 a83e 37e9 ab3e d703 f63e 9859 523e
000000c0: a64d 943c 7349 763e 6084 ee3d b7c4 b93d
000000d0: e9d4 a53e d25a 313e dd38 b63b 242a 6b3e
000000e0: bdac 9d3e 645e 2bbe fb25 2a3c 0043 5f3e
000000f0: 5756 91bc 1dcc 8f3d bd02 1c3e 264c 093e
00000100: 060c 953e 94b9 193e 90af b53e b084 4e3f
00000110: 443f bb3e 74a6 893e 1aae 093f 2a2f 8a3e
00000120: 681b 8dbe 67be 1bbe 0e30 3fbf 75ee 24be
00000130: 8d1f 203e 485b bebe b937 08bf d8c1 cebe
00000140: db3a 18bf c0f4 c8bd 8494 a33b 5339 953e
00000150: 8ebc 42be deed 81be 7526 293e 078b 74be
00000160: 1a41 93be c033 133e 76f2 f73c 1166 a83d
00000170: bf12 9a3c e1e2 35be 98c7 28bd 16a3 753d
00000180: 7b76 9bbd eba5 a9be f75b 373e 9dc7 8e3c
00000190: 5137 43bd 598f ccbd ff69 3f3c aa98 aabd
000001a0: a100 6fbe cb50 73bd fb8d b5bd 1160 ba3d
000001b0: a011 003c 320b 1bbd ac29 e1be cfc4 b83d
000001c0: 551f 0fbd ce60 edbd 41c3 b63e 40a8 983e
000001d0: 0c9c 1d3e d514 6cbc 439e ec3d c6db f33c
000001e0: 0a33 0a3e 51f3 8d3d 05af 5d3e 49be a2bd
000001f0: d13e 0bbd 94f9 323e a9a0 943d 3ecc 833e
00000200: edbb e33e 62f7 5a3e 585b 2f3e 73e4 c73e
00000210: 743e a73e 0b5e 8d3c 082b 063e 7a17 fcbd
00000220: ed84 bfbd a9ab 22bf e609 703e 1762 9ebd
00000230: dc60 6fbe 5ac3 de3e 4ecd 123e da50 873e
00000240: 3d47 1f3e f2f5 2ebe 2bf4 fbbe 2362 293e
00000250: 5fd2 723e 8608 31bd b18c f73e f6bf e93e
00000260: 9352 453e f5ff 97bd 5781 8cbe 2bae b1be
00000270: db8f 2f3d 9131 563b e02a 003e 7476 543e
00000280: b20b 693e 32a2 483e d9fc 713e 70ac 103e
00000290: 0a84 9fbc 9d45 a33e 5220 ae3d 57b7 46be
000002a0: a2fa 423e 9b3a aebd 1d51 58bd 60ab a93d
000002b0: 1536 4a3e 7d6a 61be 8473 6b3e b3cf 2f3f
000002c0: 6222 973e e2d0 dabc 1a9a 8e3d 8ff4 16be
000002d0: 579f 9ebb c938 ab3d ff43 663e 1d03 813e
000002e0: 8735 d93e 6954 503f e391 7abe 4e8d 163e
000002f0: e1e0 833e 7160 713e d9c0 dabc a4e3 c53d
00000300: bcd6 acbd 0439 64bd a020 adbe a07a 793d
00000310: 92db 2abe a194 c9bd 5e5b fa3d 501a 543d
00000320: 48a8 b63d 8ac5 6a3e 0517 d5bd 2a49 4dbe
00000330: f28e 083e 221d 84be 439f 9e3d 4a13 f93c
00000340: 5ff2 8bbe ea1b 9abe bc40 003e 359e 89be
00000350: 2377 9fbe 4625 b73d 9da7 75be 781c 833d
00000360: fa14 1a3e d530 b63d 7699 2d3c 8cb8 4abe
00000370: 1f52 3e3d 1cab 22be 25dd 17be a17b 853d
00000380: 8add 06be dc14 c23e 77c7 fb3e 9957 0b3f
00000390: aa05 b53e 6fb8 283f 6de3 373f 4039 903e
000003a0: bc8f c93e a25d 4f3e 35bf efbe a575 cabe
000003b0: 7233 febe 7f3c 9abe 86dd d5bd e8cf 8cbe
000003c0: 1211 85be b858 31be e8a1 3fbe 179c a73e
000003d0: d454 053e d806 883c 5075 9a3d 9f86 963e
000003e0: 2978 20bd f144 5c3e acdb db3d ea14 4e3c
000003f0: afaf 363e 4c99 b53d c827 393e c630 6a3e

res1.conv1.bias f4 [6]
0.1270025 -0.10726481 -0.08724744 0.009031173 0.054660328 -0.075525515
00000000: f20c 023e a7ad dbbd c9ae b2bd 7cf7 133c
00000010: 82e3 5f3d 1fad 9abd

res1.conv2.weight f4 [6, 6, 3, 3]
-0.2479293 -0.1157625 -0.0056223306 0.06132304 0.16621721 0.10277004 0.04458783 0.042191878
-0.05382123 0.19440562 -0.10523426 0.031378154 -0.060020447 -0.30348614 -0.1270054 0.38990217
-0.01061322 0.008728069 -0.2017173 -0.09670138 0.35218984 -0.059024625 -0.31938657 0.0027011053
0.17645386 -0.17813839 -0.0294842 0.125268 -0.281743 -0.056449596 -0.26914936 -0.3313165
-0.38371196 -0.0454786 -0.17005602 0.045820504 -0.7029996 -0.904507 -0.26009554 -0.8445843
-1.1846646 -0.439708 -0.49809757 -0.42872632 -0.019904314 -0.07328548 -0.08552844 0.038634144
0.04555271 0.11001074 -0.054861117 -0.07942258 -0.107756555 0.048955802 0.7229061 0.3736613
0.54599166 0.27525136 -0.30366564 -0.24516106 0.26380363 -0.26524752 -0.22610061 -0.27774593
0.08892978 -0.001536281 -0.11698559 0.01722934 -0.023722485 -0.07128919 0.22585127 -0.098117955
0.009905732 0.20163243 -0.034444835 0.0064414125 0.39500478 0.356989 0.40212354 0.5154747
0.29595456 0.2365794 -0.017669318 0.45516512 0.0995631 -0.1826964 0.47779623 0.38837105
0.27634132 0.28967005 0.17083602 0.0779361 0.050848108 -0.3986202 -0.097555146 0.08120818
-0.053911522 0.41629606 0.18279675 0.0054372125 -0.36358774 0.2072577 -0.019529944 -0.0767753
0.59210145 -0.027400803 0.16604973 0.49399942 -0.080469474 0.102795504 0.27768067 0.19627626
0.4463923 0.26436317 0.22873107 0.35112947 0.409509 -0.0530411 0.13162732 0.29416528
0.15355964 0.14851712 0.24340685 -0.033042222 0.25569007 -0.06738982 -0.11529234 -0.0048654303
0.22253801 -0.20198485 -0.21523371 -0.2115695 -0.0018560697 -0.09210866 0.17206606 -0.07394074
0.023336548 0.1098248 -0.055349596 -0.27070212 -0.13792938 0.078889616 -0.06328586 0.09242797
0.13134964 0.26577064 -0.02659365 0.21303582 0.2723442 0.02145579 0.05667534 -0.07438276
-0.08924388 -0.7370585 -0.12115577 -0.22503918 -0.31364086 0.1482268 -0.075237595 -0.69962215
0.06791687 -0.3189694 -0.033088394 0.06616346 -0.012481453 -0.08660074 0.056660153 -0.023002986
-0.15210481 -0.16750595 -0.2057756 -0.3070513 -0.55194217 -0.25104624 -0.5439924 -0.59743834
-0.24184024 -0.26922035 -0.68103343 -0.055467684 -0.07926441 0.098074995 -0.048542842 -0.17568293
-0.08645851 -0.026724037 -0.09595389 0.073192775 -0.098632775 0.19198261 0.2754811 0.049778726
0.116322525 0.097410865 0.10325716 0.10976475 -0.07087215 0.042785738 -0.3373155 -0.28204873
-0.09756934 -0.46308815 -0.40786067 -0.011278025 -0.46477526 -0.49023026 -0.105617866 -0.15974657
0.0528633 0.068906516 0.07040156 0.18851402 0.016032135 -0.00054628204 0.06662774 0.01852665
-0.18130958 -0.15903485 -0.041116834 -0.11974572 -0.14086816 -0.09084274 -0.051021334 -0.11998756
-0.11866075 -0.35876277 -0.45688018 -0.036122832 -0.37167525 -0.34826183 -0.1579372 0.2192251
0.03678797 0.011838136 -0.3762515 -0.41235846 -0.20547624 0.055452846 -0.022397429 -0.088778324
0.09676496 -0.043242075 -0.061218593 -0.3271085 -0.26556775 0.12414736 -0.35513955 -0.33249417
-0.07279454 -0.13727555 0.04871146 0.22847936 -0.2699388 -0.25401372 0.22743009 -0.1959103
00000000: 2ee1 7dbe e414 edbd 873b b8bb de2d 7b3d
00000010: d834 2a3e 1979 d23d baa1 363d 64d1 2c3d
00000020: a673 5cbd 4412 473e 0f85 d7bd 6186 003d
00000030: 00d8 75bd 8962 9bbe b40d 02be 42a1 c73e
00000040: 12e3 2dbc 2d00 0f3c fb8e 4ebe 600b c6bd
00000050: 3a52 b43e cec3 71bd a386 a3be 0705 313b
00000060: 52b0 343e e969 36be d988 f1bc 4146 003e
00000070: 9e40 90be b137 67bd f2cd 89be 51a2 a9be
00000080: e575 c4be c547 3abd 2a23 2ebe 48ae 3b3d
00000090: c8f7 33bf c58d 67bf 3e2b 85be ad36 58bf
000000a0: 17a3 97bf 6821 e1be a506 ffbe 0482 dbbe
000000b0: 5f0e a3bc b316 96bd 8929 afbd d63e 1e3d
000000c0: 7a95 3a3d 504d e13d 0db6 60bd 4ea8 a2bd
000000d0: 78af dcbd e185 483d 6010 393f 8950 bf3e
000000e0: 1cc6 0b3f bfed 8c3e 107a 9bbe 800b 7bbe
000000f0: 4511 873e 86ce 87be eb86 67be b734 8ebe
00000100: d120 b63d 095d c9ba 2496 efbd 8b24 8d3c
00000110: a855 c2bc 1100 92bd 8e45 673e 11f2 c8bd
00000120: a74b 223c bb78 4e3e 0716 0dbd 7c12 d33b
00000130: 113e ca3e 43c7 b63e 23e3 cd3e 26f6 033f
00000140: 5b87 973e df41 723e 3fbf 90bc 670b e93e
00000150: bde7 cb3d c414 3bbe b5a1 f43e 92d8 c63e
00000160: 9c7c 8d3e a24f 943e a3ef 2e3e f69c 9f3d
00000170: 1b46 503d f217 ccbe feca c7bd 7950 a63d
00000180: 54d2 5cbd c224 d53e 122f 3b3e a52a b23b
00000190: 2c28 babe 5d3b 543e 43fd 9fbc 5e3c 9dbd
000001a0: f693 173f a677 e0bc f108 2a3e 7eed fc3e
000001b0: 2ecd a4bd 7386 d23d 292c 8e3e a5fc 483e
000001c0: 888d e43e 9c5a 873e 7a38 6a3e 3ec7 b33e
000001d0: 2aab d13e a041 59bd 50c9 063e d59c 963e
000001e0: bd3e 1d3e df14 183e a53f 793e 4857 07bd
000001f0: cfe9 823e ad03 8abd 641e ecbd 306e 9fbb
00000200: 01e1 633e 1ed5 4ebe 3a66 5cbe ada5 58be
00000210: 5d47 f3ba 77a3 bcbd 1632 303e 3e6e 97bd
00000220: 4a2c bf3c d3eb e03d 42b6 62bd 7899 8abe
00000230: 5c3d 0dbe e190 a13d 049c 81bd e04a bd3d
00000240: 8580 063e 1713 883e edda d9bc 1026 5a3e
00000250: b370 8b3e 0ec4 af3c 6724 683d fd55 98bd
00000260: 7fc5 b6bd deaf 3cbf 8420 f8bd ac70 66be
00000270: 8995 a0be c4c8 173e 2b16 9abd 701a 33bf
00000280: 0018 8b3d f54f a3be b287 07bd b580 873d
00000290: 027f 4cbc bb5b b1bd 7a14 683d c270 bcbc
000002a0: 5dc1 1bbe ae86 2bbe d7b6 52be d435 9dbe
000002b0: 154c 0dbf 2289 80be 1643 0bbf b8f1 18bf
000002c0: f8a4 77be 40d7 89be 3558 2ebf 1532 63bd
000002d0: 6155 a2bd 8bdb c83d dcd4 46bd 3ae6 33be
000002e0: 2911 b1bd 5eec dabc 7983 c4bd 18e6 953d
000002f0: fbff c9bd 1797 443e dc0b 8d3e c7e4 4b3d
00000300: 813a ee3d 597f c73d 7d78 d33d 57cc e03d
00000310: 6b25 91bd 1940 2f3d 9eb4 acbe b168 90be
00000320: 6fd2 c7bd e419 edbe 1dd3 d0be 77c7 38bc
00000330: 06f7 edbe 76ff fabe 2e4e d8bd 9b94 23be
00000340: 3087 583d dc1e 8d3d b12e 903d d209 413e
00000350: d355 833c 5e34 0fba 2074 883d 33c5 973c
00000360: 38a9 39be 08da 22be 206a 28bd 3e3d f5bd
00000370: be3f 10be c20b babd bffb 50bd 0abc f5bd
00000380: 6804 f3bd c1af b7be 33ec e9be 89f5 13bd
00000390: 384c bebe 604f b2be 4aba 21be 8b7c 603e
000003a0: fcae 163d bef4 413c 09a4 c0be a620 d3be
000003b0: 5d68 52be 8622 633d d07a b7bc 69d1 b5bd
000003c0: b52c c63d 9a1e 31bd 59c0 7abd c47a a7be
000003d0: 7ff8 87be f940 fe3d dad4 b5be ad3c aabe
000003e0: 4e15 95bd f691 0cbe ab85 473d 7ef6 693e
000003f0: 6b35 8abe 160e 82be 6fe3 683e b69c 48be

res1.conv2.bias f4 [6]
-0.06528031 -0.14533031 0.09957763 0.12022499 -0.12085494 0.14918734
00000000: afb1 85bd 78d1 14be 5bef cb3d 8538 f63d
00000010: cb82 f7bd 91c4 183e

res1.batch_norm1.weight f4 [6]
1.0334864 1.068569 0.78234917 0.8477945 1.0066462 0.9768055
00000000: 4849 843f dec6 883f 0948 483f 0f09 593f
00000010: c8d9 803f ed0f 7a3f

res1.batch_norm1.bias f4 [6]
-0.3920204 0.37630078 -0.3158719 0.1901091 -1.0289199 0.24827024
00000000: e6b6 c8be 7faa c03e f6b9 a1be f6ab 423e
00000010: a6b3 83bf 8e3a 7e3e

res1.batch_norm1.running_mean f4 [6]
5.2134023 2.5039659 1.7406708 1.7524946 4.0686784 -2.1697042
00000000: 31d4 a640 fa40 2040 4dce de3f be51 e03f
00000010: 9d32 8240 6fdc 0ac0

res1.batch_norm1.running_var f4 [6]
19.067608 15.515505 4.392003 5.377112 22.932322 11.560349
00000000: 768a 9841 823f 7841 4a8b 8c40 4d11 ac40
00000010: 6575 b741 31f7 3841

res1.batch_norm2.weight f4 [6]
1.1958195 0.49814516 1.0261703 0.91554767 0.84368694 0.81549436
00000000: 9d10 993f e20c ff3e 8c59 833f 5561 6a3f
00000010: defb 573f 3dc4 503f

res1.batch_norm2.bias f4 [6]
-0.06715293 -0.29261243 -1.0507305 -0.030158697 0.21869074 -0.19679384
00000000: 7a87 89bd 4cd1 95be 567e 86bf 5f0f f7bc
00000010: 77f0 5f3e 5384 49be

res1.batch_norm2.running_mean f4 [6]
-1.4474194 1.7219009 -0.020176414 -1.8921149 -1.8579168 1.2229819
00000000: 0a45 b9bf 4067 dc3f 0249 a5bc d230 f2bf
00000010: 38d0 edbf ac8a 9c3f

res1.batch_norm2.running_var f4 [6]
9.317161 2.935038 3.261101 13.33284 4.7358055 10.142237
00000000: 1713 1541 aad7 3b40 e1b5 5040 5053 5541
00000010: b88b 9740 9a46 2241
