autoencoder/checkpoints/tightrope_encoder_ep.pth (torch, 467009 bytes, 58 tensors)

conv1.weight f4 [6, 3, 3, 3]
0.3576709 0.003001727 0.35933766 0.09708658 -0.2801215 0.13760303 0.19284306 -0.108417906
-0.12327919 -0.47924387 -0.14930429 -0.286081 -0.028919768 0.35689253 -0.014033828 -0.98570985
-0.54922545 -1.0096816 0.23278984 0.050505493 0.16130863 0.07547202 -0.1444258 0.04430467
0.099486984 -0.22078797 0.15348306 -0.2097342 -0.3509273 -0.505108 -0.22391383 -0.5562678
-0.6802687 -0.19915754 -0.53378564 -0.56636244 -0.051960234 0.0068293405 0.09212072 -0.1827211
-0.39675525 -0.3462012 -0.058538314 -0.20131801 -0.23040926 0.22519153 0.064014934 0.098504186
0.12658997 -0.4647126 -0.21240085 0.1013827 -0.11708955 0.043190908 0.081467025 0.042138807
0.07714522 0.012605923 -0.46966875 0.0794352 -0.010754257 0.06370462 0.23624364 0.03103255
-0.15906802 0.085144326 -0.043649036 -0.49985927 -0.030804625 0.09496003 0.019257236 0.046591457
-0.16377616 0.15740761 -0.046317775 -0.12140032 -0.5188475 -0.0059624263 0.025141506 0.1587119
0.062489428 0.036326986 0.097673036 0.11415878 0.027007371 0.08442741 0.14221503 0.10084928
0.074732795 0.18635777 0.0048994026 -0.014178716 -0.009093327 0.04725714 0.14886938 0.082363844
-0.021028413 0.07950691 -0.017434664 -0.059729967 -0.01488513 -0.031022679 -0.003475752 0.098996244
0.039725177 0.0051422445 0.015524617 0.0011975623 -0.046995085 -0.004419479 -0.011561855 -0.04053278
0.026133196 0.028207619 -0.01347067 -0.004309254 0.0019296358 -0.03944581 0.012514257 -0.028215183
0.042445973 0.09520119 0.035685703 0.032088816 0.014818811 -0.028916823 0.085547686 0.060358178
0.11539734 0.057867832 0.045147225 0.10647417 0.09437592 0.11465857 0.13883519 -0.109783314
-0.047608543 -0.06605657 -0.013646227 0.06740424 -0.028877528 -0.13661003 0.16557042 -0.04210868
0.10353925 -0.01618101 0.053298496 0.006765908 -0.010790293 0.055604763 0.21639815 0.15604126
0.23157671 -0.02815018 -0.020156011 -0.059674986 -0.055752967 0.031776667 -0.03417671 -0.06968014
0.14882003 -0.05279895
00000000: a420 b73e 9fb8 443b 1bfb b73e 54d5 c63d
00000010: 166c 8fbe cfe7 0c3e a778 453e 350a debd
00000020: cd79 fcbd 745f f5be 39e3 18be 3579 92be
00000030: 26e9 ecbc 9eba b63e 24ee 65bc 7b57 7cbf
00000040: 0a9a 0cbf 3f3d 81bf 7660 6e3e d9de 4e3d
00000050: 172e 253e 1391 9a3d 5be4 13be d078 353d
00000060: d5bf cb3d 3e16 62be aa2a 1d3e 90c4 56be
00000070: beac b3be c24e 01bf ab49 65be 9167 0ebf
00000080: 1726 2ebf f4ef 4bbe 2da6 08bf 21fd 10bf
00000090: 41d4 54bd a9c8 df3b caa9 bc3d 3d1b 3bbe
000000a0: 8123 cbbe 4941 b1be dfc5 6fbd 4f26 4ebe
000000b0: 68f0 6bbe 9c98 663e 431a 833d 90bc c93d
000000c0: cda0 013e cfee edbe 9c7f 59be bca1 cf3d
000000d0: a5cc efbd f3e8 303d 2fd8 a63d be99 2c3d
000000e0: 50fe 9d3d 1389 4e3c 6c78 f0be ecae a23d
000000f0: a032 30bc 9177 823d dae9 713e f937 fe3c
00000100: bae2 22be 2660 ae3d 55c9 32bd 8eed ffbe
00000110: fb59 fcbc 677a c23d 5ac1 9d3c afd6 3e3d
00000120: f0b4 27be 762f 213e b5b7 3dbd bba0 f8bd
00000130: 31d3 04bf 7560 c3bb 8ff5 cd3c 5f85 223e
00000140: eaf4 7f3d 9bcb 143d cd08 c83d 14cc e93d
00000150: 903e dd3c 47e8 ac3d d1a0 113e 118a ce3d
00000160: 820d 993d 92d4 3e3e 2b8b a03b d84d 68bc
00000170: 2efc 14bc b490 413d 3771 183e 60ae a83d
00000180: c743 acbc 85d4 a23d 24d3 8ebc 69a7 74bd
00000190: c3e0 73bc 4623 febc 71c9 63bb 8bbe ca3d
000001a0: deb6 223d 4680 a83b f75a 7e3c 86f7 9c3a
000001b0: eb7d 40bd 47d1 90bb ef6d 3dbc b305 26bd
000001c0: 4915 d63c aa13 e73c 16b4 5cbc a534 8dbb
000001d0: d5eb fc3a ee91 21bd 9908 4d3c 8723 e7bc
000001e0: d4db 2d3d d7f8 c23d 2c2b 123d 906f 033d
000001f0: 99ca 723c f9e2 ecbc a033 af3d 233a 773d
00000200: 7155 ec3d d206 6d3d 4cec 383d 210f da3d
00000210: 2a48 c13d 1dd2 ea3d d02a 0e3e 13d6 e0bd
00000220: 2d01 43bd ab48 87bd 6d94 5fbc 3c0b 8a3d
00000230: 9190 ecbc 80e3 0bbe 4b8b 293e 277a 2cbd
00000240: 630c d43d 0a8e 84bc 864f 5a3d 8db4 dd3b
00000250: c5c9 30bc d2c1 633d 7a97 5d3e 48c9 1f3e
00000260: 7222 6d3e 359b e6bc 381e a5bc c26d 74bd
00000270: 395d 64bd 4028 023d e1fc 0bbd 76b4 8ebd
00000280: 4764 183e b643 58bd

conv1.bias f4 [6]
-3.3589742 0.28258505 -2.0540419 -0.050293393 1.9733803 0.89936525
00000000: 6ff9 56c0 fdae 903e 6c75 03c0 7200 4ebd
00000010: ba97 fc3f cd3c 663f

conv2.weight f4 [12, 6, 3, 3]
-0.0055765966 0.046501983 -0.0866821 -0.34172 -0.09652541 -0.16396348 -0.30405617 -0.3977863
-0.23355736 -0.23208137 -0.25069815 -0.5047933 -0.12491868 -0.28855333 -0.4383937 -0.24786688
-0.08953342 -0.20384748 -0.008521352 -0.11636007 -0.036092628 -0.012688705 -0.2693228 -0.23953974
-0.24551964 -0.23624918 -0.39533156 -0.025898298 0.006463291 0.002300517 -0.1331037 -0.07826022
0.15268217 -0.036588408 0.011972468 -0.14847843 -0.08807335 -0.1753809 0.10648787 -0.058616765
-0.19942643 -0.17883098 -0.017115124 -0.060295373 0.13622141 -0.040025983 -0.0033997484 -0.13153948
-0.0010343881 -0.16590169 -0.12960087 -0.16369618 -0.13433579 -0.20762512 -0.118317135 -0.44063774
0.19201952 -0.1505211 -0.22632726 -0.3718629 -0.1395828 -0.6669355 -0.1394035 0.20208858
-0.17154361 0.5253502 0.051293388 -1.7687656 0.50358623 0.18185991 0.4320225 -0.78491277
0.9277465 0.2600852 0.7632041 -0.2954323 -0.8545971 0.6172358 0.80725384 -0.08533811
0.9253681 -0.00048039661 -0.5068604 -0.18568332 -0.29400954 0.25301766 -0.42219225 -0.22118925
-0.2429164 -0.32167888 0.026808633 -0.53581357 0.18089378 -0.46839505 0.7035274 -0.23962548
-0.164849 -0.18038641 -0.19613719 -0.41761523 0.0057984237 -0.52822435 -0.03542527 0.64674324
-0.13707317 -0.24451585 -0.45745212 -0.13689072 -0.091704965 -0.08545306 -0.13473761 -0.14658491
-0.16022836 -0.03758272 -0.21229678 -0.026289526 -0.052838635 -0.15207855 0.019456873 -0.088831134
-0.14090149 0.018293994 0.0027410937 -0.123210035 -0.2186169 -0.0030587493 -0.25952116 -0.09750117
-0.1636802 -0.085426964 -0.20736766 0.096568964 -0.11417346 -0.0121677285 0.17205124 -0.2123911
-0.18700773 -0.18349768 -0.32430783 0.022103723 -0.14635341 -0.22103584 -0.21014498 -0.19312885
-0.1222441 0.035748325 -0.16052057 -0.10598016 -0.034448545 -0.051493578 -0.18282142 0.001898164
-0.3062485 0.08832216 -0.12885329 0.06338033 0.0006849673 -0.030238785 -0.08732105 -0.14094831
-0.08372356 -0.0406517 0.16391607 0.12017702 0.2352773 -0.053184323 -0.25998357 -0.036603946
-0.03127743 -0.03056738 0.1953422 0.012747323 -0.035580825 0.01589278 -0.024936013 -0.037395436
-0.077623375 -0.017744727 0.0054223193 0.08387948 0.28984904 -0.028804138 0.39598137 -0.1690815
0.077839874 0.49454674 0.29810765 -0.10656892 0.15676366 -0.0598474 0.25867465 -0.1152951
0.105452575 0.57596 0.15830891 -0.06292644 0.2345375 -0.08087654 0.019819811 0.008514124
-0.24823672 -0.06554997 0.2522471 0.21491502 0.001821179 0.029359156 -0.13359305 0.01160027
-0.10059189 -0.080638796 0.06292398 -0.038054507 -0.095907405 -0.31699568 -0.2586643 -0.16160458
0.3457537 0.16754031 -0.12886682 0.361701 0.06582055 -0.06063076 -0.22457945 -0.64231527
-0.22009705 -1.173543 -0.4008346 -0.88548106 -1.794223 -1.1122794 -0.36115578 -4.0546045
-0.046093524 -0.7034022 0.004072291 0.294722 -0.15579423 -0.6755151 0.62105846 -0.4138885
-0.1766057 0.5663702 -0.7126021 -0.78158456 -0.32970074 0.029453333 -0.10300026 -0.4786818
0.18415432 -0.6978404 -0.6733027 0.10604385 -0.04120385 0.058485553 0.06136812 -0.13757776
00000000: e2bb b6bb dd78 3e3d 6386 b1bd edf5 aebe
00000010: 1daf c5bd 0be6 27be 40ad 9bbe a5aa cbbe
00000020: a929 6fbe bda6 6dbe 825b 80be 223a 01bf
00000030: 5dd5 ffbd 43bd 93be 2475 e0be d1d0 7dbe
00000040: 4c5d b7bd 65bd 50be 249d 0bbc 304e eebd
00000050: ddd5 13bd 49e4 4fbc aee4 89be e849 75be
00000060: 8069 7bbe 4eeb 71be e668 cabe ab28 d4bc
00000070: 04ca d33b 45c4 163b 564c 08be e546 a0bd
00000080: b758 1c3e badd 15bd 2c28 443c bb0a 18be
00000090: cd5f b4bd 0d97 33be 5016 da3d 2218 70bd
000000a0: 7136 4cbe 781f 37be 0435 8cbc 48f8 76bd
000000b0: a07d 0b3e 49f2 23bd 50ce 5ebb 49b2 06be
000000c0: 4e94 87ba 22e2 29be 17b6 04be f99f 27be
000000d0: 528f 09be ae9b 54be 4150 f2bd 459b e1be
000000e0: c4a0 443e 3422 1abe 55c2 67be d064 bebe
000000f0: cbee 0ebe 49bc 2abf cbbf 0ebe 4ff0 4e3e
00000100: 21a9 2fbe 5a7d 063f 0419 523d e966 e2bf
00000110: 07eb 003f 7c39 3a3e 0e32 dd3e 0bf0 48bf
00000120: cb80 6d3f e329 853e 5861 433f e742 97be
00000130: e0c6 5abf 2a03 1e3f 30a8 4e3f bfc5 aebd
00000140: ece4 6c3f bedd fbb9 9ac1 01bf c523 3ebe
00000150: 6b88 96be 888b 813e 9529 d8be 6f7f 62be
00000160: 14bf 78be 18b3 a4be c79d db3c 142b 09bf
00000170: 383c 393e 7ad1 efbe 5f1a 343f 6260 75be
00000180: 2dce 28be 37b7 38be 30d8 48be aad1 d5be
00000190: b400 be3b b639 07bf 171a 11bd f790 253f
000001a0: e95c 0cbe 5d62 7abe 2a37 eabe 152d 0cbe
000001b0: d0cf bbbd 0402 afbd a8f8 09be 5b1a 16be
000001c0: e712 24be 57f0 19bd 5464 59be 225d d7bc
000001d0: 536d 58bd 7bba 1bbe 0564 9f3c 19ed b5bd
000001e0: 7b48 10be 49dd 953c eca3 333b 8b55 fcbd
000001f0: 1cdd 5fbe 4c75 48bb f5df 84be b2ae c7bd
00000200: c89b 27be 55f4 aebd 3058 54be f3c5 c53d
00000210: c6d3 e9bd 275b 47bc 332e 303e 0d7d 59be
00000220: f47e 3fbe d1e6 3bbe ad0b a6be de12 b53c
00000230: abdd 15be 3857 62be 3f30 57be 92c3 45be
00000240: 1d5b fabd d66c 123d 815f 24be 200c d9bd
00000250: eb19 0dbd eeea 52bd 8a35 3bbe d1cb f83a
00000260: 9acc 9cbe 40e2 b43d 1ef2 03be 8ccd 813d
00000270: 618f 333a 54b7 f7bc 61d5 b2bd c154 10be
00000280: 4277 abbd 6682 26bd 9dd9 273e 5f1f f63d
00000290: 88ec 703e ced7 59bd 911c 85be 05ee 15bd
000002a0: c31c 00bd 7168 fabc c907 483e 26da 503c
000002b0: 33bd 11bd 9331 823c 9c46 ccbc f52b 19bd
000002c0: 01f9 9ebd 645d 91bc b6ad b13b 01c9 ab3d
000002d0: 1867 943e a8f6 ebbc 12be ca3e b323 2dbe
000002e0: 836a 9f3d 3b35 fd3e 91a1 983e ce40 dabd
000002f0: a786 203e 8c22 75bd 0171 843e d61f ecbd
00000300: 85f7 d73d 1d72 133f bb1b 223e 94df 80bd
00000310: 992a 703e 99a2 a5bd 285d a23c d37e 0b3c
00000320: c431 7ebe 103f 86bd 8826 813e af12 5c3e
00000330: a0b4 ee3a 9d82 f03c 9ecc 08be 0f0f 3e3c
00000340: 1f03 cebd f425 a5bd 4ade 803d 0bdf 1bbd
00000350: 1a6b c4bd 424d a2be a66f 84be ac7b 25be
00000360: a106 b13e b08f 2b3e aaf5 03be e030 b93e
00000370: edcc 863d f657 78bd 28f8 65be c66e 24bf
00000380: 1f61 61be a836 96bf 313a cdbe e3ae 62bf
00000390: 19a9 e5bf 2c5f 8ebf 69e9 b8be 52bf 81c0
000003a0: 90cc 3cbd 2b12 34bf da70 853b cde5 963e
000003b0: 8688 1fbe 8fee 2cbf b0fd 1e3f 32e9 d3be
000003c0: 20d8 34be a3fd 103f 176d 36bf ed15 48bf
000003d0: 89ce a8be 1e48 f13c cdf1 d2bd c815 f5be
000003e0: f392 3c3e aba5 32bf 915d 2cbf 852d d93d
000003f0: 5ec5 28bd 8c8e 6f3d 235d 7b3d 2fe1 0cbe

conv2.bias f4 [12]
-0.32788643 0.67545605 -0.43868446 1.378798 0.1844298 -0.21093167 0.47819012 0.7370674
-0.5009817 0.22922185 1.6316857 0.5467837
00000000: bbe0 a7be b0ea 2c3f 409b e0be 747c b03f
00000010: 2adb 3c3e 79fe 57be 56d5 f43e 73b0 3c3f
00000020: 5640 00bf 22b9 6a3e 14db d03f 04fa 0b3f

conv3.weight f4 [24, 12, 3, 3]
-0.0006321038 -0.46128294 0.04129713 -0.2800729 -0.30490327 0.5746199 0.03472829 -0.12843849
-0.37123856 -0.196967 -0.26575345 0.37662083 0.34635672 -0.29683772 0.46682107 -0.20543335
0.14053714 -0.34745443 0.057825867 0.11768665 0.02765111 0.33428386 -0.53681105 -1.3566351
-0.20541301 -0.014973334 0.2712055 0.014479302 0.07170973 -0.023387803 0.04272881 -0.07483564
-0.14417623 -0.03815175 -0.0065849093 0.09229073 0.019228334 -0.08060201 -0.12831424 0.08717011
-0.05701599 0.55878204 0.10214506 0.041819956 -0.2743755 -0.16360794 0.43436506 -0.466858
0.16935968 0.8001885 5.114102 0.14119859 1.7125614 -2.1530926 0.029331421 -0.07346682
0.004827227 -0.0052617993 -0.032917712 0.20116915 0.017319348 0.044499487 -0.03826146 0.029938396
-0.4578073 0.11262907 -0.04066236 -0.4920971 0.53665495 -0.011423641 -0.0067553152 -0.20096803
0.27465314 -0.37227544 -0.22680357 -0.15048765 -0.6955371 0.86777335 -0.009872115 -0.30287805
0.10285486 0.059419136 0.39341235 -0.13879108 0.14208649 0.3020903 -0.60475886 -0.019194618
0.0023002236 0.23620251 0.012801208 -0.14703973 0.030077578 -0.050663274 0.014461449 0.18568651
0.03441759 0.046097122 -0.053851735 0.41113994 -0.3013577 -0.56855345 -0.15887801 -0.53709435
0.29280952 -0.053451084 0.013607066 -0.7174777 0.015339049 -0.045489952 -0.13399425 0.051877618
0.00983595 -0.12536639 0.018298049 0.12209511 -0.11877002 0.08598922 -0.0107349595 -0.25729343
-0.0101979785 -0.096467726 -0.0672823 -0.09614556 -0.04011677 0.010826696 -0.06729112 0.031723954
-0.09849851 -0.11127358 -0.07137727 -0.020671625 -0.104189284 -0.12656747 -0.063647516 -0.12378454
-0.11118606 -0.10129097 -0.055948846 -0.10091447 -0.13676536 -0.04915403 -0.084042005 -0.031938236
0.017235149 -0.1838947 -0.03226784 -0.059164543 -0.1646072 -0.110862695 -0.096988596 -0.3024868
-0.10438429 0.032806 0.025945513 -0.034503896 -0.055761207 -0.12342872 -0.056528486 0.0013547301
-0.09909692 -0.16105299 -0.01410185 -0.114925206 -0.2724023 0.028992869 -0.09944135 -0.12529176
0.024510201 -0.07063337 -0.2827435 -0.11558972 -0.08793652 -0.17975262 -0.08429172 -0.2476334
-0.28787848 -0.11789108 -0.24179363 -0.09655944 0.018576566 -0.13037537 -0.023175407 0.07941432
-0.028490871 -0.11044574 -0.020439858 0.027721163 -0.07152705 -0.119451344 0.02728348 -0.0060818074
-0.09622725 -0.11735301 0.005905006 0.12451668 -0.038017124 -0.0525534 -0.09839887 -0.120401986
-0.107464164 -0.015198721 -0.03376442 -0.053646743 -0.005270943 -0.010869772 -0.1521839 -0.09208669
-0.27723008 -0.14897934 0.033182867 -0.1837309 -0.05224134 -0.021207426 -0.15384233 -0.19680934
-0.0344126 0.02416343 0.06966153 -0.10269336 -0.05699056 -0.02206162 -0.06737494 -0.054895192
-0.06038102 -0.038466718 -0.09671014 -0.10735152 -0.036659114 -0.013197153 -0.0063664024 -0.016219363
-0.09091406 -0.10823614 0.018701253 0.06479583 0.014555194 -0.03683002 -0.081867404 -0.09249741
-0.04298619 -0.11205145 -0.047416538 -0.13813576 -0.07853849 -0.10203768 0.046077665 -0.038606733
-0.16761175 -0.011351194 -0.07257778 -0.09738749 -0.061692487 -0.026521193 -0.14264953 0.000635903
00000000: c5b3 25ba 472d ecbe 2e27 293d b765 8fbe
00000010: 481c 9cbe 4a1a 133f 403f 0e3d 6185 03be
00000020: fb12 bebe b8b1 49be d610 88be 72d4 c03e
00000030: ab55 b13e 1dfb 97be 2c03 ef3e 1f5d 52be
00000040: f8e8 0f3e 8ce5 b1be d1da 6c3d b305 f13d
00000050: 9584 e23c 4127 ab3e 736c 09bf 38a6 adbf
00000060: ca57 52be b752 75bc 73db 8a3e 983a 6d3c
00000070: 8ddc 923d c797 bfbc 6804 2f3d 6e43 99bd
00000080: efa2 13be 0245 1cbd 39c6 d7bb ec02 bd3d
00000090: bd84 9d3c ab12 a5bd cf64 03be 3e86 b23d
000000a0: 9989 69bd 570c 0f3f 6e31 d13d 674b 2b3d
000000b0: f27a 8cbe d788 27be 1965 de3e 0308 efbe
000000c0: a06c 2d3e 27d9 4c3f b9a6 a340 5d96 103e
000000d0: 3635 db3f 45cc 09c0 7348 f03c c675 96bd
000000e0: b72d 9e3b 2c6b acbb b9d4 06bd 49ff 4d3e
000000f0: 4ee1 8d3c 1845 363d 0cb8 1cbd 5e41 f53c
00000100: b865 eabe 12aa e63d 938d 26bd 27f4 fbbe
00000110: 3862 093f 392a 3bbc b15b ddbb 90ca 4dbe
00000120: 569f 8c3e e39a bebe 323f 68be 6f19 1abe
00000130: b80e 32bf 6526 5e3f a7be 21bc d512 9bbe
00000140: 92a5 d23d 7b61 733d 586d c93e 401f 0ebe
00000150: 1f7f 113e 94ab 9a3e 7ad1 1abf 083e 9dbc
00000160: 59bf 163b 12df 713e 28bc 513c 9591 16be
00000170: 4165 f63c 4b84 4fbd b7ef 6c3c 9b24 3e3e
00000180: 75f9 0c3d 56d0 3c3d a393 5cbd ef80 d23e
00000190: 8e4b 9abe b88c 11bf ebb0 22be 047f 09bf
000001a0: 21eb 953e 86ef 5abd 2cf0 5e3c 9eac 37bf
000001b0: a250 7b3c ac53 3abd ca35 09be a07d 543d
000001c0: f726 213c 0c60 00be cae5 953c 000d fa3d
000001d0: b23d f3bd 1e1b b03d afe1 2fbc f7bb 83be
000001e0: 6c15 27bc df90 c5bd 4dcb 89bd f7e7 c4bd
000001f0: 7b51 24bd 7462 313c edcf 89bd faf0 013d
00000200: 96b9 c9bd 67e3 e3bd 3f2e 92bd 8a57 a9bc
00000210: 3161 d5bd e79a 01be a159 82bd c082 fdbd
00000220: 84b5 e3bd a471 cfbd 9e2a 65bd 3fac cebd
00000230: 380c 0cbe bc55 49bd 371e acbd abd1 02bd
00000240: ba30 8d3c e44e 3cbe 482b 04bd 8556 72bd
00000250: ca8e 28be fb0b e3bd f5a1 c6bd 8ddf 9abe
00000260: 6ec7 d5bd 965f 063d af8b d43c f553 0dbd
00000270: dd65 64bd 32c8 fcbd 6a8a 67bd 3391 b13a
00000280: 53f3 cabd 13eb 24be 720b 67bc e85d ebbd
00000290: 5078 8bbe 7482 ed3c e8a7 cbbd 7c4c 00be
000002a0: 9ec9 c83c 3aa8 90bd c2c3 90be 4eba ecbd
000002b0: 1018 b4bd 1211 38be 23a1 acbd 9c93 7dbe
000002c0: cf64 93be e170 f1bd c098 77be f5c0 c5bd
000002d0: e22d 983c 1f81 05be 5ada bdbc faa3 a23d
000002e0: b065 e9bc 6031 e2bd 7d71 a7bc 7e17 e33c
000002f0: c67c 92bd e8a2 f4bd 9b81 df3c e649 c7bb
00000300: cb12 c5bd c656 f0bd c87e c13b 9a02 ff3d
00000310: d8b7 1bbd 3c42 57bd 5985 c9bd 5195 f6bd
00000320: 2c16 dcbd 0e04 79bc 8f4c 0abd b0bc 5bbd
00000330: e0b7 acbb 2117 32bc 19d6 1bbe f297 bcbd
00000340: 1af1 8dbe 0a8e 18be c2ea 073d f423 3cbe
00000350: 04fb 55bd 32bb adbc d888 1dbe 6388 49be
00000360: 3af4 0cbd 63f2 c53c b4aa 8e3d e550 d2bd
00000370: ef6e 69bd 92ba b4bc dffb 89bd c8d9 60bd
00000380: 1752 77bd 478f 1dbd f70f c6bd 1ddb dbbd
00000390: de27 16bd df38 58bc 419d d0bb 78de 84bc
000003a0: 2731 babd e9aa ddbd 5f33 993c adb3 843d
000003b0: e978 6e3c 13db 16bd 19aa a7bd 486f bdbd
000003c0: 4a12 30bd 3b7b e5bd d837 42bd 7673 0dbe
000003d0: cad8 a0bd 22f9 d0bd efbb 3c3d 1822 1ebd
000003e0: 6aa2 2bbe 5cfa 39bc a9a3 94bd 1873 c7bd
000003f0: 43b1 7cbd f942 d9bc b812 12be bab2 263a

conv3.bias f4 [24]
2.550175 -0.011954107 -0.37760568 -0.10861779 -0.13320181 0.63800615 -0.065760136 0.63566184
-0.061653886 -0.3933779 0.56724703 0.66032857 -0.21544869 0.19512537 -0.118843146 0.59088665
-0.16037425 0.21053953 -0.058114998 -0.03929786 -0.043812275 0.44440645 0.3902775 -0.09288314
00000000: 1136 2340 29db 43bc 8855 c1be 0173 debd
00000010: 0e66 08be 5f54 233f 40ad 86bd bcba 223f
00000020: c988 7cbd d468 c9be 1a37 113f 4b0b 293f
00000030: 959e 5cbe f2ce 473e 0964 f3bd 5944 173f
00000040: 2639 24be ad97 573e fe09 6ebd cbf6 20bd
00000050: 8074 33bd 3e89 e33e 74d2 c73e 8439 bebd

conv4.weight f4 [48, 24, 3, 3]
-0.01265344 -0.10790914 -0.13935335 -0.089927405 -0.38645306 -0.032345757 -0.19841117 -0.38933024
-0.24189599 -0.0015535626 -0.07427368 -0.07441156 -0.21727066 -0.33435842 0.10828284 -0.56184816
-0.46439016 -0.09770566 0.19099888 -0.6785092 -0.5713708 -8.436341 -0.052397106 -0.0033304351
-4.363934 -0.37105027 0.87256396 0.06779888 -0.10200332 -0.16187404 -3.1691296 2.779364
2.3562381 -0.15694149 1.7764046 -6.258927 -0.043277513 -0.057472643 -0.1138086 0.44867018
-0.33265898 -0.5472609 -0.5226486 0.079554215 -0.44140613 -0.12063433 -0.4865342 -0.71111536
-0.18332131 -0.59873974 -0.18761079 -1.2583729 0.051718924 0.7618018 0.0058041327 -0.27844226
-0.06501499 3.9499304 0.79313815 0.66221523 -0.51614326 0.16698998 -0.7492997 -0.13561681
-0.6509682 -0.40896907 -1.7438326 1.7426711 0.30968913 0.94104826 -0.07238783 -0.6655213
0.006450834 -0.06763301 -0.09298466 -0.048653726 -0.16141537 -0.06886163 -0.13938817 -0.12334617
0.17231949 -0.093715064 -0.09867724 -0.04101531 -0.11341671 0.13459733 0.08110737 -0.20934193
-0.15609638 0.029969111 0.003096753 -0.2115387 -0.0640266 -2.297026 -0.63249034 0.43998334
-0.124383606 -0.024744269 1.8161312 -0.14005177 -0.024399297 -0.10178065 -0.18458082 0.022980606
0.14730114 -0.12102073 0.8150064 0.34501496 -0.013738075 -0.0010232285 -0.097618766 -0.34436166
1.9126166 0.28758723 -0.6947637 0.2742449 -0.18833338 -0.034500465 -1.1723607 -1.0354632
-1.7651321 0.32341388 0.52357465 1.5037487 -0.72476274 -0.21033102 -0.121804334 -0.3521575
-0.1529768 -0.6296051 -0.3872229 -0.28312683 -0.8432603 -0.28009233 0.23660113 -0.095487036
-0.17306101 0.00035092427 -0.14830226 -0.6554415 -2.7172449 0.0285945 -0.35262072 -0.074262105
0.028302878 -0.040250625 0.0422354 -0.14221707 -0.37749657 -1.5294473 -0.60819346 2.3632915
-1.4770532 -0.40551224 -1.1038859 -0.53278244 1.2039106 -0.1791759 -0.22255938 -3.0806644
-0.17176905 -0.09299168 -0.10705321 -0.10612817 0.0060713934 -0.15326098 -1.35635 -1.6909467
-0.09069118 -0.5876968 -0.076693736 -0.035984363 -0.032785162 -0.10006697 -0.08649119 0.027845029
0.013818039 -0.0099799195 0.09059049 -0.0049585453 -0.032600425 -0.1017768 -0.1468339 1.6782475
1.2844365 -0.47507954 -1.586379 1.2494457 -0.3287907 -0.043558896 -0.25891817 -0.19649838
0.6710943 -0.012234618 0.11392081 -5.9378796 -0.14228804 0.16693749 -0.3132194 -0.70480776
-0.93278986 -0.88426435 0.041822344 -0.36058375 -2.519794 0.16769423 0.1457236 -0.014334478
-0.018953033 -0.011448223 -0.049598567 -0.1661257 -0.45554894 0.4875448 -4.906346 -0.5817581
-0.03895635 -0.011467347 0.00096080545 -0.026645444 0.08255932 0.014329558 0.09601712 -0.04318386
-0.09545642 -0.046578698 -0.129155 -0.03517085 -0.07318163 -0.05500627 -0.10236882 -0.032980576
-0.12020967 -0.025279762 -0.08322326 -0.008655952 -0.020650968 0.061676517 0.0005977919 -0.039531842
-0.10684916 -0.07459335 -0.029569222 -0.07226909 -0.072336756 -0.09347121 -0.101086296 -0.090433024
-0.10226132 -0.03002526 -0.00609991 0.026840119 -0.045384597 -0.06546155 0.02348818 -0.07272884
00000000: 6050 4fbc 78ff dcbd a5b2 0ebe dc2b b8bd
00000010: 2ddd c5be fc7c 04bd 4c2c 4bbe 4b56 c7be
00000020: 95b3 77be e9a0 cbba cd1c 98bd 1765 98bd
00000030: 337c 5ebe 0731 abbe 65c3 dd3d 48d5 0fbf
00000040: 8cc4 edbe e819 c8bd 3695 433e c7b2 2dbf
00000050: 5b45 12bf 41fb 06c1 599e 56bd 6e43 5abb
00000060: 59a5 8bc0 4dfa bdbe 5a60 5f3f 24da 8a3d
00000070: 1ee7 d0bd 4fc2 25be 05d3 4ac0 1ae1 3140
00000080: 9bcc 1640 45b5 20be 3a61 e33f 2149 c8c0
00000090: c343 31bd 6f68 6bbd 7c14 e9bd 19b8 e53e
000000a0: 4752 aabe 4a19 0cbf 4ccc 05bf 52ed a23d
000000b0: fcff e1be 220f f7bd 031b f9be a80b 36bf
000000c0: 95b8 3bbe 0247 19bf 0b1d 40be 5d12 a1bf
000000d0: 39d7 533d 7105 433f 9830 be3b fc8f 8ebe
000000e0: 9426 85bd a9cb 7c40 1a0b 4b3f f086 293f
000000f0: f721 04bf 6cff 2a3e 1bd2 3fbf 22df 0abe
00000100: daa5 26bf 6564 d1be e835 dfbf d90f df3f
00000110: 938f 9e3e 8ae8 703f 1240 94bd 9b5f 2abf
00000120: 8561 d33b 2d83 8abd be6e bebd 2149 47bd
00000130: 124a 25be 5407 8dbd c6bb 0ebe eb9c fcbd
00000140: 8574 303e afed bfbd 4b17 cabd abff 27bd
00000150: 0547 e8bd e2d3 093e 9f1b a63d bb5d 56be
00000160: bbd7 1fbe c881 f53c e5f2 4a3b 9a9d 58be
00000170: 6120 83bd 7902 13c0 e3ea 21bf 7f45 e13e
00000180: d5bc febd 7eb4 cabc fd76 e83f bb69 0fbe
00000190: 09e1 c7bc 6072 d0bd c102 3dbe d341 bc3c
000001a0: 1cd6 163e b7d9 f7bd 42a4 503f cda5 b03e
000001b0: aa15 61bc da1d 86ba 59ec c7bd 2c50 b0be
000001c0: 9fd0 f43f a23e 933e 09dc 31bf d469 8c3e
000001d0: 77da 40be 5c50 0dbd ea0f 96bf 0f8a 84bf
000001e0: d9ef e1bf 8196 a53e fd08 063f d67a c03f
000001f0: 0d8a 39bf 0461 57be 8d74 f9bd fd4d b4be
00000200: f3a5 1cbe cd2d 21bf 1442 c6be 00f6 90be
00000210: e8df 57bf 4368 8fbe 9147 723e b58e c3bd
00000220: e836 31be 42fc b739 8cdc 17be 04cb 27bf
00000230: 57e7 2dc0 033f ea3c b48a b4be bb16 98bd
00000240: 70db e73c d7dd 24bd 07ff 2c3d 5aa1 11be
00000250: 3b47 c1be eec4 c3bf 91b2 1bbf 2b40 1740
00000260: 1410 bdbf 4d9f cfbe 224c 8dbf 6e64 08bf
00000270: be19 9a3f e379 37be 9be6 63be 9b29 45c0
00000280: 3ae4 2fbe 6c72 bebd b73e dbbd ba59 d9bd
00000290: 8af2 c63b 72f0 1cbe e09c adbf f170 d8bf
000002a0: 4cbc b9bd 4c73 16bf 9b11 9dbd 5764 13bd
000002b0: bc49 06bd e9ef ccbd 4b22 b1bd 421b e43c
000002c0: 0e65 623c d182 23bc 8287 b93d 4b7b a2bb
000002d0: 0688 05bd 5b70 d0bd a05b 16be d0d0 d63f
000002e0: 6a68 a43f a03d f3be 780e cbbf d6ed 9f3f
000002f0: 4157 a8be d06a 32bd ec90 84be df36 49be
00000300: d6cc 2b3f b573 48bc 504f e93d 1c03 bec0
00000310: f5b3 11be a9f1 2a3e 4b5e a0be 486e 34bf
00000320: 51cb 6ebf 265f 62bf e84d 2b3d 6f9e b8be
00000330: 4e44 21c0 09b8 2b3e 9138 153e 29db 6abc
00000340: 6443 9bbc 5491 3bbc de27 4bbd db1c 2abe
00000350: b63d e9be 799f f93e c900 9dc0 19ee 14bf
00000360: b290 1fbd 8ae1 3bbc 90de 7b3a 8c47 dabc
00000370: dc14 a93d 86c6 6a3c a0a4 c43d 8fe1 30bd
00000380: a87e c3bd 4ec9 3ebd 3541 04be 4f0f 10bd
00000390: 40e0 95bd 414e 61bd bea6 d1bd a416 07bd
000003a0: 7d30 f6bd 8117 cfbc f570 aabd b2d1 0dbc
000003b0: 382c a9bc 84a0 7c3d 23b5 1c3a 24ec 21bd
000003c0: bbd3 dabd 66c4 98bd 273b f2bc d101 94bd
000003d0: 4b25 94bd d56d bfbd 5506 cfbd f334 b9bd
000003e0: 626e d1bd 89f7 f5bc c1e1 c7bb cfdf db3c
000003f0: 33e5 39bd b510 86bd 496a c03c dcf2 94bd

conv4.bias f4 [48]
0.22787698 -0.010654647 -0.20862347 -0.92408234 0.13071878 -0.10241689 -0.1185483 -0.30261928
-0.4375249 -0.10066774 -0.07392571 1.4023008 -0.1478008 -0.29829645 -0.11867535 0.08954029
2.4894083 0.5343179 0.70260286 -0.16460465 0.0714177 0.13583481 -0.094298735 -0.13714603
-0.013731815 -0.12692896 -0.30057454 -0.31723526 -0.066909865 -0.24158524 -0.1473898 -0.024407767
0.42790776 -0.43204337 -0.11283088 -0.12181581 -0.05593201 -0.15848184 -0.18847509 0.5506119
-0.13296369 -0.15065055 -0.12436492 -0.106081456 -0.20385046 0.057064056 -0.08691471 -0.139489
00000000: 9558 693e d490 2ebc 64a1 55be a990 6cbf
00000010: 25db 053e f2bf d1bd 73c9 f2bd eaf0 9abe
00000020: 4403 e0be e32a cebd 5d66 97bd 987e b33f
00000030: 1859 17be 50ba 98be 100c f3bd e660 b73d
00000040: 7752 1f40 0fc9 083f c8dd 333f 1f8e 28be
00000050: 7143 923d 4818 0b3e b21f c1bd 0270 0cbe
00000060: 68fb 60bc aaf9 01be e8e4 99be a96c a2be
00000070: 0a08 89bd 1f62 77be 5aed 16be ccf2 c7bc
00000080: ba16 db3e ca34 ddbe e013 e7bd 917a f9bd
00000090: f718 65bd 1049 22be 9dff 40be e7f4 0c3f
000000a0: a227 08be 2344 1abe 09b3 febd 3c41 d9bd
000000b0: 2dbe 50be 00bc 693d 5700 b2bd 34d6 0ebe

conv5.weight f4 [96, 48, 3, 3]
-0.107133456 -2.0919845 0.56049067 -2.9993448 -0.02588126 -1.0266291 -0.55820376 0.30424342
-1.115564 0.09569225 0.09036403 -0.03881726 0.047880273 0.09781529 -0.1332483 0.17245021
0.29528967 0.5541898 0.0056448868 -0.5558586 0.12458081 0.29046345 -0.5186481 0.22893746
-0.20079413 -0.12004186 0.10874416 -0.27188495 -0.0747533 0.13109368 -0.16993876 -0.11862154
-0.17465134 0.18667954 0.1291644 0.050216768 -0.029978445 0.068674244 -0.001732912 0.07537704
-0.11165514 -0.07626553 -0.0765864 0.14946392 0.04643768 -0.0150901815 -0.038552847 -0.02467996
0.04388822 -0.096974045 -0.08145088 -0.05055616 0.09456464 0.01705102 -0.1358257 -0.085800245
-0.19815485 -0.029260168 -0.12563622 -0.09458793 -0.14341627 0.124635525 0.18362829 -0.049304612
-0.16195062 0.23760577 -0.30673578 0.8080627 0.3590296 0.1813913 -0.6886985 -0.3459234
-0.015852673 0.018909942 0.04241399 -0.052941434 -0.1545596 0.012513874 0.07675922 0.056509554
0.1162637 -0.56565267 0.40224805 0.93552166 0.35417607 -0.22308016 -0.04458629 -2.2949717
-0.06669782 -0.22405665 -0.585429 -3.4322462 -1.2783461 -0.47119135 -0.6959272 0.5657888
0.4886303 -2.0883908 1.2088122 0.26296493 1.3585598 0.15422522 -0.19125386 0.02654723
0.13390778 0.08456679 0.2576453 0.027121572 0.005645153 -0.7414202 -0.5122675 0.02991827
0.54662055 0.80596894 -2.74348 0.35094658 -0.19031675 -0.31720507 -0.25959244 -0.26524144
-0.31592333 -0.36020672 -0.2585574 -0.20095584 -0.2443474 -0.21684064 0.14153282 -0.37498203
-0.16015084 0.17328918 -0.34352082 -0.10633007 0.14135922 0.06685637 0.09552584 -0.06475917
0.09900147 0.11989128 -0.19997564 -0.03827228 -0.011789844 0.104806006 0.021045 0.0504805
-0.070397675 -0.014839588 -0.038930364 -0.018477859 -0.035465598 0.060955487 0.019478936 0.012799295
-0.016903209 -0.17294833 0.35701364 0.16804715 -1.1612464 0.29523724 0.2331673 0.6884665
-0.37888736 0.35614926 -0.27338693 -0.30475524 -0.07122504 0.09214492 0.32762736 0.053373013
-0.21959765 0.0328477 0.023752904 0.13376802 0.18195531 -0.19328775 -0.022065533 -0.058991835
-0.10679326 0.11799711 0.10785829 -0.0148403905 0.013322718 -0.122972615 0.14092991 0.051969666
-0.08034984 0.04469456 -0.18272924 0.19469331 0.059907984 0.2743269 -0.68978703 0.53454596
-0.1796843 0.26388854 0.13054426 -0.30107862 -0.6612472 -1.0861197 -0.8619635 -0.2630132
-0.9985456 0.07424049 -0.11959197 -0.09622477 0.008280029 -0.13036379 -0.5745502 0.06761394
0.007712747 0.019834943 0.072157726 0.037464973 0.08171972 0.042023573 0.033812385 -0.0191524
-0.6794129 -1.7720852 1.4382417 -0.06480957 0.1312225 -1.4491311 1.5348946 -0.43386072
0.64512986 -0.09159671 1.48688 0.1468154 1.2202836 0.05607619 0.9044472 0.5202959
-0.9517288 0.013289655 -0.73630095 0.15703847 -0.78236824 0.33797282 -1.5300698 0.4503679
-0.9448484 2.4049995 -0.08307884 -0.15023172 0.0102040265 0.16235144 0.217008 -0.2978637
-0.08710795 0.097720616 -0.0044798176 0.10619157 0.06571607 0.04240591 -0.058869418 0.046481784
00000000: c968 dbbd 13e3 05c0 517c 0f3f 44f5 3fc0
00000010: f004 d4bc 9568 83bf 71e6 0ebf cbc5 9b3e
00000020: cdca 8ebf 4cfa c33d c710 b93d d9fe 1ebd
00000030: 1b1e 443d 6253 c83d 3e72 08be ca96 303e
00000040: 3530 973e 62df 0d3f bef8 b83b c04c 0ebf
00000050: 3924 ff3d a0b7 943e 1fc6 04bf 956e 6a3e
00000060: fa9c 4dbe 82d8 f5bd 42b5 de3d 8134 8bbe
00000070: 4218 99bd 6c3d 063e 6d04 2ebe daef f2bd
00000080: cdd7 32be ec28 3f3e ac43 043e 19b0 4d3d
00000090: 5b95 f5bc 15a5 8c3d e122 e3ba 475f 9a3d
000000a0: 73ab e4bd 1a31 9cbd 55d9 9cbd 120d 193e
000000b0: 7035 3e3d cf3c 77bc 97e9 1dbd a12d cabc
000000c0: 22c4 333d 549a c6bd b8cf a6bd fa13 4fbd
000000d0: 1bab c13d 95ae 8b3c e415 0bbe 0ab8 afbd
000000e0: 1be9 4abe 05b3 efbc c8a6 00be 51b7 c1bd
000000f0: b7db 12be e940 ff3d 0e09 3c3e a2f3 49bd
00000100: 62d6 25be ed4e 733e 790c 9dbe 32dd 4e3f
00000110: bad2 b73e a4be 393e 8b4e 30bf df1c b1be
00000120: 77dd 81bc 06e9 9a3c 4bba 2d3d 1ed9 58bd
00000130: df44 1ebe fe06 4d3c f033 9d3d 9076 673d
00000140: aa1b ee3d 9dce 10bf 75f3 cd3e 597e 6f3f
00000150: 9156 b53e 206f 64be 1da0 36bd d1e0 12c0
00000160: de98 88bd 1b6f 65be adde 15bf eca9 5bc0
00000170: d8a0 a3bf fe3f f1be 4928 32bf 89d7 103f
00000180: c02d fa3e 32a8 05c0 5cba 9a3f 57a3 863e
00000190: 4ae5 ad3f 37ed 1d3e 0dd8 43be 9479 d93c
000001a0: 1f1f 093e 5a31 ad3d 16ea 833e 0f2e de3c
000001b0: fafa b83b b7cd 3dbf f623 03bf 2917 f53c
000001c0: 53ef 0b3f fb53 4e3f 2d95 2fc0 45af b33e
000001d0: 65e2 42be b468 a2be 4de9 84be bacd 87be
000001e0: b4c0 a1be 046d b8be a361 84be 5ec7 4dbe
000001f0: 3436 7abe 790b 5ebe fbed 103e a5fd bfbe
00000200: 95fe 23be b872 313e f6e1 afbe 94c3 d9bd
00000210: 79c0 103e feeb 883d 0da3 c33d 75a0 84bd
00000220: 48c1 ca3d 8f89 f53d 6ac6 4cbe 65c3 1cbd
00000230: 312a 41bc 88a4 d63d 9066 ac3c a4c4 4e3d
00000240: a82c 90bd be21 73bc 7275 1fbd e15e 97bc
00000250: 6044 11bd 76ac 793d 4a92 9f3c 22b4 513c
00000260: 9978 8abc 5e19 31be 7eca b63e 8d14 2c3e
00000270: b9a3 94bf 5629 973e 69c3 6e3e 573f 303f
00000280: 86fd c1be 3259 b63e 5ff9 8bbe e108 9cbe
00000290: 6fde 91bd 7ab6 bc3d c6be a73e a99d 5a3d
000002a0: 35de 60be 4f8b 063d 7395 c23c 7cfa 083e
000002b0: 7e52 3a3e 39ed 45be c7c2 b4bc 6ca1 71bd
000002c0: 6db6 dabd 78a8 f13d cfe4 dc3d 1c25 73bc
000002d0: 8847 5a3c 11d9 fbbd ee4f 103e 25de 543d
000002e0: 758e a4bd a511 373d 601d 3bbe af5d 473e
000002f0: 1362 753d 9374 8c3e e295 30bf 01d8 083f
00000300: 29ff 37be 661c 873e 65ad 053e fa26 9abe
00000310: 7f47 29bf f805 8bbf a4a9 5cbf aba9 86be
00000320: afa0 7fbf 660b 983d a3ec f4bd 7e11 c5bd
00000330: f5a8 073c 167e 05be b915 13bf 2d79 8a3d
00000340: 36bb fc3b e47c a23c 6ec7 933d df74 193d
00000350: ab5c a73d e920 2c3d db7e 0a3d 7ee5 9cbc
00000360: 01ee 2dbf b0d3 e2bf 4e18 b83f e1ba 84bd
00000370: 315f 063e 217d b9bf 6d77 c43f fe22 debe
00000380: 3b27 253f 0e97 bbbd 1552 be3f c756 163e
00000390: 4132 9c3f 26b0 653d da89 673f 1d32 053f
000003a0: 80a4 73bf dabc 593c 387e 3cbf b1ce 203e
000003b0: 4949 48bf c60a ad3e 54d9 c3bf 9f96 e63e
000003c0: 96e1 71bf 83eb 1940 3d25 aabd 58d6 19be
000003d0: ca2e 273c 753f 263e 5837 5e3e 9781 98be
000003e0: a765 b2bd bf21 c83d 6fcb 92bb f77a d93d
000003f0: 2696 863d d2b1 2d3d 0f21 71bd af63 3e3d

conv5.bias f4 [96]
0.09266688 -0.68060327 -0.15236048 -0.22735062 -0.03029526 0.62969744 0.046817612 -0.3484871
-0.032504715 0.023085253 -0.15353881 -0.07947892 0.08431327 0.37965196 -0.08187987 -0.06199681
0.025139112 0.66924196 0.0076385797 -0.39229482 0.017385524 0.20760487 0.26415813 0.1265614
0.14592083 0.14700936 0.050749775 -0.037775382 -0.63804746 0.18086082 -0.12867518 -0.12517698
-0.13807794 0.34887892 -0.06548726 -0.2900501 0.011608653 0.10204238 0.06958068 -0.016266648
0.12339784 -0.264481 -0.12573169 -0.2182062 0.28737107 -1.2336987 0.048664384 -0.05120626
-0.10586864 -0.28461418 -0.22748739 0.3212569 0.10990415 -0.32608536 0.075838886 0.16173382
0.50302553 -0.120287806 0.12492229 0.28836632 0.19375563 -0.17110083 -0.006055814 -0.027201222
0.5479626 0.077865325 -0.12181959 -0.080468945 -0.017076887 0.068461105 -0.0393167 -0.0056158584
-0.02582148 0.14629704 0.14986977 0.25397772 0.04235626 0.03655966 0.11378446 -0.29149002
0.035237003 0.046637516 -0.112998016 0.0074439044 0.0743331 -0.13435143 0.0919153 0.007741594
-0.031293053 -0.19216026 2.0310347 0.32581162 0.0018602744 -0.08173555 0.14549412 -0.8765769
00000000: 22c8 bd3d 043c 2ebf 6304 1cbe 9ace 68be
00000010: c42d f8bc da33 213f d3c3 3f3d e76c b2be
00000020: aa23 05bd 491d bd3c 4739 1dbe d8c5 a2bd
00000030: 70ac ac3d be61 c23e a2b0 a7bd 5ef0 7dbd
00000040: 8af0 cd3c 7153 2b3f 0d4d fa3b deda c8be
00000050: 166c 8e3c 5f96 543e bc3f 873e 5099 013e
00000060: 456c 153e 9f89 163e ffde 4f3d 5cba 1abd
00000070: 1457 23bf 9433 393e 6dc3 03be 652e 00be
00000080: 4e64 0dbe 42a0 b23e 2f1e 86bd 7281 94be
00000090: 3832 3e3c 98fb d03d 5180 8e3d a241 85bc
000000a0: 02b8 fc3d 0e6a 87be cfbf 00be 7271 5fbe
000000b0: 4d22 933e d7e9 9dbf 4e54 473d a8bd 51bd
000000c0: a8d1 d8bd f3b8 91be 74f2 68be c97b a43e
000000d0: 6d15 e13d a9f4 a6be 6b51 9b3d 8d9d 253e
000000e0: 48c6 003f 7459 f6bd 42d7 ff3d c0a4 933e
000000f0: e067 463e 0e35 2fbe da6f c6bb 19d5 debc
00000100: 4747 0c3f db77 9f3d 8d7c f9bd e7cc a4bd
00000110: d4e4 8bbc 5635 8c3d 8c0a 21bd 3c05 b8bb
00000120: 9287 d3bc e4ce 153e 7677 193e 5e09 823e
00000130: c27d 2d3d 95bf 153d d407 e93d 2e3e 95be
00000140: ad54 103d fb06 3f3d 816b e7bd ffeb f33b
00000150: f43b 983d 6c93 09be 173e bc3d 33ad fd3b
00000160: 252d 00bd a9c5 44be 79fc 0140 c8d0 a63e
00000170: 73d4 f33a f864 a7bd 69fc 143e 5867 60bf

res1.conv1.weight f4 [6, 6, 3, 3]
-2.3564787 1.2421385 -1.0343862 2.763985 5.7134414 -1.3910761 -1.3186097 -0.61951935
-1.6116424 0.1512534 -0.9046532 1.1560997 -0.40377918 -0.17505714 -0.7403388 -0.667162
0.46535495 0.09677706 1.6607132 -0.46048722 0.4942727 -0.7968345 0.8600709 3.289832
-1.839631 1.1594003 1.6741909 0.8124497 -1.4551826 -0.7046542 0.5764218 -3.0368655
-0.0583778 1.4249201 -1.0840445 0.08962188 2.0590076 0.4107478 0.33839256 0.019496806
-1.8464631 0.38243973 0.8954125 -0.19042464 1.0350512 2.4778821 -0.9463171 1.5675315
2.1332989 -1.2520432 3.7563999 2.527696 0.87111795 2.5775123 -1.1247746 -1.429005
1.6284016 -5.12195 -0.43052328 -1.2285159 -0.95298487 -3.7686987 0.34449837 0.16487609
-0.3795473 0.12864766 -0.698309 0.061593328 -0.39946172 -0.42255887 0.0017464204 0.38761908
2.3598452 -0.7019825 1.0848874 -3.8492985 -7.1684704 -4.8609943 -1.095478 -4.0786324
-2.3901718 -0.6396107 -0.57611495 -2.3853135 1.9700835 -3.675757 0.27873823 0.08957431
0.7860049 0.7271837 -0.43419173 -0.4603001 1.0007225 0.4219865 -2.5336561 0.90372735
1.0711828 1.04496 0.9593466 1.4442474 -0.29102585 1.2816681 -1.0464103 -6.2674847
1.8720967 2.724163 2.9317024 3.5495942 -0.11690964 -1.3927408 0.13569984 0.75688934
-1.2202691 0.096875146 0.21905197 0.13774094 -0.3199426 0.20497902 -0.4568793 0.6132593
-0.1049034 -4.018611 -1.174691 0.18848635 -0.2971084 0.88461983 0.52343774 3.601951
1.3849247 2.3632543 -3.3829312 -4.9709835 0.44174093 -4.088888 -3.2504237 -1.6050987
-3.4439957 -3.0795932 -1.3177423 -2.3659685 -0.6098719 -0.69935995 -0.90250766 0.48674428
0.2793619 0.56258374 0.2174821 0.36356336 1.1572373 1.0769097 -0.8486783 -0.3185124
-0.33860138 -0.12107424 0.7767979 1.3356735 -0.8435001 -0.44739783 0.52411014 -0.78570545
-0.5338465 -0.098218836 -0.63282806 -0.68695897 -1.0638865 1.2159928 2.3567092 0.21702912
-0.24521554 -0.46617 -0.0005354132 0.24047802 0.099590614 0.25628838 -0.23741055 -0.8037673
-0.26977798 0.4794382 0.26994526 0.90028477 -2.1245375 -0.2950673 -3.3766806 3.2543166
-4.1754174 -0.06350663 -4.0603514 -7.0178065 2.5677829 -2.225464 2.433181 -2.273351
3.3394723 0.7822448 2.7326303 0.42345673 0.3790045 0.4544775 -2.9049127 2.5835328
-3.0265775 4.1211567 0.23359767 3.76103 -1.0706086 -0.77375185 0.4828135 1.4615588
-0.06580683 2.6930375 0.45646495 -10.201816 -0.5778856 4.429867 1.9528447 3.789678
-0.49768612 -0.391374 0.36592042 0.29866907 0.9605615 1.1153377 -0.5551582 -0.29137552
-0.2114474 -0.15555194 1.5291867 -1.1389232 1.3197384 2.995357 2.011901 -0.36067775
0.8893477 -0.83068025 -13.620377 -1.4002929 0.1371739 -1.3991592 0.6783369 2.105412
0.04253087 0.8487984 2.2916646 4.590097 0.85594624 4.4759145 -0.5370805 -1.8758008
-2.97581 1.9241744 -0.3302226 1.9397708 -0.25104037 -3.1489892 -1.8977613 0.57448673
00000000: 8cd0 16c0 65fe 9e3f c466 84bf 21e5 3040
00000010: 83d4 b640 c80e b2bf 34c8 a8bf d298 1ebf
00000020: 4c4a cebf 2ce2 1a3e 5a97 67bf 13fb 933f
00000030: 25bc cebe 2e42 33be d886 3dbf 21cb 2abf
00000040: 0143 ee3e 0d33 c63d 4092 d43f fbc4 ebbe
00000050: 5011 fd3e 59fd 4bbf 9b2d 5c3f 9c8c 5240
00000060: 0779 ebbf 3b67 943f e34b d63f b4fc 4f3f
00000070: 6c43 babf 3864 34bf 6190 133f 015c 42c0
00000080: 8f1d 6fbd c863 b63f f8c1 8abf ad8b b73d
00000090: c8c6 0340 894d d23e ca41 ad3e c4b7 9f3c
000000a0: e758 ecbf 24cf c33e c139 653f adfe 42be
000000b0: 8f7c 843f 9f95 1e40 d641 72bf dfa4 c83f
000000c0: f887 0840 f442 a0bf db68 7040 c5c5 2140
000000d0: 9601 5f3f f6f5 2440 9df8 8fbf a3e9 b6bf
000000e0: 776f d03f 04e7 a3c0 8c6d dcbe 0240 9dbf
000000f0: d1f6 73bf 5c32 71c0 1762 b03e 47d5 283e
00000100: 0654 c2be 36bc 033e 61c4 32bf 4949 7c3d
00000110: 3f86 ccbe a359 d8be 25e8 e43a 0276 c63e
00000120: b407 1740 20b5 33bf 97dd 8a3f e85a 76c0
00000130: 1c64 e5c0 448d 9bc0 a038 8cbf 2884 82c0
00000140: 93f8 18c0 87bd 23bf 457c 13bf faa8 18c0
00000150: b22b fc3f 9a3f 6bc0 c7b6 8e3e bc72 b73d
00000160: 9e37 493f b628 3a3f 614e debe 74ac ebbe
00000170: ad17 803f 9d0e d83e 6c27 22c0 ad5a 673f
00000180: 851c 893f 40c1 853f bd97 753f 19dd b83f
00000190: 5701 95be b30d a43f c6f0 85bf 3c8f c8c0
000001a0: dda0 ef3f b058 2e40 03a1 3b40 8d2c 6340
000001b0: 526e efbd 5545 b2bf e6f4 0a3e 80c3 413f
000001c0: c731 9cbf 7a66 c63d 294f 603e f60b 0d3e
000001d0: 84cf a3be 05e6 513e 15ec e9be 90fe 1c3f
000001e0: 98d7 d6bd 7698 80c0 465c 96bf 9102 413e
000001f0: 981e 98be 7276 623f 0400 063f 5d86 6640
00000200: 3645 b13f 8f3f 1740 f281 58c0 4c12 9fc0
00000210: de2b e23e 2cd8 82c0 f106 50c0 e073 cdbf
00000220: 6d6a 5cc0 0e18 45c0 c8ab a8bf 076c 17c0
00000230: 9120 1cbf 4109 33bf be0a 67bf 8c36 f93e
00000240: 8608 8f3e 7d05 103f a1b3 5e3e fa24 ba3e
00000250: 5a20 943f 2dd8 893f fb42 59bf 0f14 a3be
00000260: 295d adbe c5f5 f7bd 3adc 463f 59f7 aa3f
00000270: 9fef 57bf 5411 e5be 152c 063f fe23 49bf
00000280: 2aaa 08bf f526 c9bd 0501 22bf 8bdc 2fbf
00000290: 6f2d 88bf a7a5 9b3f 53d4 1640 e23c 5e3e
000002a0: c819 7bbe d6ad eebe f95a 0cba df3f 763e
000002b0: 2af6 cb3d 3b38 833e c01b 73be b2c3 4dbf
000002c0: 5720 8abe ec78 f53e 4436 8a3e 1079 663f
000002d0: 6cf8 07c0 1013 97be 891b 58c0 b946 5040
000002e0: 059d 85c0 c40f 82bd 66ee 81c0 df91 e0c0
000002f0: 8e56 2440 016e 0ec0 3db9 1b40 957e 11c0
00000300: eab9 5540 3241 483f 6ae3 2e40 52cf d83e
00000310: e10c c23e 46b1 e83e 17ea 39c0 9a58 2540
00000320: 72b3 41c0 84e0 8340 3a34 6f3e b7b4 7040
00000330: b409 89bf 9a14 46bf 5533 f73e 5c14 bb3f
00000340: bbc5 86bd ba5a 2c40 c6b5 e93e a33a 23c1
00000350: 50f0 13bf 78c1 8d40 d1f6 f93f 168a 7240
00000360: b7d0 febe 2c62 c8be ec59 bb3e 27eb 983e
00000370: 5ce7 753f 63c3 8e3f d91e 0ebf 2c2f 95be
00000380: ab85 58be 0249 1fbe 64bc c33f 3cc8 91bf
00000390: 30ed a83f eeb3 3f40 fcc2 0040 c1aa b8be
000003a0: 4aac 633f 76a7 54bf 10ed 59c1 cc3c b3bf
000003b0: 5177 0c3e a617 b3bf 7da7 2d3f 12bf 0640
000003c0: d934 2e3d da4a 593f a2aa 1240 13e2 9240
000003d0: 4b1f 5b3f b13a 8f40 1c7e 09bf 3e1a f0bf
000003e0: ac73 3ec0 594b f63f f012 a9be 694a f83f
000003f0: 5d88 80be 0a89 49c0 d8e9 f2bf 9011 133f

res1.conv1.bias f4 [6]
-0.08154621 0.038678158 -0.04932362 -0.06317414 0.023346249 0.031330783
00000000: b301 a7bd fd6c 1e3d 9007 4abd 7261 81bd
00000010: a240 bf3c b554 003d

res1.conv2.weight f4 [6, 6, 3, 3]
1.1734632 0.086328015 -0.12189576 -0.46418166 -5.1827073 -3.742304 0.2523725 0.12968548
0.69280297 0.103896394 2.668165 1.9686419 1.5010389 -0.29448557 4.231554 -0.7793755
1.5505358 0.891516 0.16266015 1.1407688 -3.4681234 1.0470239 0.6733358 -0.16399345
-0.46329626 -2.6304502 0.7573368 -4.023071 -5.098197 0.77107185 3.2340622 1.64731
3.508091 -0.87974197 -0.048158597 -0.57002956 -2.6087935 -0.5204466 1.3025684 0.027388655
-1.8709363 1.6200097 0.5829569 -0.68989795 -1.0516744 1.8697063 0.5804708 -1.1085373
0.9880559 -0.07021672 -0.9900776 -1.4624823 -0.021395558 0.42195788 -0.8910985 0.5714428
1.1545959 -1.5463339 -1.4165082 -0.88232505 -0.55182344 -0.5288802 0.24340963 -0.17203666
0.52300537 3.725244 0.78950053 0.5922941 0.57993174 1.1491445 -0.7396813 0.300429
-0.64375055 0.8272602 -1.16537 -0.0185792 2.984503 -3.0168865 -0.23370762 -0.42647868
-0.028626222 0.16756032 1.4451996 -1.6888639 -0.5988317 2.893432 -3.02297 -0.036065716
-0.31768525 0.18787257 -1.4436045 -2.9720943 0.5371505 1.6860038 0.92153364 0.76416916
2.2942526 -2.8183281 2.606049 -2.1851723 -1.722866 -0.66352326 -0.013062665 -7.9540234
-3.9097643 -0.8213449 0.23190998 -0.43865734 -0.08657698 1.0933298 0.8870685 -0.088466376
0.76372457 0.42984292 0.048177525 -1.0207157 0.9390476 0.20246693 -0.54577225 -1.5699357
-0.03542343 1.657728 1.0912454 -0.26487792 -0.40075597 -0.8957247 0.4804636 1.1897191
1.2667005 1.0448809 -2.0220861 0.9392514 -0.32049605 -4.0228724 -0.3059282 0.100470565
2.1605678 2.7472217 -0.011229501 -2.6742508 -1.9728653 1.5672746 -4.4130898 0.32988667
-1.0655013 0.38851067 -1.6459308 0.9054551 4.056731 0.60265625 0.5880688 3.8348863
0.5432172 -0.70003015 1.042455 2.5721102 -0.21539967 0.30134794 1.6074498 -0.9391801
-1.4769602 0.22901873 -0.13777052 -0.41029358 -1.430971 -0.08896188 1.0696887 -0.32477966
0.021177825 1.1148758 -0.14995626 -0.07811684 -0.47813594 -0.8651728 -0.12801895 1.3379421
-0.38758677 0.2590943 -0.36676812 -0.2439668 -0.75819725 0.7593804 0.22690395 1.3104116
5.076189 0.90348536 -0.19847058 1.2985041 -0.3353146 -1.0655211 1.4302675 -1.4356554
0.29551736 3.8774405 1.5624659 -0.29598686 -0.44774204 -1.6808509 0.82948375 0.619924
0.26892766 -0.19627988 -4.837061 -1.2289981 1.0230505 -1.9296373 0.44263086 0.5468501
-1.1068528 1.0286263 0.18794875 -4.1257086 0.5064395 0.94913566 -0.77217335 0.007713581
-1.9397999 -1.8750443 -4.6723037 -0.91225576 1.0544645 -3.0533917 1.1235803 -0.980817
-1.339249 -1.0833085 -0.8114831 -1.2053891 -1.2173601 3.062232 -2.2169368 1.1857837
-1.0489175 -0.672328 1.9943712 0.8516958 1.2047967 -0.12828451 -0.99482447 0.45049664
0.46516225 -0.55497676 0.6039966 -2.9050798 4.027337 -0.99150646 0.07361156 6.3015776
1.8560488 -2.3769715 -0.03410009 -2.8703966 -0.54023224 0.5040905 -1.0457507 1.1179372
00000000: 0b34 963f becc b03d 7ca4 f9bd 38a9 edbe
00000010: bdd8 a5c0 e981 6fc0 f836 813e 45cc 043e
00000020: 895b 313f a2c7 d43d 37c3 2a40 75fc fb3f
00000030: 0b22 c03f d0c6 96be e468 8740 2785 47bf
00000040: f577 c63f 643a 643f 6290 263e b604 923f
00000050: bcf5 5dc0 e104 863f bc5f 2c3f e6ed 27be
00000060: 2b35 edbe 4c59 28c0 d3e0 413f ffbc 80c0
00000070: 6e24 a3c0 f764 453f e0fa 4e40 0edb d23f
00000080: 9084 6040 c536 61bf f341 45bd 75ed 11bf
00000090: 79f6 26c0 fd3b 05bf 90ba a63f 2c5e e03c
000000a0: d77a efbf 7a5c cf3f aa3c 153f 279d 30bf
000000b0: 449d 86bf 8952 ef3f bc99 143f 8de4 8dbf
000000c0: 3bf1 7c3f c9cd 8fbd ba75 7dbf 9f32 bbbf
000000d0: bd45 afbc dd0a d83e 081f 64bf 134a 123f
000000e0: ccc9 933f 45ee c5bf 2450 b5bf 0ee0 61bf
000000f0: 4d44 0dbf b164 07bf 6040 793e 612a 30be
00000100: aee3 053f 666a 6e40 b51c 4a3f 96a0 173f
00000110: 6876 143f 2b17 933f c15b 3dbf d4d1 993e
00000120: d6cc 24bf 53c7 533f d82a 95bf 6833 98bc
00000130: 1902 3f40 ab14 41c0 0d51 6fbe 6a5b dabe
00000140: 8a81 eabc ef94 2b3e 4dfc b83f b12c d8bf
00000150: 094d 19bf fd2d 3940 5778 41c0 a5b9 13bd
00000160: a4a7 a2be ab61 403e 08c8 b8bf cb36 3ec0
00000170: b282 093f f9ce d73f a1e9 6b3f 97a0 433f
00000180: 09d5 1240 7d5f 34c0 82c9 2640 ddd9 0bc0
00000190: e086 dcbf a9dc 29bf ca04 56bc 5c87 fec0
000001a0: 9439 7ac0 a943 52bf cf79 6d3e b297 e0be
000001b0: 464f b1bd 3bf2 8b3f ec16 633f dc2d b5bd
000001c0: 7483 433f 5f14 dc3e cc55 453d d0a6 82bf
000001d0: 6c65 703f 7e53 4f3e bbb7 0bbf a7f3 c8bf
000001e0: 2918 11bd 6e30 d43f eead 8b3f 149e 87be
000001f0: e32f cdbe 374e 65bf 53ff f53e b748 983f
00000200: 3e23 a23f a8be 853f dc69 01c0 c872 703f
00000210: 0f18 a4be 5fbb 80c0 9fa2 9cbe 83c3 cd3d
00000220: be46 0a40 7bd2 2f40 f1fb 37bc ed26 2bc0
00000230: da86 fcbf 749c c83f 0838 8dc0 e8e6 a83e
00000240: 5962 88bf dfea c63e dcad d2bf e8cb 673f
00000250: bed0 8140 ae47 1a3f ad8b 163f c76e 7540
00000260: 4810 0b3f 2d35 33bf 2a6f 853f 749d 2440
00000270: bb91 5cbe 474a 9a3e eac0 cd3f 1b6e 70bf
00000280: 080d bdbf e383 6a3e b713 0dbe 0012 d2be
00000290: 0f2a b7bf a531 b6bd 8feb 883f 8549 a6be
000002a0: 1e7d ad3c 40b4 8e3f 228e 19be b9fb 9fbd
000002b0: 3cce f4be f77b 5dbf 6617 03be b041 ab3f
000002c0: c671 c6be 02a8 843e 08c9 bbbe 6fd2 79be
000002d0: 3719 42bf c166 423f 8259 683e 91bb a73f
000002e0: 2470 a240 d14a 673f df3b 4bbe 6235 a63f
000002f0: 5bae abbe ff62 88bf 0113 b73f 8ec3 b7bf
00000300: 0d4e 973e fc27 7840 e2fe c73f 978b 97be
00000310: 723e e5be 1f26 d7bf 0c59 543f 57b3 1e3f
00000320: e3b0 893e 98fd 48be 34c9 9ac0 cf4f 9dbf
00000330: 52f3 823f 5bfe f6bf 83a0 e23e 5efe 0b3f
00000340: 5aad 8dbf 07aa 833f a375 403e ce05 84c0
00000350: 05a6 013f 8efa 723f 27ad 45bf 35c2 fc3b
00000360: 5d4b f8bf 7401 f0bf 8383 95c0 9889 69bf
00000370: b1f8 863f c56a 43c0 7bd1 8f3f d316 7bbf
00000380: 836c abbf daa9 8abf 5bbd 4fbf 314a 9abf
00000390: 75d2 9bbf 9cfb 4340 4be2 0dc0 c3c7 973f
000003a0: ee42 86bf b01d 2cbf 8e47 ff3f bc08 5a3f
000003b0: c736 9a3f 045d 03be d1ac 7ebf 7fa7 e63e
000003c0: bf29 ee3e f512 0ebf 859f 1a3f d4ec 39c0
000003d0: f2df 8040 5ed3 7dbf a8c1 963d 86a6 c940
000003e0: 0293 ed3f 4d20 18c0 89ac 0bbd 94b4 37c0
000003f0: a94c 0abf 130c 013f 29db 85bf 9118 8f3f

res1.conv2.bias f4 [6]
0.12650006 0.09414822 0.09826536 0.11640473 -0.030360444 -0.009209543
00000000: 3b89 013e c8d0 c03d 593f c93d 9a65 ee3d
00000010: 77b6 f8bc 9fe3 16bc

res1.batch_norm1.weight f4 [6]
1.0532812 1.2681838 1.2510985 1.3988982 2.0538378 1.2974913
00000000: ebd1 863f d953 a23f ff23 a03f 190f b33f
00000010: 1472 0340 3214 a63f

res1.batch_norm1.bias f4 [6]
1.5032227 4.3058205 1.2061898 -3.1116395 -2.3735209 1.08252
00000000: 9a69 c03f 48c9 8940 6d64 9a3f 1a25 47c0
00000010: c4e7 17c0 0490 8a3f

res1.batch_norm1.running_mean f4 [6]
12.002039 1.6984769 -16.417524 14.6552105 15.954174 12.6001425
00000000: 5a08 4041 b167 d93f 1757 83c1 be7b 6a41
00000010: 4c44 7f41 2f9a 4941

res1.batch_norm1.running_var f4 [6]
145.08008 107.22589 243.7229 59.7345 654.4381 246.74225
00000000: 8014 1143 a873 d642 10b9 7343 21f0 6e42
00000010: 0a9c 2344 04be 7643

res1.batch_norm2.weight f4 [6]
0.5393862 4.633186 0.472267 0.48582911 0.16505942 0.18920012
00000000: 3715 0a3f 0f43 9440 fbcc f13e 98be f83e
00000010: 5605 293e adbd 413e

res1.batch_norm2.bias f4 [6]
-0.1471897 -4.8151817 -1.114736 0.9700607 -0.59452367 0.34173286
00000000: e6b8 16be f815 9ac0 abaf 8ebf e655 783f
00000010: b432 18bf 9cf7 ae3e

res1.batch_norm2.running_mean f4 [6]
34.978275 1.1707964 3.5044615 2.7493148 -33.520416 2.7307127
00000000: c1e9 0b42 a8dc 953f 1949 6040 c6f4 2f40
00000010: e814 06c2 ffc3 2e40

res1.batch_norm2.running_var f4 [6]
85.102585 514.0481 59.667305 142.55739 183.03519 61.709167
00000000: 8634 aa42 1483 0044 52ab 6e42 b18e 0e43
00000010: 0209 3743 30d6 7642
